DeepLearning/experimentos/ReLU 2 (20, 20).pth (torch, 5109 bytes, 5 tensors)

camada1.weight f4 [20, 2]
00000000: aba1 93c0 a436 2040 6c81 83bf 3d15 02bf
00000010: 99b7 3d3d 3386 733d e201 8340 e7b2 163d
00000020: f86f 67c0 832b 5bbe 70c8 2840 299b 8d40
00000030: d5fc e43d ad8f 0b3e f8ef af3d 9037 b3c0
00000040: bcf9 0c3d f373 883d 7989 4c3d 6c73 2740
00000050: ff58 0e40 3190 a1be 7196 09c0 8fae 26bf
00000060: 888f 87c0 29eb 23c0 bf90 9b40 e555 c3bf
00000070: 1d68 e9bd 62d0 40bd 6e74 36be 55d1 323f
00000080: 50f8 89bd 7192 b040 64d8 08be 8420 85c0
00000090: 4ffe 1c40 3bec 97c0 5fd6 9540 e452 3b3f
-4.613485 2.503335 -1.0273871 -0.5081366 0.04631767 0.059454154 4.09398 0.03679171
-3.616209 -0.21403317 2.6372337 4.4251904 0.111810364 0.13629027 0.08590692 -5.6005325
0.034417853 0.066627406 0.04993579 2.6164198 2.224182 -0.31555322 -2.1498072 -0.65110105
-4.236271 -2.561228 4.861419 -1.5260588 -0.11396811 -0.04707373 -0.17817852 0.69850665
-0.06736815 5.517876 -0.13363796 -4.160219 2.4530218 -4.7475867 4.6824183 0.73173356

camada1.bias f4 [20]
00000000: 1e86 03c0 be78 dcbf 37d9 10be 777f 6ec0
00000010: 1ba4 023f 2aa9 abbd 55ff b7be f4ec 89c0
00000020: 906f e9bd bc12 46c0 5697 843f 650d d73f
00000030: 8898 09c0 1fc1 3fc0 93dd 6abe bd01 aebf
00000040: 2d0b 8bc0 496a 84c0 99e5 14bf d0db 5dc0
-2.0550609 -1.7224348 -0.14145361 -3.7265298 0.51031655 -0.08381875 -0.3593699 -4.310175
-0.11398232 -3.0948935 1.0358684 1.6800963 -2.1499348 -2.9961622 -0.22936086 -1.359428
-4.345114 -4.1379743 -0.5816284 -3.4665413

camada2.weight f4 [20, 20]
00000000: 097d cfbd 1912 77bd 2df3 28be bb9c 0ebd
00000010: ff54 92be 8d30 a3be ebc2 253e 8141 5fbe
00000020: 6edb 79be 5e92 adbd 03bf 9fbd b442 4abe
00000030: 08f4 86bd 1d35 86bd 857f 28be 8a2a 4b3d
00000040: b906 823d 097a eebd dd07 6abc 4c2b 47bd
00000050: 3762 7a40 ab5c d43f e8e2 c43d 9c93 8e3f
00000060: 15ca ac3e 1938 3ac1 0580 243e 645a aa40
00000070: f845 76be b0cc 8c40 ba55 603f 5981 61bf
00000080: 7a4e c13f 76be a13f 509e 19bd 261a 493f
00000090: f776 aa40 6d53 8e40 e2b0 7ac0 82e4 dd3f
000000a0: 1b26 3c3e d53c 15be 3ab3 07be d1fe 11be
000000b0: 3990 7ebe 0d60 a3be 3dca 7bbd bdf1 3bbc
000000c0: 8b68 13be 3f17 bbbe 2395 e33d 4f17 5abe
000000d0: f2a3 d1bd b8de af3a 13f9 50be 762d 82be
000000e0: 83b8 16be 3308 843d affa b9bd 9afc e3bd
000000f0: 3777 cabc 6c9b 263d b2fe 87bd c69b d7be
00000100: c472 b8be f8e7 23be a7dd 1a3e 2a4b 1fbe
00000110: 96fc 90be b788 62be c5e1 e4be 67a8 e4be
00000120: 978f 7ebc e5e3 4fbe 703e 26bd 0389 8a3b
00000130: 2538 43be c626 59be a661 88be 781d 3ebe
00000140: f6b5 5dc1 b851 a43f ea7f 45be 845b cf3e
00000150: 3fcd 1f3f 5540 a9c1 4913 1c3e 8ed3 0241
00000160: a19e d33d fdea 09bf 69a0 37c0 521b d4bf
00000170: dca6 8540 e05c aa40 e9ed a4bd 325a af3d
00000180: 720d b33e e648 d2c0 8569 5040 1f92 ddc0
00000190: 1b3b 113e 9fa4 29be 4670 6bbe 3d20 b9bd
000001a0: 2b7f 813c f53c 82be 5556 e93d 6f1e 31bc
000001b0: 6210 043e ea61 eb3d e929 89bd 8b33 40be
000001c0: 16f5 953d b471 d63d 0e43 99bc ae8b 49ba
000001d0: d661 9cbe a893 46be 89a8 48be e90b 46be
000001e0: 1e5c 81be 52d2 82bf fe34 8dbc d780 3a40
000001f0: 1acd 0c3f cbd8 d1ba 9c20 4e3e b356 803c
00000200: d0ac 64bd 631d ad40 fc69 0d40 b87b 64c1
00000210: 921f ecbe 19db d4be 7fca 523e 0023 6e40
00000220: f96e 14c2 589f 2640 7c6c a0be bec6 95bf
00000230: 5b33 9d3f 60a4 a33d 3ebc 63be 731f f0c0
00000240: ef63 64bf b961 40c1 3e63 e7bd 7ef5 65c1
00000250: bb5d 303d 6b7c ba3f 0956 00be 45a5 853e
00000260: 4ef2 9bc0 ab7d a5bf cf5e 273d 22da e13f
00000270: a68e 3dbf 50d1 8940 f2a6 5540 7ce9 56c0
00000280: 5df7 003e 72c7 883c fdb5 7abe ca3e 2dbd
00000290: 28c5 49be c538 31be 635a 723b bac7 2abd
000002a0: 4946 4cbe f92e debd 0c9d 1c3c 6381 723c
000002b0: 35ce d43c 7d60 b7bd 37d0 ea3b 4492 18bd
000002c0: fed7 233e 92fb b13d 0ee4 2fbc 066d 663d
000002d0: fc26 8fbe b555 93bd 5958 733c 1fab 0cbd
000002e0: 7cd5 743b 1e50 b6bd d1f0 15bd 0f44 843d
000002f0: 9644 80be 81ec 2dbe 08c5 3abd fc74 7bbe
00000300: e8dc bb3c f82b 82bd aa32 b13a 4bc3 f33d
00000310: 5f50 4dbe 6492 bdbd 8e6b 62be 63d7 f53d
00000320: 3651 96be b2c0 943d 149c 893d 6ee8 1cbe
00000330: 9471 79be 7bbe 9ebe 2efc 86bd 2a51 6dbe
00000340: 3404 a2be c207 743c 05d4 6d3d 638c eebc
00000350: 9e62 b83d a98f d3bd 1f93 54be d448 163d
00000360: 6a82 86bc 87cf babd 5510 86be 4a21 39be
00000370: 5000 003f 8d6f 673f 7a68 953d 3cef b9be
00000380: 0c5f ff3f 76c8 3740 84ed d03c 0235 80c0
00000390: ace4 a0bd 5351 2541 4d1c efbf d9d0 9fbf
000003a0: ffbc 5540 a6a3 a240 a640 49be 7372 4040
000003b0: b555 f5c1 0b51 4c41 074a 4640 ef94 bdc0
000003c0: 5fbe 3ebe f655 2e3e e119 79be 9ead cf3d
000003d0: 760e 12be 9ca5 edbd 737d 3e3e f260 6ebe
000003e0: d0f9 34bc 1957 e1bd 2e99 7d3d 19bd 90bd
000003f0: ce41 63be 1848 4f3d 68db 60be 50d3 1f3e
-0.101312704 -0.060319994 -0.16499014 -0.03481744 -0.28580472 -0.3187298 0.16187637 -0.21802332
-0.24400112 -0.08475183 -0.078001045 -0.19752008 -0.06589514 -0.06553099 -0.16454895 0.049601115
0.063489385 -0.1164437 -0.014284101 -0.048625275 3.9122446 1.659078 0.096135914 1.1138797
0.33747926 -11.638696 0.1606446 5.323534 -0.24050128 4.3999863 0.8763081 -0.88087994
1.5102074 1.2636249 -0.037504494 0.78555524 5.327022 4.447684 -3.917046 1.733536
0.18373911 -0.14573987 -0.13251963 -0.14257361 -0.24859704 -0.31909218 -0.061472166 -0.011471209
-0.14395349 -0.36541173 0.1111243 -0.21297954 -0.10236348 0.0013417816 -0.20407514 -0.2542531
-0.14718823 0.064468764 -0.09081017 -0.11132164 -0.02471505 0.040675566 -0.06640376 -0.42111033
-0.3602506 -0.16006458 0.15123616 -0.15556017 -0.28317708 -0.22122465 -0.44703498 -0.4465973
-0.015537164 -0.20301779 -0.04058689 0.004227759 -0.19064386 -0.21206197 -0.26637 -0.18565929
-13.856924 1.2837439 -0.19287077 0.40499508 0.62422556 -21.156412 0.15241732 8.176649
0.103329904 -0.5387419 -2.8691657 -1.6570837 4.1766186 5.3238373 -0.0805319 0.08562125
0.34971195 -6.5713987 3.2564404 -6.924087 0.14182703 -0.16566704 -0.22992048 -0.09039352
0.015807709 -0.25437132 0.1139342 -0.010810479 0.12896875 0.11493285 -0.06697447 -0.18769662
0.07322137 0.10470906 -0.018708732 -0.00076883554 -0.30543393 -0.19392264 -0.19595541 -0.19340481
-0.25265592 -1.0220435 -0.017237183 2.9141138 0.5500046 -0.0016010044 0.20129627 0.015666341
-0.05582887 5.4098372 2.2095938 -14.280205 -0.46117836 -0.41573408 0.20585059 3.7208862
-37.10837 2.6034756 -0.31332767 -1.1701276 1.2281297 0.079903364 -0.22239777 -7.503839
-0.89214987 -12.023858 -0.11298226 -14.372435 0.04305814 1.4569219 -0.1253282 0.26102653
-4.873328 -1.2928976 0.0408619 1.7644694 -0.7404579 4.306801 3.3383145 -3.3580008
0.12594362 0.016696665 -0.24483486 -0.04229621 -0.19704115 -0.17306812 0.0036980144 -0.04169438
-0.19948687 -0.10848803 0.009558927 0.014801356 0.025977233 -0.089539506 0.0071659344 -0.037248865
0.16000363 0.08690561 -0.010735525 0.056256317 -0.2795943 -0.07194082 0.014852607 -0.03434288
0.0037358692 -0.08902 -0.036606614 0.06458294 -0.25052327 -0.1698475 -0.04559806 -0.24556345
0.022932485 -0.063560426 0.0013519127 0.119024836 -0.2005019 -0.092564374 -0.22111341 0.120039724
-0.29358834 0.07263316 0.06719223 -0.1532304 -0.24359733 -0.310047 -0.06591068 -0.23175493
-0.31643832 0.014894428 0.058063526 -0.029119676 0.09003185 -0.103301354 -0.20759247 0.036690548
-0.016419608 -0.09121614 -0.26184335 -0.18079105 0.50000477 0.9040459 0.07295318 -0.36315334
1.9950881 2.8716102 0.025503881 -4.0064707 -0.07856116 10.332355 -1.8680512 -1.248561
3.3396604 5.0824766 -0.19653568 3.0069854 -30.66685 12.769786 3.0982683 -5.9244304
-0.18627308 0.17024979 -0.24326278 0.10140537 -0.14263329 -0.11603853 0.18602543 -0.23279169
-0.011045888 -0.11002941 0.06191366 -0.070673175 -0.22193071 0.050605863 -0.21958697 0.15607953

camada2.bias f4 [20]
00000000: 17cd 9b3c 45ed 65c0 8d49 adbd 19e8 54be
00000010: 7ed7 93c0 6bc4 84be 5c8a 963e b944 6ac0
00000020: 934a 0ebe 310f 32be f0f4 013c 6c33 84c0
00000030: 9ed1 10be 517b 6a3d cb9a a6be b403 c63c
00000040: 6a03 09be 68ec ca40 9667 24bf 1f7e f1c0
0.019018693 -3.5926068 -0.08461294 -0.20791663 -4.620055 -0.25931105 0.29402435 -3.6604445
-0.13895635 -0.17388608 0.007931933 -4.131277 -0.14142463 0.05724651 -0.32539973 0.024171688
-0.13380209 6.341358 -0.6422056 -7.5466456

camada3.weight f4 [1, 20]
00000000: ad3c abbc 3124 7ac0 b9b2 233d f3ca 6ebd
00000010: 351a 9140 8c16 49be 7584 54c0 f469 bdbf
00000020: 0280 093e fd0b 913d cc28 583c ca33 90c0
00000030: 7b29 903d 1d2e 413a 213b f13c 7890 7ebc
00000040: 4458 3ebd 3489 3cc1 f589 43c0 7ed2 82c1
-0.020902956 -3.908459 0.039965365 -0.058299016 4.534449 -0.19637507 -3.3205845 -1.4797959
0.13427737 0.07082365 0.0131933205 -4.506322 0.07039162 0.0007369237 0.02944714 -0.015537374
-0.046470895 -11.783497 -3.0552952 -16.35278
