DeepLearning/experimentos/ReLU 3 (15, 15, 15).pth (torch, 5941 bytes, 7 tensors)

camada1.weight f4 [15, 2]
0	0xbea289a8	-0.31745648
1	0xbcbcd131	-0.023048969
2	0xc019393e	-2.3941188
3	0xbfc210a4	-1.5161328
4	0xc003b211	-2.0577433
5	0x3fe7105f	1.8051871
6	0xc0825a42	-4.073518
7	0x3ffe41f6	1.986388
8	0x3cbc15b0	0.02295956
9	0xbdaaa16e	-0.083315715
10	0x3ff180f2	1.8867476
11	0x409bbfd8	4.8671684
12	0xc078fb92	-3.8903546
13	0x3f93e9e6	1.1555755
14	0xc05c856a	-3.445643
15	0xc08e26cb	-4.4422355
16	0xbfbc1eb8	-1.4696875
17	0xc005cb56	-2.0905356
18	0xbed4b24f	-0.4154229
19	0x409af2d2	4.842141
20	0x3fa3b872	1.2790663
21	0xc06a926e	-3.6651874
22	0xc08d7051	-4.4199605
23	0x40488965	3.133386
24	0x3e03a828	0.12857115
25	0xbe97da0b	-0.2965854
26	0x3d9ee2e4	0.0775812
27	0xc0a46811	-5.1377034
28	0x40671be6	3.6110778
29	0xbfa4009b	-1.2812685

camada1.bias f4 [15]
0	0xbecbc186	-0.39796084
1	0x3e3e87e0	0.1860652
2	0x4001d071	2.0283473
3	0xc0077dcb	-2.1170528
4	0xbe083453	-0.1330121
5	0xbfde7980	-1.7380829
6	0xc02d89f7	-2.7115457
7	0xbfbf445e	-1.4942739
8	0x3fede065	1.8584105
9	0xc0524c54	-3.2859087
10	0xbfaf62a0	-1.3701973
11	0xbf66d870	-0.9017401
12	0xbf2e0a6d	-0.6798466
13	0xc082f833	-4.0927978
14	0xbeb9280b	-0.36163363

camada2.weight f4 [15, 15]
0	0xbf1d9fc1	-0.6157189
1	0xbf0242ff	-0.5088348
2	0xc0492101	-3.1426394
3	0xbe09e10e	-0.13464758
4	0xbdee5d38	-0.11638874
5	0x3fb363f8	1.4014883
6	0x3da6c8ac	0.08143744
7	0xbfa25242	-1.2681353
8	0xc0a93712	-5.2879725
9	0xc11aeb43	-9.682437
10	0xbf40b929	-0.7528253
11	0xc02afdcf	-2.6717412
12	0x3f0a8e80	0.5412369
13	0xbe0ed7c4	-0.13949496
14	0x4061a1ba	3.525496
15	0xbde72c5f	-0.1128776
16	0xbdb50214	-0.08838287
17	0x3d328143	0.043580305
18	0x406bd08b	3.6846035
19	0xbe191183	-0.14948086
20	0x404615c7	3.0950792
21	0x40117f21	2.2733843
22	0x3fa76cbd	1.3080059
23	0xbff43af6	-1.9080493
24	0x3fd5756f	1.6676463
25	0x3f8955fa	1.0729363
26	0x402f1961	2.735924
27	0x3e35cfa4	0.1775499
28	0x411bef27	9.745887
29	0xbe832d95	-0.25620714
30	0xbcda2990	-0.026631147
31	0x3fac2f8c	1.345201
32	0xbf474447	-0.7783856
33	0x40675add	3.6149209
34	0xbe497555	-0.19673665
35	0xc12f6755	-10.962728
36	0x405c5f2f	3.4433095
37	0x40349dc1	2.8221285
38	0xbec7252d	-0.3889555
39	0xc0422e1c	-3.0340643
40	0x3f14690a	0.57972777
41	0x3f8d3dbf	1.1034468
42	0xbd7e0ab5	-0.06202193
43	0xc2472536	-49.78634
44	0x401578f5	2.3355076
45	0xbda8d9cc	-0.082446665
46	0xbef4631c	-0.47731864
47	0xbe406ba1	-0.18791057
48	0x3f82c392	1.0215933
49	0xbea53cee	-0.32273048
50	0xbf8ba56d	-1.0909859
51	0x3f378d6d	0.71700174
52	0xbec57e24	-0.385728
53	0xbf700ed9	-0.93772656
54	0x3fa358b6	1.2761447
55	0xbe1f04aa	-0.15529123
56	0xbf2cea15	-0.6754468
57	0xbeabf8aa	-0.33588153
58	0xbf638d7a	-0.8888775
59	0xbf6e3e8f	-0.93064207
60	0xbcd13eea	-0.025542695
61	0xbe6a9f9f	-0.22912453
62	0xbec4eb61	-0.3846083
63	0x3d557691	0.052115027
64	0x3e7bf1cf	0.24603961
65	0xbe67256f	-0.22572874
66	0x3cf9dccb	0.03050079
67	0xbe2f24e2	-0.17103913
68	0xbe681355	-0.22663625
69	0x3e423c40	0.18968296
70	0x3ce2f5b9	0.02770506
71	0xbea8e40f	-0.32986495
72	0xbd230223	-0.03979696
73	0xbf032017	-0.5122084
74	0xbe5a02c1	-0.21290113
75	0x3cfec8b6	0.031101566
76	0x3ff3e76a	1.9054997
77	0xc1237ce7	-10.217994
78	0xbe25fbc0	-0.16209316
79	0x3e61cc33	0.22050552
80	0x4059b25b	3.401511
81	0xbda6ac2f	-0.0813831
82	0x3f41a299	0.7563873
83	0x3f3339ea	0.70010245
84	0xbf3e649d	-0.74372274
85	0x3f4c4df6	0.7980646
86	0xbf2bdd97	-0.67134994
87	0x3c910758	0.017703697
88	0xc1f96e5f	-31.178892
89	0x3ee18ca6	0.4405262
90	0xbcc118d6	-0.023571413
91	0xbe28823d	-0.16455932
92	0xbeec917f	-0.46204755
93	0xbcae5bd2	-0.021284018
94	0xbe88eba0	-0.26742268
95	0xbe9d429e	-0.30714887
96	0xbce648c9	-0.028110879
97	0xbe575566	-0.2102867
98	0x3d32cd60	0.043652892
99	0xbe1503f9	-0.14552297
100	0x3cc6dc78	0.02427505
101	0xbe889f3e	-0.26683992
102	0xbe3f6eb1	-0.18694569
103	0xbd9709a4	-0.07374886
104	0xbe4ecb16	-0.20194659
105	0xbee87c74	-0.4540745
106	0xbfa0d153	-1.2563881
107	0xbf901886	-1.1257484
108	0x3e2c04dc	0.16798729
109	0xbf39feaf	-0.7265424
110	0x401a0424	2.4065027
111	0x3f72a657	0.94785064
112	0xbd81f605	-0.063457526
113	0xc00ffbf5	-2.2497532
114	0x40e24dd8	7.0720024
115	0xbcb2511a	-0.021767188
116	0x3fd1231b	1.6338838
117	0xbd51288f	-0.05106407
118	0xbeaf4174	-0.34229624
119	0xbed17931	-0.40912774
120	0xbdd419fb	-0.10356518
121	0xc02c94ba	-2.6965775
122	0x3f93225a	1.1494858
123	0xc10a08a2	-8.627108
124	0x3e8bb88c	0.27289236
125	0xc0ed3dba	-7.413785
126	0x3fc428c4	1.5324941
127	0xc0c2e52f	-6.0904765
128	0x401e1813	2.4702194
129	0x3fc44410	1.5333271
130	0xc0d1e408	-6.559086
131	0xc0a5a16a	-5.175954
132	0xbe9309fa	-0.2871855
133	0x3c6f9129	0.014622011
134	0xc084e9df	-4.1535487
135	0xbd9845cb	-0.07435187
136	0xbf4ac28a	-0.79203093
137	0xbee845ec	-0.45365846
138	0x40086efc	2.131774
139	0xbf0f52bc	-0.5598562
140	0x40003373	2.0031402
141	0x3fd800ca	1.6875241
142	0xbe88ed68	-0.26743627
143	0xc0c630c0	-6.193451
144	0xc047b967	-3.120691
145	0x3ea85665	0.32878414
146	0xbffd9f70	-1.9814281
147	0x3eabb852	0.33539063
148	0x3e9a04f0	0.30081892
149	0x3d92aea3	0.071622156
150	0xbf086a17	-0.5328688
151	0x3b323dc9	0.0027197471
152	0xbeab1b67	-0.33419344
153	0xbe85296b	-0.26008162
154	0xbf4bc3ec	-0.7959583
155	0x3c83c022	0.016082827
156	0xbeb44c19	-0.35214308
157	0xbee7056a	-0.45121318
158	0xbf33ba47	-0.7020611
159	0xbf02ae19	-0.510469
160	0xbee5bb8a	-0.44869643
161	0xbecb6c88	-0.3973124
162	0xbd4f54d9	-0.050618026
163	0xbf01b067	-0.50659794
164	0xbda95d96	-0.08269803
165	0xbe96dfac	-0.29467523
166	0xbd031735	-0.032004554
167	0xbdca2101	-0.09869576
168	0x3cce1a74	0.025159098
169	0xbf103d36	-0.563434
170	0xbf389907	-0.721085
171	0x3d63a351	0.055575673
172	0xbeeb1ddd	-0.4592122
173	0xbee82531	-0.45340875
174	0xbee8e43f	-0.45486638
175	0xbec98f54	-0.39367163
176	0xbe6900b8	-0.2275418
177	0xbdc29712	-0.095014706
178	0xbed3cd97	-0.4136779
179	0x3e5cdf07	0.21569453
180	0x3e8a5179	0.27015284
181	0xbfc215ca	-1.51629
182	0xbf86603a	-1.0498116
183	0x3f899bfa	1.0750725
184	0xbe422341	-0.18958761
185	0x401f53fb	2.4895008
186	0x3c0f8770	0.008760318
187	0xbece49c2	-0.40290648
188	0xc0164811	-2.3481486
189	0x40d05c87	6.511295
190	0xbeccc928	-0.3999722
191	0x3fc9c5d0	1.5763493
192	0x3e0662d4	0.13123637
193	0xbea31ab0	-0.31856298
194	0xbeb49eb6	-0.35277337
195	0x3dccc37f	0.099982254
196	0xbe8048ce	-0.25055546
197	0xbd4389bf	-0.047738787
198	0xbea22024	-0.31665146
199	0xbd931baf	-0.071830146
200	0xbeb9edf8	-0.36314368
201	0xbe41d490	-0.18928742
202	0x3d9cd567	0.07657891
203	0xbe74914b	-0.2388355
204	0xbe2a0a2f	-0.16605447
205	0x3db962c3	0.090520404
206	0x3d9716c8	0.07377392
207	0xbe13ce3e	-0.14434144
208	0xbea846e2	-0.3286658
209	0xbe954521	-0.29154304
210	0x37962d3a	1.7902454e-05
211	0x3d4d433e	0.050112955
212	0xbc985728	-0.018596247
213	0xbf081708	-0.5316014
214	0xbe2262ea	-0.15858045
215	0xbf102ceb	-0.5631854
216	0xbe7dbbe1	-0.24778701
217	0x3ce6b6f8	0.028163418
218	0xbdae87da	-0.085220054
219	0xbf1e22c4	-0.617718
220	0xbe89e85e	-0.26935095
221	0xbdc36932	-0.09541549
222	0x3e006f15	0.12542374
223	0xbe9f61c3	-0.31129274
224	0xbebfa789	-0.37432507

camada2.bias f4 [15]
0	0x3f5cf5c1	0.8631249
1	0xc0b1af19	-5.552624
2	0xc0947ca8	-4.640217
3	0xbf69d773	-0.91344374
4	0xbe826470	-0.25467253
5	0x3d5c333e	0.053759806
6	0xbe8cb638	-0.27482772
7	0xc0ef33b9	-7.475064
8	0x40719b57	3.7751062
9	0x3e8d4625	0.2759258
10	0xbe880338	-0.26564956
11	0xbf0ba8c1	-0.54554373
12	0xc0f0273b	-7.504789
13	0x3e06aa8d	0.13150997
14	0xbd218a09	-0.03943828

camada3.weight f4 [15, 15]
0	0x3fe0cc45	1.7562338
1	0x3f892bc4	1.0716481
2	0x3f461fad	0.77392083
3	0xbe982e5d	-0.29722872
4	0x3dcbc04e	0.099487886
5	0x3f91ef14	1.1401086
6	0xbd3d659f	-0.04623949
7	0xc1629444	-14.161198
8	0xc027862e	-2.6175647
9	0x3f9a6dda	1.2064774
10	0x3ea8ff90	0.3300748
11	0x3e6a670d	0.22890873
12	0xc1371334	-11.442188
13	0xbd28a0b1	-0.041168872
14	0xbf026935	-0.50941783
15	0x3fa47fba	1.2851479
16	0xc03f92e7	-2.9933412
17	0x40386a91	2.8815043
18	0xbd759548	-0.05995682
19	0xbef60e04	-0.48057568
20	0x3eb0c015	0.34521547
21	0xbe8932cf	-0.26796576
22	0xc019894f	-2.3990057
23	0x3f80c567	1.0060242
24	0xc09c9acd	-4.8938966
25	0xbeaa28bb	-0.332342
26	0x3e056e05	0.1303025
27	0xbffe124c	-1.9849334
28	0x3db7c364	0.08972815
29	0xbd9ba0a3	-0.075989984
30	0xbe7e9236	-0.24860463
31	0xbc186890	-0.009302273
32	0xbd14a86f	-0.036293443
33	0x3dd596a9	0.10429127
34	0xbdf17ca4	-0.117913514
35	0xbe1b83b8	-0.15186965
36	0x3de55011	0.11196912
37	0xbdba8ea0	-0.09109235
38	0xbe6b1a80	-0.22959328
39	0xbe080de7	-0.13286553
40	0xbe33521e	-0.17511794
41	0xbe839886	-0.25702304
42	0xbee6dbc4	-0.45089543
43	0xbe78a27f	-0.24280737
44	0xbe9453e0	-0.28970242
45	0x403ce9b0	2.9517632
46	0x3e63e3e3	0.222549
47	0x3f8491cf	1.0356997
48	0xbe5a2f88	-0.21307194
49	0xbc8abf21	-0.01693684
50	0x40002fef	2.0029256
51	0xbeb438d9	-0.3519962
52	0xbfdee16a	-1.7412541
53	0xbea031f6	-0.31288117
54	0xc0b7e6c3	-5.746919
55	0x3ed9c700	0.42534637
56	0x3e8c9205	0.27455154
57	0xc0118824	-2.2739344
58	0x3db7ecfc	0.08980748
59	0xbd5abecf	-0.053404626
60	0xbd17f46d	-0.037098337
61	0xbf36384f	-0.7117967
62	0xbdd9faf0	-0.10643566
63	0x3ddfff3e	0.109373555
64	0xbd8e0b2f	-0.06935727
65	0xbea4eeed	-0.32213536
66	0xbd62bf14	-0.055358008
67	0xbe9302dd	-0.28713122
68	0xbdbfac99	-0.09359092
69	0xbd8c8013	-0.06860366
70	0x3ee88300	0.45412445
71	0xbd706583	-0.05869056
72	0xbe4cb195	-0.19989617
73	0x3c2658cd	0.010153008
74	0xbba7be92	-0.0051191533
75	0xbdabf12a	-0.08395608
76	0xbe80d03a	-0.25158864
77	0xbdc91ba6	-0.09819727
78	0xbe2bd264	-0.16779476
79	0x3da5bfa1	0.08093191
80	0xbdb946ed	-0.09046731
81	0xbd3d17ad	-0.046165157
82	0x3a94cfb2	0.0011353402
83	0xbdef1ecb	-0.11675795
84	0xbe42268d	-0.18960018
85	0xbd0d081d	-0.034431566
86	0x3e690e27	0.22759305
87	0xbe76231e	-0.24036834
88	0x3e658c6a	0.22416845
89	0x3b94569a	0.0045269253
90	0x404fa3b1	3.244366
91	0xbebef50e	-0.37296337
92	0x403a7c17	2.9138238
93	0xbeeaa026	-0.4582531
94	0x3e41fec2	0.18944839
95	0xc005804a	-2.0859551
96	0xbd5d5f5e	-0.054046027
97	0xbfc76561	-1.5577813
98	0x406e2383	3.7209175
99	0xc0dcd41b	-6.900892
100	0x3d99fa6f	0.075184695
101	0x3eab4914	0.33454192
102	0xbfe9fbfd	-1.8280026
103	0x3dd1cac0	0.102437496
104	0xbe027bf5	-0.12742598
105	0x3f337605	0.7010196
106	0x3fbfc147	1.4980859
107	0x400fb071	2.2451441
108	0xbec5301c	-0.38513267
109	0xbedde64d	-0.43339768
110	0x40369873	2.8530548
111	0x3e342c4d	0.17595024
112	0xc0e5301d	-7.162123
113	0xc08cb7c2	-4.3974314
114	0x3ffc7f5c	1.9726367
115	0xbe411e3c	-0.1885919
116	0x3eedb89f	0.46429917
117	0xc0c9f8e5	-6.3116326
118	0x3ea13ba2	0.3149081
119	0x3de94af0	0.11391246
120	0x3f9c228a	1.219804
121	0xc05acdcd	-3.418811
122	0x4005f69a	2.0931764
123	0x3dd65666	0.10465698
124	0xbd5af136	-0.053452693
125	0xc05701fd	-3.3594964
126	0xbecd164e	-0.4005608
127	0xc0015b50	-2.0211983
128	0x403a0192	2.9063458
129	0xbf0496b3	-0.5179245
130	0xbea27e2e	-0.31736892
131	0x3e8c1ec4	0.27367222
132	0xbff730e1	-1.9311792
133	0xbe69f9a0	-0.2284913
134	0xbe22fe5d	-0.15917344
135	0xbedd2f31	-0.43200067
136	0x3f5e9c0c	0.8695686
137	0x3f98624e	1.1905
138	0xbe4f1394	-0.20222312
139	0xbee6951d	-0.4503564
140	0x3f7e274a	0.992787
141	0xbe82dd20	-0.2555933
142	0xc0ae1243	-5.439729
143	0x400b2f38	2.174757
144	0x3ecbc098	0.39795375
145	0xbde85dd1	-0.11346019
146	0x3f34dddf	0.7065105
147	0xc0adf287	-5.4358554
148	0xbe39ad34	-0.18132478
149	0xbeafae5b	-0.3431271
150	0xbea7498c	-0.326733
151	0xbec67a63	-0.3876525
152	0xbe564462	-0.20924523
153	0xbd00a1b6	-0.03140422
154	0xbe4c4ed9	-0.19951953
155	0x3bc7a8f1	0.0060931374
156	0xbd2d0ccb	-0.04224853
157	0xbe6a50c8	-0.22882378
158	0xbe727a16	-0.23679385
159	0x3d638288	0.055544406
160	0x3d6923b8	0.05691883
161	0xbd850017	-0.06494158
162	0x3cb2f875	0.02184699
163	0x3db75232	0.089512244
164	0x3cfa95a6	0.030588936
165	0xbd3056bc	-0.043051466
166	0xbe91c121	-0.28467658
167	0xbd60cf8a	-0.054885425
168	0xbe9a3d8a	-0.30125076
169	0xbe3b2a27	-0.18277799
170	0xbca7c0e9	-0.020477729
171	0xbdc69828	-0.0969699
172	0xbe24108e	-0.1602194
173	0xbe7a634c	-0.24451941
174	0xbccd1036	-0.025032144
175	0x3e0d724e	0.13813135
176	0xbd9b9b48	-0.07597977
177	0xbe9bff31	-0.30468133
178	0x3bea22fc	0.0071452837
179	0x3d8bf3a3	0.068335794
180	0x402f573c	2.7396994
181	0x3fe58af2	1.7933028
182	0x3f995ca0	1.1981392
183	0xbe50e692	-0.20400456
184	0xbd0145b5	-0.03156062
185	0x3fa07fe9	1.2539035
186	0x3e764260	0.24048758
187	0xc19cf696	-19.620403
188	0x4091d3d1	4.5571065
189	0x3f90d5e2	1.1315272
190	0xbd0c7b04	-0.034297004
191	0x3ed7a4d8	0.42117953
192	0xc19852a4	-19.040352
193	0xbd9dcbe5	-0.077049054
194	0xbe17082b	-0.1474921
195	0x400aeb8b	2.1706264
196	0xbec5f8df	-0.38666436
197	0x4005fd28	2.0935764
198	0x3dc235c4	0.09482911
199	0xbe2feb0d	-0.17179509
200	0x3fff3952	1.9939368
201	0x3d7d98b2	0.0619132
202	0x3fc27dd7	1.5194653
203	0x3d207155	0.03917058
204	0x3e7fbee9	0.2497517
205	0x3d8b4651	0.06800521
206	0xbe10ff6d	-0.14159937
207	0x3fab3ac8	1.3377314
208	0x3da2b7e7	0.07945233
209	0xbddcc687	-0.107800536
210	0x40476548	3.1155567
211	0xbe187c40	-0.14891148
212	0x402a25db	2.6585605
213	0xbe93f31a	-0.2889641
214	0xbe432880	-0.19058418
215	0xbf45a625	-0.7720664
216	0xbe22e0fc	-0.15906137
217	0xc0276b47	-2.6159227
218	0x401e1258	2.4698696
219	0xc0fc0d4f	-7.8766246
220	0xbea157bb	-0.31512246
221	0x3f43a0ca	0.7641722
222	0xc0187748	-2.3822803
223	0x3d8b75c4	0.068095714
224	0x3cd09dbc	0.025465839

camada3.bias f4 [15]
0	0xc06b890c	-3.6802397
1	0xc08b44e1	-4.352158
2	0xbf035742	-0.5130502
3	0xc0c75632	-6.229272
4	0xbed56a14	-0.41682494
5	0xbe9f39b3	-0.3109871
6	0xc0e8daf6	-7.2767286
7	0xbfc53dab	-1.5409445
8	0xc0a68a1f	-5.2043605
9	0xc05a5d4a	-3.411944
10	0xbed658cc	-0.41864622
11	0xbec8dbec	-0.39230287
12	0xc032ef1a	-2.7958436
13	0xc1a2e8e1	-20.36371
14	0xc0cab681	-6.3347783

camada4.weight f4 [1, 15]
0	0xbe673c7a	-0.22581664
1	0xbf928bbd	-1.1448895
2	0xbe10bf82	-0.14135554
3	0xbf0fb5b2	-0.5613662
4	0xbd511ef6	-0.051054917
5	0x3d0015ef	0.031270918
6	0xbed966aa	-0.4246114
7	0xbee8ad1f	-0.4544458
8	0xbbbb35b5	-0.0057131895
9	0x3d209006	0.03919985
10	0xbe482f44	-0.1954928
11	0xbe349c68	-0.17637789
12	0xbfc9dd0c	-1.5770583
13	0xbfadeb37	-1.3587407
14	0xbe9e6e60	-0.30943584
