DeepLearning/experimentos/ReLU 3 (21, 21, 21).pth (torch, 7605 bytes, 7 tensors)

camada1.weight f4 [21, 2]
0	0x40867353	4.2015777
1	0xbff0f2e2	-1.8824122
2	0xc0893199	-4.2873044
3	0xc00d7aa1	-2.2106097
4	0xbdc812cb	-0.097692095
5	0x3e762cab	0.24040477
6	0xc05053ef	-3.255123
7	0xbf97b440	-1.1851883
8	0x3cefcc95	0.029272357
9	0x3c8d7549	0.01726784
10	0x4089eb93	4.3100066
11	0x3d749c90	0.059719622
12	0x408a642b	4.3247275
13	0x40107174	2.2569246
14	0x3e81ccf4	0.2535168
15	0x3e1ddb27	0.15415631
16	0x3f65a2d8	0.89701605
17	0xc0a4d1a1	-5.1505895
18	0x4039f785	2.9057324
19	0xbec8e4ac	-0.39236963
20	0x3d1fd083	0.03901721
21	0x3debdc22	0.115165964
22	0x3e66aff7	0.22528063
23	0xbe8c92a1	-0.2745562
24	0x3f10437e	0.56352985
25	0x3eafe171	0.34351686
26	0xbf362643	-0.7115213
27	0x3ebb46fc	0.36577594
28	0x3fc359f8	1.5261831
29	0x40889ae7	4.268909
30	0xbf1dc702	-0.61631787
31	0x3caf7878	0.021419749
32	0x3dd9d193	0.10635676
33	0x408225b5	4.067103
34	0x3f33a1db	0.70168847
35	0x409a47ab	4.8212485
36	0xc078fad0	-3.8903084
37	0x406a43ff	3.6604002
38	0x3e32a246	0.17444715
39	0xbbbf32a3	-0.005834894
40	0x3ed00717	0.4063041
41	0x3fc82959	1.5637618

camada1.bias f4 [21]
0	0xc001cfeb	-2.0283153
1	0xbfb46436	-1.4093082
2	0xbee93ce1	-0.4555426
3	0xc0088427	-2.133066
4	0xbd64cc7f	-0.055859085
5	0xc06e4bb2	-3.72337
6	0xbfe82a33	-1.8137878
7	0xbef21f40	-0.47289467
8	0xbfcbfe59	-1.5936996
9	0xbf7374b6	-0.9509996
10	0xbe350265	-0.17676695
11	0xbf30e922	-0.6910573
12	0xbf8be1f8	-1.0928335
13	0xbf9b2890	-1.2121754
14	0xbfd58d02	-1.6683657
15	0xbf516a06	-0.81802404
16	0xc07c3660	-3.9408188
17	0xc044dd36	-3.0760016
18	0xbfd0f6ed	-1.6325356
19	0xbf2b4080	-0.66895294
20	0xc00ca786	-2.1977248

camada2.weight f4 [21, 21]
0	0x4053ffe0	3.3124924
1	0x404e706e	3.2256122
2	0xbe3a8c01	-0.1821747
3	0x3fee3b82	1.861191
4	0xbda7947a	-0.081826165
5	0x405c15ba	3.438826
6	0x40283972	2.6285062
7	0x3f135486	0.5755085
8	0x40078cba	2.1179643
9	0x3ff5b5b2	1.9196074
10	0xbe96bcf6	-0.2944104
11	0x3dd7e178	0.105410516
12	0xbe80e48c	-0.25174367
13	0x3de9845d	0.114021994
14	0x3e936dff	0.28794858
15	0x3f15f233	0.5857269
16	0xbee3b095	-0.4447066
17	0xc0bd834a	-5.9222765
18	0x3e074aab	0.13212077
19	0x3e1c3a70	0.15256667
20	0x3fc8303e	1.5639722
21	0x402f3c73	2.7380645
22	0xbf79c171	-0.97560793
23	0x3e315a75	0.17319663
24	0x3de98ad4	0.114034325
25	0x3e4925c3	0.19643311
26	0xbfbb5cf2	-1.463774
27	0x3f86c2a8	1.0528154
28	0xbf29d816	-0.66345346
29	0xbfe6326e	-1.798414
30	0x3f557a7e	0.83390033
31	0xbf91ecf1	-1.1400434
32	0x3d3e1f1a	0.04641638
33	0x3e6c4937	0.23074804
34	0x3e24c4ea	0.16090742
35	0xbffecd37	-1.9906377
36	0xbecf8a86	-0.40535372
37	0x3fd4a5db	1.6613115
38	0xc0152809	-2.3305686
39	0xbf037f3e	-0.5136603
40	0xbd3ad7ba	-0.04561589
41	0xbfcbf20c	-1.5933242
42	0x3f591eb2	0.8481246
43	0x4023a040	2.556656
44	0x3e16a4d1	0.1471131
45	0x3f68de9c	0.90964675
46	0xbeae7a4e	-0.34077686
47	0x3ed3cc6e	0.41366905
48	0x3f645359	0.8918968
49	0xbf506fb9	-0.81420475
50	0xc09b5966	-4.854663
51	0x3e0908c3	0.13382249
52	0xbeb66b29	-0.35628632
53	0xbd20d047	-0.03926113
54	0x3e0f6117	0.1400188
55	0x3eb975a0	0.36222553
56	0xc0352606	-2.8304458
57	0xbe9b24aa	-0.3030141
58	0x404c77da	3.1948152
59	0xc042bf9a	-3.0429444
60	0x3f8729c1	1.0559617
61	0x3ac27060	0.0014834516
62	0x3f0a071d	0.53917104
63	0xc09c69e7	-4.8879275
64	0xc0667de9	-3.601435
65	0xbd1aa4e6	-0.037754916
66	0xbfb4a30b	-1.4112257
67	0xbda037b5	-0.07823125
68	0xbdac81a2	-0.08423163
69	0xc08f5dd3	-4.480203
70	0xbed6580d	-0.41864052
71	0xc0622a45	-3.53383
72	0xbfc286fb	-1.5197443
73	0xbdca7bdc	-0.098869056
74	0xbc8c269f	-0.01710826
75	0xbf3974f3	-0.72444075
76	0x3f3ed802	0.7454835
77	0xc0ae0b51	-5.4388814
78	0xbef6d73a	-0.4821108
79	0x3fb1d2d4	1.3892465
80	0xbf2526ed	-0.6451252
81	0xc06d538a	-3.7082238
82	0xbdb24c72	-0.08705987
83	0x3fc0e032	1.5068419
84	0x4049b4cb	3.1516597
85	0x40258f05	2.5868542
86	0x3d90c6be	0.07069157
87	0x404823a2	3.1271749
88	0xbe86b357	-0.263087
89	0x3e89e4bd	0.26932326
90	0xbf40e563	-0.75350016
91	0xbf98ffa9	-1.1953021
92	0xc06f913f	-3.74324
93	0xbdaae7a9	-0.08344967
94	0xbd2bfd23	-0.041989457
95	0xbdef075a	-0.11671324
96	0x3e1f4794	0.15554649
97	0xbe73d970	-0.23813415
98	0x3f4051b1	0.7512465
99	0x3e56d520	0.20979738
100	0x4141f771	12.1229105
101	0x40717402	3.7727056
102	0x3f36d776	0.7142252
103	0x3e19801f	0.1499028
104	0x40534ba1	3.301491
105	0xbe58e6a2	-0.2118173
106	0x3ec0dc34	0.37668002
107	0x3e457676	0.1928347
108	0x3f1827fb	0.59436005
109	0xbdf89751	-0.12138236
110	0x4033d716	2.8100028
111	0x40cc89fc	6.391844
112	0xbd8f83e8	-0.07007581
113	0x40373776	2.86276
114	0xbeb5077d	-0.35357276
115	0xbdc837c1	-0.09776259
116	0x3e06cc79	0.13163938
117	0x3e31ca2d	0.1736228
118	0x3f57f7d8	0.84362555
119	0xc052a613	-3.2913864
120	0x3c1dd327	0.009632862
121	0xc0717316	-3.7726493
122	0xc0514589	-3.269869
123	0x40426a24	3.0377283
124	0xbe32e96f	-0.1747186
125	0xbf85c7bb	-1.0451578
126	0xc0a39c7d	-5.1128526
127	0xc06a41eb	-3.6602733
128	0xbda638df	-0.08116316
129	0xbf629568	-0.88509226
130	0x3da3d470	0.079995036
131	0xbed02d0a	-0.40659362
132	0xc091c3c2	-4.555146
133	0xbecd0f30	-0.4005065
134	0xc0668a3d	-3.6021874
135	0xbfc3b25e	-1.5288808
136	0x3c95d44e	0.018289711
137	0xbe572849	-0.21011461
138	0xbf7c5f5e	-0.9858302
139	0x3f6df3da	0.9295021
140	0xc0b533c8	-5.662571
141	0xbec5a36a	-0.38601238
142	0x3fc677dc	1.5505328
143	0xbf884bfd	-1.064819
144	0xc0744a77	-3.817045
145	0xbdb097b9	-0.08622689
146	0x3fd4e94a	1.6633694
147	0xbf887f1a	-1.0663788
148	0xbf811e9d	-1.0087467
149	0x3e58d288	0.21174061
150	0x40293188	2.6436481
151	0x3ee2df0a	0.4431079
152	0xc0691193	-3.6416976
153	0xc013cca2	-2.3093648
154	0x3e88713d	0.26648894
155	0x4070f639	3.7650282
156	0xbdcdd392	-0.100501195
157	0x3f25d9d9	0.64785534
158	0xbd5b065a	-0.053472854
159	0x3db37371	0.08762253
160	0x3f5c9554	0.86165357
161	0xbf0a0e63	-0.539282
162	0xbdd82d82	-0.10555555
163	0x3fdb3b7e	1.712753
164	0xbee26847	-0.44220182
165	0xbf10615b	-0.5639855
166	0xbd169c9f	-0.03677046
167	0x3feca8ac	1.8488975
168	0xbe998320	-0.29982853
169	0xbe5d26bf	-0.21596812
170	0x3dc674d2	0.096902505
171	0x3d343770	0.04399818
172	0x3df8d195	0.121493496
173	0x3d6ab5f1	0.05730242
174	0xbe7f96cb	-0.24959867
175	0xbf0ac9db	-0.54214257
176	0xbe2d9545	-0.16951473
177	0xbeeb87f9	-0.46002176
178	0xbddd5ada	-0.10808344
179	0xbd24b9f4	-0.0402164
180	0xbe1a53b3	-0.15070991
181	0xbd22832e	-0.039675884
182	0x3d3cf094	0.04612787
183	0x3d608be0	0.054820895
184	0x3dd8b5f5	0.105815805
185	0xbe0dbd99	-0.13841857
186	0xbdb71f36	-0.089415
187	0x3dedea60	0.11616969
188	0x3e1f4737	0.1555451
189	0x3c784f78	0.015155666
190	0x3f8b7e6c	1.0897956
191	0xbd7fbc96	-0.06243571
192	0x3fb22e65	1.3920408
193	0x3cd510ab	0.026008924
194	0x40131245	2.29799
195	0x4061a5a6	3.5257354
196	0x3e3c328c	0.18378657
197	0xbfc05858	-1.502696
198	0xbeac9f61	-0.33715346
199	0x3e0c142c	0.1367957
200	0xbe33ff31	-0.17577817
201	0x3e283bb5	0.16429026
202	0xbdac9adb	-0.08427974
203	0x3f8243a4	1.0176892
204	0x3d68a858	0.05680117
205	0xc081996b	-4.049978
206	0x409efa3e	4.968047
207	0x4038c81a	2.8872132
208	0xbe1acd14	-0.15117294
209	0xc0b70292	-5.7190638
210	0x3d719cca	0.058987416
211	0x3b531a1a	0.0032211603
212	0xbdf657a6	-0.12028436
213	0x3dab27d7	0.08357208
214	0xbd05f8aa	-0.032707848
215	0x3e1ae85d	0.15127702
216	0xbe5789e4	-0.21048695
217	0xbe8eb772	-0.27874333
218	0xbd8673e0	-0.0656507
219	0xbf0cee96	-0.55051553
220	0xbd989cd1	-0.07451785
221	0xbc6e1f63	-0.01453385
222	0xbda7f91b	-0.0820181
223	0xbc88634d	-0.016648913
224	0xbe8eaac0	-0.27864647
225	0x3da98c8b	0.082787596
226	0x3e4bade2	0.1989055
227	0xbe0069a4	-0.12540299
228	0xbe430be1	-0.190475
229	0xbca55633	-0.020182705
230	0x3daef922	0.08543612
231	0x3f03a84e	0.5142869
232	0xbe960dff	-0.29307553
233	0xbdf4150f	-0.11918079
234	0x3ef76620	0.48320103
235	0xbedc620f	-0.43043563
236	0x3e5597c4	0.20858675
237	0xbe014ae4	-0.12626225
238	0xbf8553ac	-1.041616
239	0xbf37f55b	-0.7185876
240	0xbe0b10f0	-0.1358068
241	0xbf143533	-0.57893676
242	0xbe4da4d9	-0.20082416
243	0x3ecfa698	0.40556788
244	0xbf20860f	-0.6270456
245	0xbf4895dd	-0.78353673
246	0xbe6a2005	-0.22863777
247	0x40368ffd	2.8525383
248	0xbf3edd01	-0.74555975
249	0x3e0fdc0a	0.14048782
250	0x3daf5247	0.08560615
251	0x4023e2bb	2.5607135
252	0x3f85966a	1.0436528
253	0xc11b558e	-9.708387
254	0xbdb14570	-0.08655822
255	0x3fb4b5d2	1.4117987

camada2.bias f4 [21]
0	0xc08e97d6	-4.4560347
1	0xbfdbd8b3	-1.7175506
2	0xc0ba1b3e	-5.8158255
3	0x40800cca	4.001561
4	0xc11161a9	-9.086343
5	0xc11ce5f6	-9.806143
6	0x4087b6df	4.241073
7	0xc0b84e73	-5.7595763
8	0xbece5769	-0.40301064
9	0xc083fd04	-4.1246357
10	0xbef9e042	-0.48803908
11	0xbf9d15f6	-1.2272327
12	0xc0af2149	-5.472813
13	0xbfa5e845	-1.2961508
14	0x410f7aa4	8.967442
15	0x3d03b6c7	0.032156732
16	0xc0efc869	-7.493214
17	0x40d5d06d	6.6816926
18	0xbe1ea19f	-0.15491341
19	0xbe271d6a	-0.16319814
20	0xbf4a04a8	-0.78913355

camada3.weight f4 [21, 21]
0	0x3f646c72	0.89227974
1	0xbcd78954	-0.0263106
2	0x402082f7	2.5079935
3	0x3e9c21d6	0.30494565
4	0x406dd5f1	3.716183
5	0x402a6c0f	2.6628454
6	0x3f3f3049	0.7468305
7	0x4014afa0	2.3232193
8	0xbe877b9d	-0.26461497
9	0x3eedc6e9	0.4644082
10	0xbe1cbcf6	-0.15306458
11	0xbe1e5c06	-0.15464792
12	0x3fb2d1ac	1.3970237
13	0x3db0c486	0.08631234
14	0xc091edfb	-4.5603004
15	0xbd8ae4af	-0.06781899
16	0x4091e31d	4.558974
17	0xbff3b68c	-1.9040084
18	0x3ce4a868	0.027912334
19	0x3daf77ef	0.085677974
20	0x3e574327	0.2102171
21	0xbd25a00e	-0.040435843
22	0x3e0bf344	0.13667017
23	0xbcb7f5dd	-0.022456104
24	0xbe435371	-0.19074799
25	0xbe41bfbb	-0.18920796
26	0xbd61506b	-0.055008333
27	0xbd8598a7	-0.06523257
28	0xbe4239ae	-0.18967316
29	0xbcc6d0fa	-0.02426957
30	0xbe0c54a9	-0.1370417
31	0x3e2961c5	0.16541202
32	0xbe009bb4	-0.12559396
33	0xbda2e471	-0.07953728
34	0x3de42e52	0.111416474
35	0xbd9ed54e	-0.077555284
36	0xbd8f2aaa	-0.069905594
37	0x3ddf2596	0.10895841
38	0xbe329e0c	-0.17443103
39	0xbc99e467	-0.018785669
40	0x3ded40b9	0.115846105
41	0xbdb2c01a	-0.08728047
42	0xbf171f01	-0.59031683
43	0x3ebc1e56	0.36741894
44	0xbf689a6d	-0.90860635
45	0xbe6d9aa2	-0.23203519
46	0x3e8bb82b	0.27288947
47	0xbe6dd8a5	-0.23227175
48	0x40076e4a	2.1161065
49	0xbf7bef61	-0.9841214
50	0x3e3773d3	0.17915277
51	0xbe0e1a76	-0.13877282
52	0x3e2870a6	0.16449222
53	0xbbcb5955	-0.0062057176
54	0xbf04a073	-0.51807326
55	0xbecd5a5e	-0.40108007
56	0xbe6a15f2	-0.22859934
57	0x3d39b359	0.045337055
58	0x3f5f8a0f	0.87320036
59	0xbf1d3bc3	-0.61419314
60	0x3d4e0d23	0.050305497
61	0xbe092088	-0.13391316
62	0xbe5a0759	-0.21291865
63	0x3e2ba97a	0.16763869
64	0x3fdcffe1	1.7265588
65	0x3fc6fd37	1.5546025
66	0x3f366ce5	0.7125991
67	0x3f85679d	1.0422245
68	0x3ffc107d	1.9692532
69	0x40243c7a	2.5661912
70	0xc08b0c4d	-4.3452516
71	0x3d9f16f7	0.07768052
72	0xbf30a4ea	-0.6900164
73	0xbd737ed0	-0.05944711
74	0x3eabb0f6	0.33533448
75	0x402bb6f6	2.683042
76	0x3f30e6c9	0.6910215
77	0xc035cd82	-2.8406682
78	0xbc2bb590	-0.0104803
79	0x40975df1	4.7302175
80	0xbfecf41a	-1.8511994
81	0xbde14c7b	-0.110009156
82	0xbed03d22	-0.4067164
83	0xbe17a10d	-0.1480753
84	0xbc3f51ad	-0.011677188
85	0x3dc62d51	0.09676612
86	0xbe1f6c57	-0.15568672
87	0xbebc8d22	-0.36826426
88	0xbbec2206	-0.0072062043
89	0xbe048c6d	-0.12944193
90	0xbe0c5424	-0.13703972
91	0xbe1d95d5	-0.15389188
92	0x3d51c9cc	0.05121784
93	0xbd99abbe	-0.0750346
94	0x3ceb4424	0.028719015
95	0xbd2da444	-0.042392984
96	0xbe75a917	-0.23990284
97	0xbe235438	-0.15950096
98	0xbece959c	-0.40348518
99	0x3e0e2989	0.13883032
100	0xbe071689	-0.1319219
101	0xbe97f85e	-0.29681677
102	0xbe1c02ea	-0.15235487
103	0xbb98a676	-0.0046585156
104	0x3e4533f7	0.19258104
105	0xbef38159	-0.47559622
106	0xc000ea7a	-2.0143113
107	0x4009fede	2.1561809
108	0x3f8283e0	1.0196495
109	0x4009dccb	2.1541011
110	0x3fa1b684	1.2633824
111	0x406f80bb	3.742232
112	0xbfd18623	-1.636906
113	0x3d478ba5	0.04871716
114	0xbf64faa3	-0.8944494
115	0x3e1c72bc	0.15278143
116	0xbed63f7d	-0.41845313
117	0xbe944641	-0.2895985
118	0xbda6f4f0	-0.08152187
119	0x3f469826	0.7757591
120	0x3db13885	0.08653358
121	0xbff4047c	-1.9063869
122	0xbfc201ef	-1.515684
123	0x3e4e0730	0.2011993
124	0xbeb89b97	-0.36056206
125	0xbe881d19	-0.265847
126	0x3e9c0102	0.3046952
127	0x3e1ead81	0.15495874
128	0x3f302fde	0.6882304
129	0x400184fa	2.0237412
130	0x4029f51e	2.6555858
131	0x3fd3f45f	1.6558951
132	0x4099c882	4.805726
133	0xc10e97fc	-8.912106
134	0x3dc285a2	0.09498145
135	0xbf4b7b57	-0.79485077
136	0xbdc6b1d1	-0.097018845
137	0x3f63befc	0.88963294
138	0x3f98b5ce	1.1930482
139	0xbe4eec8f	-0.20207427
140	0x3d1437af	0.036185917
141	0x3d01e9d3	0.031717133
142	0x409261ce	4.574439
143	0xbfef3db4	-1.8690705
144	0x3d88a297	0.066716366
145	0xbe4a711a	-0.19769707
146	0x3eda16a7	0.42595407
147	0xbd50192c	-0.050805256
148	0x3cc76818	0.024341628
149	0xbdaa23f7	-0.08307641
150	0xbdba89ab	-0.09108289
151	0xbe293d75	-0.1652735
152	0xbe297937	-0.16550146
153	0xbe28973b	-0.1646394
154	0x3bf53045	0.007482561
155	0xbdf18dcc	-0.11794624
156	0xbdf3cb8f	-0.1190406
157	0x3dd7e4cf	0.10541689
158	0xbe443cd4	-0.19163829
159	0x3e3b00c2	0.18262008
160	0xbe9682ed	-0.29396763
161	0xbd6e7d81	-0.05822516
162	0x3e350d2d	0.17680807
163	0xbe06a7bf	-0.13149928
164	0xbda7a65c	-0.081860274
165	0xbe389f1d	-0.18029447
166	0xbd1f3dc7	-0.038877275
167	0x3e2a1a98	0.16611707
168	0xbc8f7ee4	-0.01751656
169	0xbe9d86ec	-0.30767
170	0xbea9a739	-0.33135393
171	0xbe8ea792	-0.2786222
172	0xbd2dc502	-0.04242421
173	0xbe64034e	-0.22266886
174	0xbe90b79e	-0.2826509
175	0xbde5729b	-0.112035
176	0x3e08285e	0.13296649
177	0xbdb683d4	-0.08911863
178	0xbe842dbf	-0.25816151
179	0xbe1afc5b	-0.15135328
180	0xbd61490c	-0.055001304
181	0x3d9e92a6	0.07742815
182	0xbfa25aa3	-1.268391
183	0xbe28a794	-0.16470176
184	0x3cfc9385	0.030832062
185	0xbee08f8d	-0.4385952
186	0x3e1bdd83	0.15221219
187	0xba97951c	-0.0011564824
188	0x3f12fc21	0.5741597
189	0xc0b550d7	-5.666118
190	0xbfa619ba	-1.2976601
191	0xc02580a4	-2.5859766
192	0xc12fbd1b	-10.983668
193	0xbf005d1f	-0.5014209
194	0xbf69b58c	-0.91292644
195	0xc145e878	-12.369255
196	0xc0ccd4ad	-6.4009614
197	0x3df65324	0.120275766
198	0xc0b9c027	-5.804706
199	0x3e69e540	0.22841358
200	0x3dd0f48c	0.102028936
201	0xbebabd55	-0.36472574
202	0xbdff4d0a	-0.12465866
203	0x40295bf5	2.6462376
204	0xbe012176	-0.1261042
205	0xc04dd635	-3.2161992
206	0x3f7bfcba	0.98432505
207	0x3dd74c11	0.105125554
208	0x3e88e3b6	0.2673623
209	0xbeb70934	-0.3574921
210	0xbe593779	-0.21212567
211	0x3eb4fdd3	0.35349903
212	0x3f833f7c	1.0253749
213	0x3f4b8edb	0.79514855
214	0xbe2dbc64	-0.16966397
215	0x3f0cc10d	0.5498207
216	0x40538921	3.3052447
217	0xc00a631e	-2.1622996
218	0x3e8241d9	0.25440863
219	0xbf0deb9d	-0.5543764
220	0x3e3ab418	0.18232763
221	0x3e561142	0.20905021
222	0xbe32c743	-0.17458825
223	0xbea03770	-0.31292295
224	0xbe60d7eb	-0.21957366
225	0x3c2e0ed9	0.010623657
226	0xbf057cb5	-0.5214341
227	0xbee0325c	-0.4378842
228	0x3e2b3a5e	0.16721484
229	0xbe9f05dc	-0.31059158
230	0xbe1dca13	-0.15409116
231	0xbe86f954	-0.26362097
232	0x3bf8e994	0.007596204
233	0x3cc92792	0.024555001
234	0x3c413ef2	0.0117947925
235	0x3df141e9	0.117801495
236	0xbc1cd0d7	-0.009571276
237	0xbe272c6f	-0.16325544
238	0xbe8a19a0	-0.26972675
239	0x3df0412a	0.11731179
240	0xbe7c0a2a	-0.24613252
241	0xbe1fd478	-0.15608394
242	0x3dcd1bc9	0.10015065
243	0xbe38185b	-0.17978041
244	0x3d0c0c97	0.034191694
245	0xbbd3b817	-0.006461154
246	0xbe1e701c	-0.15472454
247	0xbe17d39b	-0.14826815
248	0xbd3aa79b	-0.045569997
249	0x3d9f342a	0.077736214
250	0x3d31ed71	0.043439332
251	0xbd6f36b9	-0.058401797
252	0xbdae7f93	-0.085204266
253	0xbc2e2062	-0.010627838
254	0x3dafd0af	0.08584725
255	0xbcd4832a	-0.02594145

camada3.bias f4 [21]
0	0xc153ecca	-13.24531
1	0xbe527a0c	-0.2055437
2	0xbdc31a14	-0.095264584
3	0xc10b69e5	-8.713353
4	0xbeb35cc7	-0.3503172
5	0xc044c13c	-3.074294
6	0xc0d51666	-6.658984
7	0xbe78b940	-0.24289417
8	0xbe88078a	-0.26568252
9	0x40623591	3.5345194
10	0xbcc0e1e8	-0.02354522
11	0xbd5658a6	-0.052330635
12	0xbcdc88ef	-0.026920764
13	0xbd32a6f7	-0.04361626
14	0xbec3e990	-0.38264132
15	0xbe1c1906	-0.1524392
16	0x3eca3ddb	0.39500317
17	0xbf801666	-1.0006835
18	0xbe991baf	-0.29903933
19	0x4060e32a	3.513865
20	0xbf0c8a1f	-0.54898256

camada4.weight f4 [1, 21]
0	0xbf6bfe09	-0.921845
1	0xbdfd13ec	-0.123573154
2	0xbe81bcd4	-0.25339377
3	0x3d9f6465	0.077828206
4	0x3df0c629	0.11756546
5	0x3caca0ce	0.021072771
6	0x3e12c66f	0.14333509
7	0xbcb4965e	-0.022044357
8	0xbd1789e6	-0.036996745
9	0x4077edf8	3.8738995
10	0x3919e34e	0.00014675895
11	0xbc4a526a	-0.012348751
12	0x3d2603e2	0.040531047
13	0xbcd04848	-0.025425091
14	0xbd4e752e	-0.05040472
15	0x3e4a8f5b	0.19781248
16	0x3ced4644	0.02896417
17	0xbdd4aed9	-0.10384912
18	0x3c850a68	0.016240314
19	0xbf953f40	-1.1659927
20	0x3e9e683c	0.309389
