DeepLearning/experimentos/ReLU 1 (128).pth (torch, 4623 bytes, 3 tensors)

camada1.weight f4 [128, 2]
-2.2867556 6.0572934 0.037997082 0.04508031 -0.057997476 5.485593 -0.0065034954 -0.01080182
0.0001407261 0.0036572453 -0.049307115 -4.560552 2.008629 -5.00702 0.94720393 -5.6796174
0.0068470803 0.004794861 -5.255081 0.64169794 -1.9645702 -5.3656173 1.0296346 -0.0037118662
2.4473538 5.9296694 4.7068095 -2.5778165 -0.021031333 -0.008972557 -4.8506613 2.0682206
0.16287689 -0.068767585 4.9808073 1.5629634 0.2464326 5.2225127 4.977781 1.3534323
4.6521578e-05 0.0010064585 -3.9938612 3.999566 0.001736833 -0.0056065894 -0.09125493 0.0141290855
4.6847405 1.294658 -4.7692304 -1.8514967 -0.045424417 0.04707737 -2.7646112 0.9414194
0.02124768 0.044155408 -1.627103 -0.19621731 0.038251184 -0.011420668 4.078226 -2.716225
-0.022378692 -0.050648816 -2.1750705 -5.997608 -0.14640549 -4.466587 -3.3246565 -4.7016916
0.019805845 -0.007336831 0.050999794 -0.38454875 -0.6087027 -4.4538045 -3.1306458 -4.5267973
-5.017359 -0.006275996 -3.6799223 3.948402 0.0315558 -0.0039606546 -3.3765748 -2.8691578
0.8450277 -0.015972799 -0.06841029 0.0018448037 -3.668462 3.9398565 -4.797097 -1.9013275
0.012154172 0.010615774 0.0044944957 -0.019294241 -0.016411312 0.022361597 0.028321387 0.047208656
3.3453536 5.7719483 -4.3159146 -0.11142514 0.00045092942 0.00023779809 -0.01741272 -2.2800159e-05
-3.721903 3.9976838 -0.07581672 5.1271906 -1.908929 -7.133935 0.79860854 -0.06908469
0.10590915 -0.12548466 -1.8056297 0.08170204 4.913171 1.4118335 -0.08645237 0.20554285
0.021141842 0.00038790793 -3.6991057 3.6828265 -5.0100026 2.197612 -7.804892e-05 -6.425307e-05
4.1284003 -0.7361409 -2.6042475e-05 -0.0067735896 -0.0043837912 -0.01415476 -0.11514443 0.16945451
-0.006391932 -0.012361238 0.46698812 0.42682156 -6.634591 -0.4958748 -4.4122 -1.7386045
5.001486 1.8106211 -0.0068711597 0.0013605509 2.0040524 -4.8366385 1.1697159 -5.6013045
-4.5799375 -1.8039397 -4.7788315 -1.8536652 4.125112 -4.5082297 5.433195 -2.1169307
4.0875187 3.6314564 0.29075152 0.26050723 -0.050012793 -4.6161222 0.7083992 -0.06361458
-4.8850965 2.1372263 0.09716767 -0.011909814 -0.003183183 -0.012397012 0.4544374 -0.08422726
0.19636023 0.21043432 -0.06254955 -0.35449645 -4.798397 -1.9166913 -0.012332559 -0.02670155
-0.0010657583 -0.24195561 -0.058288194 -4.3491635 0.011008103 0.007260467 0.9164458 -0.027601933
-4.803202 2.1031117 0.022185005 -0.032915644 -1.6179979 -5.3909 -4.6885247 2.0548148
-0.005688426 -0.0048275935 -0.0448564 -0.0016452402 5.0820494 -0.0018348073 -0.0067652655 -0.022214405
2.0237675 -6.2138505 7.2128825 2.0772817 -0.0031374227 0.00021335235 0.22219986 0.10865189
-6.7308416 -0.037393622 -0.055277202 -4.503267 -0.0024009598 -4.3017764 2.164895 -4.9412017
1.8303466 -7.0612774 0.41416904 -0.06755517 5.0264354 0.06103349 0.41115615 0.40797746
0.027648225 0.027228793 0.23257887 -0.25875735 -0.07294246 0.07440703 0.011232988 0.0024000441
-0.07620031 0.00080676086 -0.11891721 0.17952114 -0.105372265 0.1130102 0.034505695 -0.9314827
00000000: 345a 12c0 59d5 c140 d4a2 1b3d 22a6 383d
00000010: c38e 6dbd fa89 af40 461b d5bb 1efa 30bc
00000020: e08f 1339 65ae 6f3b 42f6 49bd 0bf0 91c0
00000030: 618d 0040 8239 a0c0 f57b 723f 6dbf b5c0
00000040: 795d e03b 361e 9d3b a029 a8c0 5146 243f
00000050: 0977 fbbf 23b3 abc0 11cb 833f c842 73bb
00000060: 72a1 1c40 dabf bd40 2f9e 9640 f2fa 24c0
00000070: e749 acbc a201 13bc 9e38 9bc0 ba5d 0440
00000080: 33c9 263e 05d6 8cbd c662 9f40 2f0f c83f
00000090: d458 7c3e d31e a740 fb49 9f40 453d ad3f
000000a0: 2a20 4338 25eb 833a 6c9b 7fc0 e4f8 7f40
000000b0: 72a6 e33a 7bb7 b7bb dde3 babd ae7d 673c
000000c0: 65e9 9540 5ab7 a53f 899d 98c0 d8fd ecbf
000000d0: f40e 3abd 33d4 403d 64ef 30c0 dd00 713f
000000e0: 9d0f ae3c 4ddc 343d e944 d0bf 31ed 48be
000000f0: 46ad 1c3d c11d 3bbc d480 8240 a1d6 2dc0
00000100: 8553 b7bc 2275 4fbd 5b34 0bc0 68ec bfc0
00000110: 52eb 15be 48ee 8ec0 2cc7 54c0 4274 96c0
00000120: de3f a23c cd69 f0bb 29e5 503d 93e3 c4be
00000130: f1d3 1bbf 9185 8ec0 805c 48c0 86db 90c0
00000140: 348e a0c0 dfa6 cdbb d983 6bc0 9eb2 7c40
00000150: a840 013d 61c8 81bb cd19 58c0 48a0 37c0
00000160: bc53 583f 63d9 82bc b21a 8cbd 57cd f13a
00000170: 15c8 6ac0 9c26 7c40 d281 99c0 b35e f3bf
00000180: 4b22 473c c9ed 2d3c 9046 933b f50e 9ebc
00000190: 0471 86bc ab2f b73c 4102 e83c dd5d 413d
000001a0: 461a 5640 cdb3 b840 f91b 8ac0 dd32 e4bd
000001b0: b96a ec39 7059 7939 1fa5 8ebc f842 bfb7
000001c0: a933 6ec0 0dda 7f40 cc45 9bbd f211 a440
000001d0: c957 f4bf 3249 e4c0 9c71 4c3f 467c 8dbd
000001e0: e5e6 d83d 0d7f 00be e01e e7bf 6653 a73d
000001f0: b238 9d40 f6b6 b43f f10d b1bd d379 523e
00000200: a831 ad3c 1f60 cb39 26be 6cc0 6eb3 6b40
00000210: f151 a0c0 ada5 0c40 32ae a3b8 9bbf 86b8
00000220: db1b 8440 bb73 3cbf ca75 dab7 fdf4 ddbb
00000230: e8a5 8fbb 5ee9 67bc d8d0 ebbd 7c85 2d3e
00000240: 6973 d1bb ca86 4abc 1119 ef3e 5b88 da3e
00000250: 924e d4c0 4de3 fdbe be30 8dc0 988a debf
00000260: 2c0c a040 6fc2 e73f 7727 e1bb 8354 b23a
00000270: 6542 0040 bec5 9ac0 40b9 953f e33d b3c0
00000280: d98e 92c0 7fe7 e6bf 30ec 98c0 e744 edbf
00000290: eb00 8440 6b43 90c0 bcdc ad40 cb7b 07c0
000002a0: f4cc 8240 c869 6840 62dd 943e 3461 853e
000002b0: 37da 4cbd 46b7 93c0 a659 353f 5c48 82bd
000002c0: b652 9cc0 51c8 0840 d8ff c63d 6121 43bc
000002d0: f39c 50bb d61c 4bbc 05ac e83e 577f acbd
000002e0: a812 493e 187c 573e fa19 80bd 8f80 b5be
000002f0: 788c 99c0 2456 f5bf 800e 4abc 36bd dabc
00000300: eab0 8bba 36c3 77be 9abf 6ebd 592c 8bc0
00000310: 555b 343c 36e9 ed3b 319c 6a3f 731d e2bc
00000320: d5b3 99c0 6299 0640 54bd b53c 8ed2 06bd
00000330: 8e1a cfbf 4182 acc0 6508 96c0 1682 0340
00000340: fa65 babb ca30 9ebb 58bb 37bd 1aa5 d7ba
00000350: 26a0 a240 eb7d f0ba 29af ddbb fcfa b5bc
00000360: 6885 0140 ddd7 c6c0 efcf e640 2ff2 0440
00000370: 389d 4dbb 56b7 5f39 5c88 633e e284 de3d
00000380: 0e63 d7c0 0e2a 19bd 596a 62bd c31a 90c0
00000390: 6c59 1dbb 27a8 89c0 a48d 0a40 531e 9ec0
000003a0: cc48 ea3f fcf5 e1c0 f70d d43e 5d5a 8abd
000003b0: 8fd8 a040 41fe 793d 0f83 d23e 6ce2 d03e
000003c0: 887e e23c eb0e df3c 2829 6e3e d87b 84be
000003d0: db62 95bd b762 983d 910a 383c 0f4a 1d3b
000003e0: e80e 9cbd ce7c 533a de8a f3bd 64d4 373e
000003f0: 6acd d7bd e471 e73d d855 0d3d a675 6ebf

camada1.bias f4 [128]
-5.0941854 -0.09202832 -4.227457 -0.02044816 -0.007131098 -4.4930162 -3.0969832 2.9808123
-0.013291639 -3.0989423 -0.07697333 -1.2287539 -3.47384 -2.992195 -0.035973545 -2.851099
-0.29566917 -3.038363 -5.00875 -3.1413603 -0.0012139461 -0.99127614 -0.010323304 -0.14643212
-2.9764543 -2.9095 -0.1143609 -2.2134411 -0.07088183 -2.1569424 -0.057139713 -4.2283483
-0.080319464 -0.001531754 -4.2738094 -3.311483 -0.061476275 -0.66030985 2.7301793 -3.2313685
-4.8987236 -3.046066 -0.10581902 -4.0318894 -1.1077901 -0.08688509 -3.0439224 -2.9475875
-0.028811261 -0.03494523 -0.047724586 -0.082854085 -5.6714053 -1.7620589 -0.0018749721 -0.028684178
-3.0844033 -4.879531 -5.6859393 -1.0984102 -0.41881505 -2.1808226 -0.22021244 -0.6448485
-0.02832616 -0.92401165 -3.0083654 -0.00018638362 -2.3691645 -0.009510313 -0.061926413 -0.53924716
-0.02675641 -1.1111406 -0.84035814 -2.7171252 -3.1444654 -0.010117676 -0.6004409 0.16034381
-2.824064 -2.9168794 -3.683126 -3.5816848 -3.2977507 -0.6380415 -4.5420523 -0.90619725
-2.923278 -0.25824857 -0.017260203 -0.65851045 -0.63653624 -0.6873668 -2.9758594 -0.046088498
-0.2791597 -4.2861633 -0.025973752 -1.1777468 -2.8730133 -0.116844445 -3.1217895 -2.8123643
-0.012397308 -0.060389556 -4.986334 -0.26824582 0.55277467 -0.3130362 -0.004336661 -0.3981758
-2.4356482 -4.4315367 -4.242158 -3.1135068 -5.6461945 -0.57908577 -2.9586263 -0.88889337
-0.0707802 -0.5631732 -0.23255675 -0.017710762 -0.100463234 -0.47269732 -0.6938017 -1.0503873
00000000: 9103 a3c0 5879 bcbd 5447 87c0 e682 a7bc
00000010: fcab e9bb cac6 8fc0 f934 46c0 a1c5 3e40
00000020: 2dc5 59bc 1255 46c0 31a4 9dbd cf47 9dbf
00000030: 6553 5ec0 1f80 3fc0 ff58 13bd 6878 36c0
00000040: f361 97be 8a74 42c0 ae47 a0c0 0c0c 49c0
00000050: 461d 9fba 46c4 7dbf 1323 29bc 4df2 15be
00000060: 3a7e 3ec0 3f35 3ac0 0c36 eabd 05a9 0dc0
00000070: 7e2a 91bd 580b 0ac0 550b 6abd a14e 87c0
00000080: 887e a4bd 23c5 c8ba 0cc3 88c0 56ef 53c0
00000090: 8cce 7bbd 110a 29bf 42bb 2e40 bece 4ec0
000000a0: 58c2 9cc0 bff2 42c0 a4b7 d8bd 3d05 81c0
000000b0: 11cc 8dbf cff0 b1bd a0cf 42c0 46a5 3cc0
000000c0: 9805 ecbc bb22 0fbd db7a 43bd 67af a9bd
000000d0: 277c b5c0 258b e1bf a0c1 f5ba 15fb eabc
000000e0: dd66 45c0 1e25 9cc0 37f3 b5c0 b598 8cbf
000000f0: ed6e d6be 9992 0bc0 5f7f 61be cb14 25bf
00000100: 430c e8bc 078c 6cbf 0f89 40c0 f96f 43b9
00000110: 64a0 17c0 25d1 1bbc 8da6 7dbd 1a0c 0abf
00000120: 4230 dbbc db39 8ebf b621 57bf 61e5 2dc0
00000130: ec3e 49c0 9cc4 25bc 7fb6 19bf 2b31 243e
00000140: 77bd 34c0 27ae 3ac0 56b8 6bc0 533a 65c0
00000150: 590e 53c0 b056 23bf 7e58 91c0 8bfc 67bf
00000160: fd16 3bc0 2839 84be 4565 8dbc 2494 28bf
00000170: 0af4 22bf 45f7 2fbf 7b74 3ec0 4bc7 3cbd
00000180: 05ee 8ebe 4028 89c0 e8c6 d4bc 68c0 96bf
00000190: 73df 37c0 244c efbd 66cb 47c0 c7fd 33c0
000001a0: 141e 4bbc 0a5b 77bd 0c90 9fc0 8457 89be
000001b0: a482 0d3f 4846 a0be 8d1a 8ebb b3dd cbbe
000001c0: a9e1 1bc0 26cf 8dc0 c2bf 87c0 b243 47c0
000001d0: a0ad b4c0 f73e 14bf 225a 3dc0 848e 63bf
000001e0: 36f5 90bd 1e2c 10bf 5b23 6ebe 2916 91bc
000001f0: abbf cdbd 6205 f2be fd9c 31bf 1773 86bf

camada2.weight f4 [1, 128]
19.456575 0.0040675034 24.038761 0.0061201756 -0.0020517777 -60.938618 -4.8897114 -3.6032002
-0.0007979608 -5.835007 2.4548705 -0.09546627 -9.069143 -3.652489 0.0022910042 -2.9910212
-0.080613606 -2.7768083 -69.3834 -3.0355759 -0.00013238152 2.1977882 0.0016550355 -0.018383019
-2.0832415 -3.2151039 0.009558847 0.8330767 0.0016112967 0.12423171 0.0070422897 8.829813
0.0098591475 3.1159105 -47.298744 -6.0234866 -0.018868765 0.039544057 -2.7535129 -5.4697127
-44.77317 -3.5096693 0.006198752 7.8285937 -0.5047545 0.0019493697 -3.6222706 -3.145941
-0.0016476411 0.0039825086 0.0038804784 0.0032590292 24.91867 0.74937856 0.00029157166 -0.00023963748
-3.8959687 -60.9351 25.148071 -0.5296784 -0.021023124 -0.0015818394 1.4899328 0.021289332
-0.002402228 1.7833723 -3.6118436 3.1920557e-05 -0.61509633 0.0027645112 0.005749988 0.041219555
0.0028689434 0.06064223 3.0426102 -2.0475292 -3.1054144 -0.0008013556 2.1604466 2.6338966
-2.3562248 -3.194892 -6.9976187 -6.589704 -3.9516132 -0.058454003 -61.695927 -0.09671939
-3.1930232 -0.024187114 0.002671225 -0.051504124 -0.01643431 0.04165769 -3.144449 0.008771092
-0.043747418 -45.32161 0.0013685799 -0.59866697 -2.8513074 0.02403645 -6.779811 -2.524771
0.0017899369 -0.006468749 -56.558533 0.062266003 3.3999734 3.7178338 -0.0002408901 0.068853654
5.93776 -56.004646 -42.258736 -4.7993245 24.44687 0.14160551 -3.078462 -0.033323944
0.008399763 0.0894592 0.02077835 -0.0001256244 -0.007867733 -0.09942578 0.026172856 -4.560297
00000000: 11a7 9b41 b148 853b 624f c041 c18b c83b
00000010: 1e77 06bb 25c1 73c2 8478 9cc0 d59a 66c0
00000020: 3e2e 51ba 61b8 bac0 991c 1d40 d283 c3bd
00000030: 361b 11c1 61c2 69c0 ac24 163b e46c 3fc0
00000040: bf18 a5bd 3ab7 31c0 4dc4 8ac2 e046 42c0
00000050: e5cf 0ab9 90a8 0c40 c7ed d83a fc97 96bc
00000060: d453 05c0 43c4 4dc0 b69c 1c3c 8444 553f
00000070: 2532 d33a 326d fe3d 02c3 e63b ea46 0d41
00000080: 4388 213c 146b 4740 ea31 3dc2 67c0 c0c0
00000090: ab92 9abc f3f8 213d 8e39 30c0 e307 afc0
000000a0: ba17 33c2 6c9e 60c0 e71e cb3b d783 fa40
000000b0: 9737 01bf fe81 ff3a 48d3 67c0 1957 49c0
000000c0: a9f5 d7ba b47f 823b a04f 7e3b 7095 553b
000000d0: 7059 c741 46d7 3f3f 16de 9839 3247 7bb9
000000e0: 8d57 79c0 8bbd 73c2 402f c941 0199 07bf
000000f0: b038 acbc b955 cfba 1eb6 be3f f766 ae3c
00000100: b36e 1dbb 8b45 e43f 7228 67c0 70e2 0538
00000110: f476 1dbf cd2c 353b 656a bc3b d6d5 283d
00000120: e204 3c3b fd63 783d 20ba 4240 b80a 03c0
00000130: 1cbf 46c0 1012 52ba c244 0a40 c391 2840
00000140: 63cc 16c0 1c79 4cc0 7eec dfc0 dbde d2c0
00000150: 3be7 7cc0 776d 6fbd a1c8 76c2 d114 c6bd
00000160: 7e5a 4cc0 0e24 c6bc b80f 2f3b fdf5 52bd
00000170: 3fa1 86bc 41a1 2a3d a73e 49c0 a0b4 0f3c
00000180: 7e30 33bd 5449 35c2 ec61 b33a 3d42 19bf
00000190: d27b 36c0 17e8 c43c 36f4 d8c0 d995 21c0
000001a0: 519c ea3a cdf7 d3bb f03b 62c2 a30a 7f3d
000001b0: 2a99 5940 fdf0 6d40 7297 7cb9 2503 8d3d
000001c0: 2102 be40 c204 60c2 f208 29c2 1194 99c0
000001d0: 3193 c341 0901 113e 8505 45c0 b07e 08bd
000001e0: 299f 093c 6336 b73d 5c37 aa3c 0bba 03b9
000001f0: aae7 00bc be9f cbbd 7568 d63c f4ed 91c0
