DeepLearning/experimentos/ReLU 2 (30, 30).pth (torch, 7157 bytes, 5 tensors)

camada1.weight f4 [30, 2]
0	0xbdc52d7a	-0.096278146
1	0x3da4cfd2	0.08047451
2	0x3f4a36e7	0.78990024
3	0xc0957cf4	-4.671503
4	0xc0b2a80b	-5.583013
5	0xbf1d936f	-0.6155309
6	0xc09743a0	-4.727005
7	0xbfcdb94d	-1.6072174
8	0xc02a319d	-2.6592782
9	0x4095c802	4.680665
10	0xbcfdbcc6	-0.030973803
11	0x40aa037a	5.3129244
12	0x408c976f	4.3934855
13	0x3fde75ec	1.7379737
14	0xbe884752	-0.26616913
15	0x3d235432	0.039875217
16	0x3fe688d4	1.8010507
17	0x408d1ae1	4.409531
18	0x40958b75	4.6732736
19	0x4016c92a	2.356028
20	0x3f5dcb51	0.8663836
21	0xc01bb3f1	-2.4328578
22	0x3f439f06	0.76414526
23	0x409836c0	4.7566833
24	0x3eae0012	0.3398443
25	0xbe01b57e	-0.1266689
26	0x3c84f687	0.016230835
27	0x3eb9add1	0.36265424
28	0xbe71cc7b	-0.2361316
29	0x3cafa135	0.021439174
30	0xc0651430	-3.5793571
31	0xc01f08af	-2.484905
32	0xc0024465	-2.0354245
33	0x4049c981	3.1529238
34	0xbfaf8d87	-1.3715066
35	0x40481d46	3.1267867
36	0xc08d3500	-4.4127197
37	0x3fd301f6	1.6484973
38	0x3f9fa219	1.2471343
39	0xc0a81274	-5.2522526
40	0x408f86d3	4.485208
41	0x3f238bec	0.6388538
42	0x3d55454f	0.05206805
43	0x3dc6b06f	0.09701621
44	0x3e406926	0.18790111
45	0x40696aa3	3.6471336
46	0xbea41f0d	-0.3205494
47	0xbd91089f	-0.070817225
48	0xbf5f243f	-0.8716468
49	0xc09699cf	-4.7062755
50	0x4091684f	4.543983
51	0xbf4b1282	-0.79325116
52	0x3af4ef4e	0.0018687041
53	0xc09da9ac	-4.926962
54	0x3e2fdfa7	0.1717516
55	0x3d60b997	0.054864492
56	0xbd5f3f60	-0.0545038
57	0xbe0646d3	-0.13112955
58	0x3e1aae8e	0.1510565
59	0x3e4df37e	0.20112416

camada1.bias f4 [30]
0	0xbecc60cf	-0.3991761
1	0xc07d9ab7	-3.962568
2	0xbf783221	-0.9695149
3	0xc043d465	-3.0598385
4	0xbfce71df	-1.6128501
5	0xc084dc71	-4.1519094
6	0xbf88a89a	-1.0676453
7	0xbef07684	-0.4696542
8	0xbfe07a4c	-1.7537322
9	0xc008d1ba	-2.1378007
10	0x3ff75180	1.9321747
11	0xc080be58	-4.0232353
12	0xbf203a19	-0.6258865
13	0xbf2394e0	-0.6389904
14	0xbf037970	-0.51357174
15	0xbf662b4b	-0.8990981
16	0xc0416963	-3.0220573
17	0x402638b3	2.5972106
18	0xc0265169	-2.598719
19	0xbf9b8520	-1.2150002
20	0xc0686b40	-3.631546
21	0xbe4e9139	-0.20172586
22	0xbf7259cb	-0.94668263
23	0xbf121307	-0.57060283
24	0xc07148ca	-3.7700677
25	0xbfb90efa	-1.4457695
26	0xc07641e9	-3.8477728
27	0xbf10dbd3	-0.56585425
28	0xbf162d42	-0.5866281
29	0xbf2ea6ef	-0.6822347

camada2.weight f4 [30, 30]
0	0xbe350264	-0.17676693
1	0xbe8a14f9	-0.26969126
2	0xbe812ea7	-0.25230905
3	0x3d1f95ce	0.038961224
4	0xbe22f0f5	-0.1591223
5	0xbd548b1c	-0.051890478
6	0xbda9b05e	-0.082855925
7	0x3d89e8d9	0.06733865
8	0xbe67073b	-0.22561352
9	0x3bbce7e2	0.0057649473
10	0xbed6113d	-0.41810027
11	0x3e1eab78	0.15495098
12	0x3e191b7e	0.14951894
13	0xbdd61aad	-0.10454307
14	0x3d299d35	0.04140969
15	0xbe14ee3f	-0.14544009
16	0x3e6a51e9	0.22882809
17	0xbeace8ee	-0.3377146
18	0x3ecb23e3	0.39675817
19	0xbe8dbc48	-0.2768271
20	0x3e07970b	0.13241212
21	0xbe931064	-0.28723443
22	0xbec99ca1	-0.3937731
23	0x3e026545	0.12733944
24	0xbdd1cc82	-0.10244085
25	0xbee4b249	-0.4466727
26	0xbdc661c2	-0.096866146
27	0x3d122c68	0.03568688
28	0xbddc1832	-0.107468024
29	0x3dbee821	0.09321619
30	0x3dc37e5f	0.09545588
31	0xbf3d4d02	-0.7394563
32	0xbe54ce77	-0.20781885
33	0x3fa00978	1.250289
34	0xbe4a5bbc	-0.19761556
35	0xbddc0fb8	-0.107451856
36	0xbf067562	-0.5252286
37	0x3d8fd40e	0.07022868
38	0xbfa4749a	-1.2848084
39	0x3cd0ad46	0.025473248
40	0xbebb9a38	-0.36641097
41	0x403ccb2d	2.9499009
42	0xbe2c07b3	-0.16799812
43	0x3d00314c	0.031297013
44	0xbd02ea2f	-0.031961616
45	0x3d33a421	0.043857697
46	0x3e243c3d	0.16038604
47	0xbe574a4d	-0.21024437
48	0x3ec79258	0.3897884
49	0xbf8f507e	-1.1196439
50	0x3e040353	0.12891893
51	0xbe813836	-0.25238198
52	0xbf353491	-0.70783335
53	0xbbdfdcd6	-0.0068317456
54	0xbff55226	-1.9165695
55	0x3de6e58e	0.11274253
56	0xbeea58a9	-0.45770767
57	0x3b7f37ff	0.0038943288
58	0xbda16dd6	-0.07882278
59	0x3dc8f1e0	0.09811759
60	0x3d63c023	0.055603158
61	0xbf6eb9d9	-0.9325233
62	0xc054272b	-3.3148906
63	0x3f80c194	1.0059075
64	0xc04111e3	-3.0167167
65	0x3fb827e5	1.4387175
66	0xc0387311	-2.882023
67	0xbd6c3013	-0.057663035
68	0xc0eb7626	-7.3581724
69	0xbfca9efa	-1.5829766
70	0x3f3dcfd9	0.74145275
71	0x408558b4	4.167078
72	0xbe069033	-0.13140945
73	0xbe02f88e	-0.12790129
74	0xbb807f4e	-0.003921426
75	0xbfbc4180	-1.4707489
76	0x3f16ade8	0.5885911
77	0x3eb4dcc6	0.35324687
78	0xc073418b	-3.8008754
79	0xc0b4635b	-5.6371284
80	0x3f324293	0.69632834
81	0xbf6bcdb3	-0.9211075
82	0xbf56f3e4	-0.839659
83	0x3dd48325	0.10376576
84	0xc018a6d6	-2.3851829
85	0xc0069cf8	-2.1033306
86	0xbe169f1e	-0.14709136
87	0x3de51edb	0.11187526
88	0xbc0eeaae	-0.008722944
89	0xbdec2eec	-0.11532387
90	0xbe04d769	-0.12972797
91	0xc14a99aa	-12.662516
92	0x402ef5d5	2.7337544
93	0xbebf7e79	-0.37401178
94	0xc112b37c	-9.168819
95	0x4026f6b1	2.6088068
96	0x400a1539	2.1575453
97	0xbdb88fb3	-0.090117835
98	0xbff0e2a6	-1.8819168
99	0x405f624e	3.490375
100	0x3eae8167	0.340831
101	0x40171ed9	2.3612578
102	0x3dd81bde	0.1055219
103	0x3e38166a	0.179773
104	0xbd25e4d5	-0.040501434
105	0x3ff8d2b6	1.9439304
106	0x3eb2f187	0.34949896
107	0xc0b9c55c	-5.8053417
108	0x40814c72	4.0405817
109	0x3fbe9e3e	1.4892042
110	0x405f5095	3.4892933
111	0xbdcb19f8	-0.099170625
112	0xbfdf780e	-1.7458513
113	0x3bb26b7f	0.0054449434
114	0xc16c7309	-14.778085
115	0x3fa3da55	1.2801005
116	0xc1fbb078	-31.461166
117	0xbda1b06c	-0.07894978
118	0x3e13dcbd	0.14439674
119	0xbdc3c552	-0.0955912
120	0xbd9d72ee	-0.07687937
121	0xc004479b	-2.0668705
122	0x3f989a7b	1.1922144
123	0x40d0de62	6.5271463
124	0x3f5aea2c	0.8551357
125	0x412fad39	10.979791
126	0xbfd1d006	-1.6391609
127	0xbe1cd56f	-0.15315793
128	0x3e7b04ba	0.24513522
129	0x3e2425c3	0.1603003
130	0x4001a876	2.025907
131	0x413d6b79	11.838738
132	0x3d3ea142	0.046540506
133	0x3e02fdde	0.12792155
134	0xbe3921d5	-0.18079312
135	0x404754f3	3.11456
136	0xbe34d84e	-0.17660639
137	0xc006a20d	-2.1036408
138	0x3fcb3805	1.5876471
139	0xc0609315	-3.5089772
140	0x3fe588f7	1.7932423
141	0xbe8447e9	-0.25836113
142	0xbed3eaea	-0.41390163
143	0xbd7c5019	-0.061599825
144	0xc16ffb88	-14.998909
145	0xbf473751	-0.7781878
146	0xc205de79	-33.46726
147	0x3d0632c7	0.03276327
148	0xb9fa6687	-0.00047760105
149	0xbe065c0f	-0.13121055
150	0x3df501d8	0.11963242
151	0x40178d1b	2.3679874
152	0x3ff6891a	1.926059
153	0x3fa12c6d	1.2591683
154	0x3f856a45	1.0423056
155	0xc124e518	-10.305931
156	0x3ff30ec7	1.8988885
157	0x3e0daf12	0.13836315
158	0xc11818b1	-9.506028
159	0x40fcfaeb	7.9056296
160	0xc01531b5	-2.3311589
161	0x40541907	3.3140275
162	0x3d24d61f	0.040243264
163	0x3d803bba	0.06261392
164	0x3d1df447	0.03856304
165	0x3f5750cd	0.8410767
166	0x3f8824e7	1.0636262
167	0x3e2d029a	0.16895524
168	0x40cd1fc8	6.4101295
169	0xbfe3c9c7	-1.7795953
170	0x414135f4	12.075672
171	0xbf0572d4	-0.5212834
172	0xc1376579	-11.462274
173	0xbbf6d493	-0.007532665
174	0xc019bd86	-2.4021926
175	0x405b8a21	3.4303057
176	0x40775ec1	3.8651583
177	0x3d303f37	0.043029036
178	0x3e104c59	0.14091624
179	0xbd0abece	-0.03387337
180	0x3c2f71e3	0.010708305
181	0xbeda22f7	-0.426048
182	0xbea1e8ae	-0.31622833
183	0xbe7d956f	-0.24764036
184	0xbd17cb50	-0.03705913
185	0x3d808ccd	0.062768556
186	0x3db400e1	0.0878923
187	0x3cdfdd89	0.027327316
188	0xbca8ade6	-0.020590734
189	0xbddcb3b7	-0.107764654
190	0xbe2da916	-0.16959032
191	0x3d14e9d5	0.036355812
192	0x3e2b1ded	0.16710635
193	0xbdfebb18	-0.12438029
194	0xbd4741f3	-0.04864688
195	0xbe23a377	-0.15980326
196	0x3e21c96d	0.15799494
197	0xbed87340	-0.4227543
198	0x3d59178c	0.05300097
199	0xbe66b284	-0.22529036
200	0xbd4ad453	-0.049518894
201	0x3cfe7f01	0.03106642
202	0xbd9974c0	-0.074929714
203	0xbe1f02c8	-0.15528405
204	0xbe9bb9a6	-0.30415076
205	0xbd5c93ea	-0.053852
206	0x3eac210f	0.33618972
207	0x3db6e6ae	0.089307174
208	0x3da0cccf	0.07851564
209	0xbdf9a228	-0.12189132
210	0x3d951762	0.072798505
211	0xbd6ae2e0	-0.05734527
212	0xbe802dba	-0.25034887
213	0x3d658a0c	0.056039855
214	0xbe87fa85	-0.2655832
215	0xbc74a49b	-0.014931823
216	0xbe083e13	-0.1330493
217	0x3dfd9cf1	0.1238345
218	0x3cd491be	0.025948402
219	0xbcf7ae0d	-0.030234361
220	0xbdb022e4	-0.08600405
221	0x3c7663e9	0.015038469
222	0xbdf01fa2	-0.117247835
223	0xbe1e1f8f	-0.15441726
224	0x3e06a50c	0.13148898
225	0xbe1cbffd	-0.15307613
226	0xbd8d56aa	-0.069012955
227	0x3d38d4fa	0.045124985
228	0xbd42fe28	-0.047605664
229	0xbde0df1e	-0.10980056
230	0x3dbfcf6e	0.09365736
231	0xbe70ac3d	-0.23503204
232	0xbe2770da	-0.16351643
233	0xbd4705e2	-0.048589595
234	0xbe5e31e8	-0.21698725
235	0xbe4a68ff	-0.19766615
236	0xbd1ffdb8	-0.039060324
237	0x3c3af42e	0.011410756
238	0xbbca2560	-0.006169006
239	0xbe1e2aa7	-0.15445958
240	0xbe2fc5fe	-0.17165372
241	0xbc8a8d23	-0.016913002
242	0xbe238ebb	-0.15972416
243	0x3baa8ddf	0.0052049006
244	0xbdcdbf1f	-0.10046219
245	0xbe467ce5	-0.19383581
246	0xbda4fc1c	-0.080558985
247	0xbe2d9501	-0.16951372
248	0xbc0d45bf	-0.008622586
249	0xb915271f	-0.00014224321
250	0xbe14ef2d	-0.14544363
251	0xbd1fd076	-0.039017163
252	0x3e291c1e	0.16514632
253	0xbd924b6e	-0.07143293
254	0xbcfbe94f	-0.030750899
255	0xbde5e4b7	-0.112252645

camada2.bias f4 [30]
0	0xbe991f6c	-0.29906785
1	0x3e5d8535	0.21632846
2	0x3fa27ad9	1.269374
3	0xbfa7d456	-1.3111675
4	0xc049a0c3	-3.150437
5	0xc0b07ace	-5.514991
6	0xbee33500	-0.44376373
7	0x3c9530a8	0.018211678
8	0xbddd9713	-0.10819831
9	0xc0df2ed6	-6.9744673
10	0xbe38c52b	-0.18043964
11	0xbf05e28e	-0.5229882
12	0xbe770db0	-0.24126315
13	0xbe64d55e	-0.22347018
14	0xc0a0313e	-5.006011
15	0x406af345	3.671098
16	0xbe89a80e	-0.26886028
17	0xc024c36f	-2.5744283
18	0x3ed21656	0.41032666
19	0xbe79dbdc	-0.24400276
20	0xbe384605	-0.1799546
21	0x405f307f	3.487335
22	0xbc53ae09	-0.012919911
23	0xbe5de57a	-0.2166957
24	0xc0385b7a	-2.8805833
25	0xbe5f392f	-0.21799158
26	0x3e68d65b	0.2273802
27	0xbf5e8669	-0.86923844
28	0xc07bae43	-3.932511
29	0xbd30ea60	-0.043192267

camada3.weight f4 [1, 30]
0	0x3de38015	0.11108414
1	0x3d35d020	0.044387937
2	0xbe7e6726	-0.24844036
3	0xc0898a8a	-4.2981615
4	0xbfbcce5c	-1.4750476
5	0xbf6bfb35	-0.92180187
6	0x3dc7064a	0.097179964
7	0x3d5f63ef	0.054538663
8	0x3c891a90	0.016736299
9	0xc00f326c	-2.2374525
10	0x3d164184	0.036683574
11	0xbe8c93c0	-0.27456474
12	0x3d263c95	0.04058512
13	0xbcdaf108	-0.02672626
14	0xbfa27b14	-1.269381
15	0xc0b433fe	-5.6313467
16	0x3e1c0c45	0.15239055
17	0xc085b2d0	-4.1780777
18	0xbd4acff3	-0.049514722
19	0x3b79f4d8	0.0038140323
20	0xbd1060e9	-0.03524867
21	0xc038f4ef	-2.8899496
22	0xbc80397e	-0.015652414
23	0x3dbf92d6	0.093541786
24	0xc050fc0b	-3.2653835
25	0x3d9a1c77	0.075249605
26	0xbda74d60	-0.08169055
27	0xbeb61904	-0.3556596
28	0xbfdb3ae8	-1.7127352
29	0x3d755b28	0.059901386
