DeepLearning/experimentos/ReLU 1 (256).pth (torch, 6671 bytes, 3 tensors)

camada1.weight f4 [256, 2]
2.188415 -4.398717 -4.8794093 -1.971191 -0.008220517 -0.0270362 0.068939865 -0.1855019
0.085573524 0.029229429 0.101707436 -0.7472586 -6.701933 -0.24753399 -0.018013753 -0.97022307
0.48750982 -0.11093938 -1.2988994 -0.11340859 -4.5953064 0.031852294 0.08747984 -0.9392413
-0.017241547 -0.0009492451 -1.0171051 4.7326846 4.592297 -3.9134645 -4.917803 -1.2213192
0.010558715 -0.084164396 -0.29523072 -0.21863343 -0.12997727 -0.20429379 -0.10434439 4.239328
-0.16587488 0.02531353 -0.21171424 0.120321326 -0.002391047 0.00069304265 -0.0037461862 -0.0032424342
-4.7119837 -1.9041382 0.19528657 0.1418125 1.3462318 -4.4879017 0.26402465 0.011133694
4.1378865 1.3119894 0.023930408 0.050406672 -0.26525524 -0.015170528 -0.6762727 0.012059902
0.0065028337 0.027176995 -1.0304791 -4.3250265 -0.00013594028 0.00024078616 -0.004025783 -0.007251105
-5.451191 1.3460189 0.026946248 0.0395805 -0.024981812 4.2604723 0.004118499 -0.0027004543
-0.024542438 0.046641078 0.18573092 0.03305892 5.137318 2.1632695 0.00907195 0.014520057
-0.16976789 0.30790818 1.5751177 -3.2467709 0.16609547 4.2638884 0.00044612255 -0.0004426705
0.3024083 0.13174416 0.022693425 0.07152826 0.024393097 0.0065599093 0.040166747 -4.4251385
0.012058566 0.021697517 -4.904333 -1.9707702 -0.0064128265 -0.012885506 0.0008480373 -0.006392123
0.16278104 4.300597 -0.07337583 -0.15107083 -4.5006475 -1.3582796 3.7448764 -3.4059975
-4.66758 -1.8633248 -0.032976232 0.005439087 -0.00015016031 0.0037842197 0.030887611 4.273591
-4.53173 2.0142548 0.7806664 0.52481335 -4.203714 -1.2171366 0.013813601 -0.0105680395
0.20341772 -0.22912139 -3.7331386 -4.8670115 1.1760193 -0.039912596 0.07781593 -4.471019
-5.365857 0.751934 0.10647475 -4.430844 -0.0034012778 0.009366819 -0.0022117659 -0.0036959474
-0.0008884765 0.0009792813 0.23537403 0.24089648 -0.04108678 -4.493136 -0.008241193 0.0019578089
-0.014339867 -0.00093618454 -0.74016094 1.8935955 -0.17163853 -0.011712341 1.6183641 3.8352952
0.0054396945 -0.004306397 -0.2435132 0.070268236 0.03723517 0.40030012 4.451103 1.4270555
-1.2728052 1.4686595 0.21638301 -5.508323 -0.0059040464 -0.0064258357 0.051972944 0.06877522
-1.0329766 -0.08693704 3.1531637 5.2997775 -0.11417778 0.24455388 -0.00057783246 -0.0002803528
-1.5222981 4.036298 0.16470893 4.3346343 0.2517093 -6.1676536 -0.0007178299 -0.0005162535
-0.0004986977 0.0008741733 -0.19124304 0.011619066 -0.113359675 0.37199667 -0.00196385 0.001382406
0.0018472322 -0.002146745 0.0055666827 0.0011709825 1.6718265 7.3205705 0.0013521574 -0.00090787496
-0.0049750004 -0.003989815 -0.018828994 -0.02936168 0.0007942334 -0.0022896705 0.06772035 0.2379188
-0.23342812 4.2834835 4.02757 3.0650396 -0.036694407 0.0046078973 0.2636434 -0.15182507
0.10883196 4.354646 0.0086753685 0.015870268 0.0007172317 -0.0016596419 -0.07723461 4.00474
-0.09722896 -0.39226243 -4.235928 4.427837 -0.27512008 -0.21211563 0.2732053 2.2536096e-05
0.02306324 0.002614617 -0.0016297986 -0.00607606 -0.010425827 0.00019078371 5.9846625 -2.2767417
00000000: fe0e 0c40 4ac2 8cc0 1f24 9cc0 fd4f fcbf
00000010: 59af 06bc 057b ddbc 5830 8d3d 36f4 3dbe
00000020: 2c41 af3d 8e72 ef3c fd4b d03d 574c 3fbf
00000030: 3c76 d6c0 8d79 7dbe 9491 93bc 8a60 78bf
00000040: e39a f93e 3034 e3bd 5642 a6bf c342 e8bd
00000050: c00c 93c0 8d77 023d a128 b33d 1e72 70bf
00000060: 253e 8dbc c3d6 78ba 8030 82bf 2772 9740
00000070: 19f4 9240 3476 7ac0 a45e 9dc0 3054 9cbf
00000080: 76fe 2c3c 625e acbd 7b28 97be 71e1 5fbe
00000090: c318 05be 6432 51be 83b2 d5bd 93a8 8740
000000a0: 1bdb 29be 525e cf3c 9ecb 58be 076b f63d
000000b0: 1db3 1cbb 4ead 353a 9382 75bb 057f 54bb
000000c0: 92c8 96c0 cdba f3bf 34f9 473e 4c37 113e
000000d0: 5351 ac3f e49c 8fc0 3d2e 873e 196a 363c
000000e0: 9169 8440 45ef a73f b409 c43c 3a77 4e3d
000000f0: 89cf 87be ce8d 78bc 3520 2dbf e596 453c
00000100: b915 d53b 4aa2 de3c bde6 83bf 9e66 8ac0
00000110: 318b 0eb9 8b7b 7c39 b7ea 83bb ad9a edbb
00000120: 2870 aec0 594a ac3f 61be dc3c 2a1f 223d
00000130: a8a6 ccbc ca55 8840 79f4 863b 1bfa 30bb
00000140: 390d c9bc b70a 3f3d 3f30 3e3e ca68 073d
00000150: e964 a440 0273 0a40 84a2 143c 88e5 6d3c
00000160: a2d7 2dbe 24a6 9d3e 759d c93f 18cb 4fc0
00000170: ee14 2a3e c671 8840 8ee5 e939 3b16 e8b9
00000180: 43d5 9a3e f1e7 063e 90e7 b93c 697d 923d
00000190: 08d4 c73c 82f4 d63b e385 243d bc9a 8dc0
000001a0: 4b91 453c febe b13c 4cf0 9cc0 3342 fcbf
000001b0: b022 d2bb bb1d 53bc d24e 5e3a 0475 d1bb
000001c0: 13b0 263e 7e9e 8940 1146 96bd 50b2 1abe
000001d0: 4e05 90c0 1bdc adbf 0eac 6f40 ddfb 59c0
000001e0: d15c 95c0 6d81 eebf 1612 07bd 5e3a b23b
000001f0: 5a74 1db9 ac00 783b 0408 fd3c 42c1 8840
00000200: ef03 91c0 8de9 0040 c1d9 473f 2b5a 063f
00000210: d384 86c0 22cb 9bbf 7152 623c 9225 2dbc
00000220: bc4c 503e cc9e 6abe beeb 6ec0 8fbe 9bc0
00000230: cd87 963f 647b 23bd f55d 9f3d 9612 8fc0
00000240: 1ab5 abc0 bf7e 403f 6f0f da3d 79c9 8dc0
00000250: f9e7 5ebb 4977 193c 46f3 10bb b537 72bb
00000260: a6e8 68ba 3a5b 803a e405 713e 91ad 763e
00000270: 9d4a 28bd c5c7 8fc0 1206 07bc 954e 003b
00000280: c3f1 6abc 486a 75ba 307b 3dbf 5661 f23f
00000290: 03c2 2fbe 1ee5 3fbc 8e26 cf3f 7a75 7540
000002a0: 773f b23b ad1c 8dbb 865b 79be cbe8 8f3d
000002b0: e883 183d 23f4 cc3e 706f 8e40 c1a9 b63f
000002c0: 48eb a2bf 09fd bb3f 8293 5d3e 2f44 b0c0
000002d0: bb76 c1bb d18f d2bb 95e1 543d 06da 8c3d
000002e0: 9438 84bf 0c0c b2bd 6fcd 4940 c797 a940
000002f0: 0ad6 e9bd 556c 7a3e ae79 17ba 51fc 92b9
00000300: aada c2bf 5a29 8140 75a9 283e 53b5 8a40
00000310: 0be0 803e 6b5d c5c0 c02c 3cba 3055 07ba
00000320: 09bb 02ba c728 653a 37d5 43be e55d 3e3c
00000330: 1e29 e8bd 5976 be3e f0b3 00bb d931 b53a
00000340: d41e f23a 68b0 0cbb b868 b63b a77b 993a
00000350: 69fe d53f 1d42 ea40 e03a b13a 75fe 6dba
00000360: 5405 a3bb febc 82bb 433f 9abc e887 f0bc
00000370: 1a34 503a 4c0e 16bb f8b0 8a3d fca0 733e
00000380: c807 6fbe 4c12 8940 dae1 8040 9c29 4440
00000390: e04c 16bd d8fd 963b 45fc 863e 0878 1bbe
000003a0: 4ae3 de3d 4359 8b40 2223 0e3c 5d02 823c
000003b0: 9b04 3c3a 5788 d9ba 2e2d 9ebd d526 8040
000003c0: fa1f c7bd 9fd6 c8be b98c 87c0 d7b0 8d40
000003d0: 8adc 8cbe d734 59be 91e1 8b3e e60b bd37
000003e0: 1fef bc3c ff59 2b3b f79e d5ba af19 c7bb
000003f0: 16d1 2abc 1d0d 4839 5b82 bf40 23b6 11c0

camada1.bias f4 [256]
-0.3091462 -3.0586414 -0.047231097 -0.5470473 -0.421156 0.3784865 -0.81257063 -1.1642188
-0.77658063 -1.7842987 -4.4112554 -1.1113276 -0.021422202 -0.6523458 -3.4497397 -2.5880554
-0.16082749 -0.77890337 -0.86112475 -4.181653 -0.331949 -0.4364069 -0.0038836556 -0.019190013
-2.9667146 -0.46839958 2.5956109 -0.44871148 -2.7869585 -0.08423325 -0.32336524 -0.8639614
-0.09223525 -0.3655736 -0.00042966494 -0.0172194 -1.6622041 -0.07240769 -4.1852612 -0.010473529
-0.080833845 -0.3751709 -2.974678 -0.02777783 -0.5899281 -0.2595637 -4.0730705 -0.0011154921
-0.55608517 -0.10909821 -0.043581363 -4.175169 -0.03890885 -3.0922475 -0.024788981 -0.019681698
-4.107312 -0.4340323 -3.1285636 -2.9681315 -2.9564083 -0.059235223 -0.006149746 -4.134394
-2.7080321 -1.4554429 -2.8722534 -0.026629714 -0.556775 -3.4825408 -1.3539643 -4.13365
-1.2897507 -4.11601 -0.019864673 -0.007068397 -0.0023244421 -0.59606767 -4.1909933 -0.012421862
-0.020131044 1.1752996 -0.23837695 -4.9732337 -0.016902927 -0.5501905 -0.589486 -2.9804664
-2.9440355 -4.2165346 -0.019189144 -0.14046565 -1.3372482 -3.6246448 -0.5628039 -0.001015826
-2.5182033 -4.1340127 -4.7033153 -0.0031303265 -0.004582464 -0.26518458 -0.72324747 -0.0039598686
-0.005753193 -0.009267014 -0.69828635 -0.0071217157 -0.01273697 -0.10747377 -0.003609208 -0.41373253
-4.151264 -2.03829 -0.08370833 -0.569825 -4.087914 -0.040079225 -0.0028924723 -3.977633
-0.6490392 -3.3895266 -0.6643874 -0.5179301 -0.032834027 -0.031255886 -0.013814387 -3.9501216
-0.5792687 -0.009667872 -0.58510035 -0.006980117 -3.0872123 -0.022172118 -1.0733641 -0.006746871
-0.00082323834 -0.51910704 -0.40897977 -1.0685672 -0.005318176 -0.006117793 -0.32645735 -0.6596891
-0.036235776 -4.1861987 -0.040980555 -0.725848 -0.54736733 -0.01954308 -5.1775866 -1.0259411
-0.6956491 -4.2051897 -0.53734696 -0.007342696 -0.0028849025 -0.017252935 -2.976053 -0.0036653348
-0.051495437 -0.037554573 -5.084047 -2.9855666 -0.03050129 -0.0016941354 -3.291237 -0.33309257
-4.0553885 -2.8275454 -6.1753216 -0.0040457323 -0.10939925 -0.6214706 -0.02616853 2.47072
-3.59747 -1.8228093 -0.6088938 -2.400195 -4.9591646 -0.14716382 -4.012631 -0.002072151
-3.300599 -0.019286672 -1.3487141 -0.659806 -0.45908013 -4.7731667 -1.2992097 -0.060411926
-0.25363734 -3.5246024 -0.67340714 -0.63990974 -3.6443257 -2.5196867 -0.10639862 -2.8158355
-3.047297 -0.0045465026 -0.6850719 -0.009799525 -4.777538 -0.023349732 -0.6695647 -4.768502
-0.0075445944 -0.6788423 -2.1844735 -0.46228677 -4.9134893 -0.022782672 -2.866935 -0.701069
-0.43688157 -0.6769043 -3.0532653 -0.013356162 -2.0746775 -0.33969927 -3.1132329 -1.3958554
-0.14958717 -0.0336428 -0.54280174 -1.3381195 -1.8659769 -0.0393374 -3.2250907 -0.03347926
-3.1539176 -0.01208365 -0.69520813 -4.1938877 -0.03999837 -1.0275122 -2.6926186 -4.2947793
-0.37807435 -0.66827047 -0.050900348 -3.0707943 -3.0678334 -3.591062 -0.7973985 -0.0013961602
-0.37712646 -0.72943366 -1.2822585 -1.3906499 -0.00070955587 -0.0036960808 -0.029034575 -4.2670913
00000000: 6948 9ebe c8c0 43c0 6575 41bd 4b0b 0cbf
00000010: c2a1 d7be fcc8 c13e a104 50bf 1f05 95bf
00000020: fdcd 46bf e663 e4bf 0129 8dc0 fc3f 8ebf
00000030: 9d7d afbc 2200 27bf 89c8 5cc0 b3a2 25c0
00000040: f6af 24be 3666 47bf ac72 5cbf 1ad0 85c0
00000050: 38f5 a9be ba70 dfbe ee84 7ebb 6034 9dbc
00000060: a7de 3dc0 12d2 efbe 7d1e 2640 83bd e5be
00000070: 875d 32c0 7b82 acbd 2190 a5be 932c 5dbf
00000080: d6e5 bcbd 772c bbbe a744 e1b9 b30f 8dbc
00000090: 1bc3 d4bf 7c4a 94bd a9ed 85c0 2a99 2bbc
000000a0: 378c a5bd 6616 c0be 2061 3ec0 558e e3bc
000000b0: 8705 17bf 89e5 84be 9856 82c0 b435 92ba
000000c0: 995b 0ebf e26e dfbd 5f82 32bd fc9a 85c0
000000d0: e35e 1fbd 62e7 45c0 4312 cbbc 833b a1bc
000000e0: 1a6f 83c0 7b39 debe 633a 48c0 def5 3dc0
000000f0: cb35 3dc0 a2a0 72bd cf83 c9bb f54c 84c0
00000100: 6650 2dc0 f44b babf 00d3 37c0 8f26 dabc
00000110: ce88 0ebf f3e1 5ec0 b44e adbf dc46 84c0
00000120: 8d16 a5bf 5bb6 83c0 3dbb a2bc 039e e7bb
00000130: ab55 18bb e497 18bf 9e1c 86c0 1185 4bbc
00000140: dce9 a4bc 3870 963f 1619 74be bb24 9fc0
00000150: 0278 8abc 49d9 0cbf 8ee8 16bf f6bf 3ec0
00000160: 146b 3cc0 daed 86c0 8d32 9dbc 3ad6 0fbe
00000170: f32a abbf 2efa 67c0 eb13 10bf 7725 85ba
00000180: 3e2a 21c0 d549 84c0 8f81 96c0 2a26 4dbb
00000190: 7f28 96bb 46c6 87be bf26 39bf c9c1 81bb
000001a0: 4885 bcbb add4 17bc e5c2 32bf 485d e9bb
000001b0: b9ae 50bc 351b dcbd 7688 6cbb c0d4 d3be
000001c0: 28d7 84c0 5873 02c0 466f abbd 0de0 11bf
000001d0: 31d0 82c0 1d2a 24bd a28f 3dbb 8a91 7ec0
000001e0: 6f27 26bf 01ee 58c0 4b15 2abf 1197 04bf
000001f0: f97c 06bd 2c06 00bd bd55 62bc cbce 7cc0
00000200: f44a 14bf ff65 1ebc 23c9 15bf 77b9 e4bb
00000210: e394 45c0 4da2 b5bc ff63 89bf db14 ddbb
00000220: 97ce 57ba 33e4 04bf cc65 d1be cfc6 88bf
00000230: 1844 aebb c477 c8bb 6b25 a7be 63e1 28bf
00000240: f76b 14bd 57f5 85c0 3adb 27bd 2dd1 39bf
00000250: 4420 0cbf cf18 a0bc caae a5c0 0a52 83bf
00000260: 0f16 32bf ea90 86c0 928f 09bf 009b f0bb
00000270: a210 3dbb 0756 8dbc a777 3ec0 1d36 70bb
00000280: e1ec 52bd d3d2 19bd 83b0 a2c0 8613 3fc0
00000290: d7dd f9bc c00d deba a1a3 52c0 1c8b aabe
000002a0: bec5 81c0 81f6 34c0 3c9c c5c0 1092 84bb
000002b0: b70c e0bd b218 1fbf 635f d6bc 4720 1e40
000002c0: f33c 66c0 d151 e9bf 77e0 1bbf cb9c 19c0
000002d0: 7ab1 9ec0 1db2 16be 7967 80c0 edcc 07bb
000002e0: 043d 53c0 15ff 9dbc aaa2 acbf 0ce9 28bf
000002f0: 8d0c ebbe c8bd 98c0 814c a6bf 7f72 77bd
00000300: c1dc 81be 1693 61c0 6964 2cbf 20d1 23bf
00000310: a23c 69c0 8c42 21c0 85e7 d9bd a636 34c0
00000320: ea06 43c0 d4fa 94bb df60 2fbf 308e 20bc
00000330: 97e1 98c0 f047 bfbc 9868 2bbf 9297 98c0
00000340: a538 f7bb 9cc8 2dbf 6ace 0bc0 dab0 ecbe
00000350: 4e3b 9dc0 baa2 babc dd7b 37c0 4279 33bf
00000360: f1ae dfbe 9a49 2dbf b368 43c0 ced3 5abc
00000370: 84c7 04c0 10ed adbe 353f 47c0 64ab b2bf
00000380: 612d 19be 08cd 09bd 0ef5 0abf 8047 abbf
00000390: 55d8 eebf 4120 21bd e367 4ec0 8c21 09bd
000003a0: c9d9 49c0 80fa 45bc 29f9 31bf 5434 86c0
000003b0: 55d5 23bd 8585 83bf dd53 2cc0 d56e 89c0
000003c0: f692 c1be c613 2bbf e27c 50bd e587 44c0
000003d0: 6257 44c0 f6d3 65c0 4f22 4cbf 5dff b6ba
000003e0: b816 c1be 2abc 3abf 0c21 a4bf d100 b2bf
000003f0: 7d01 3aba f239 72bb ebd9 edbc 038c 88c0

camada2.weight f4 [1, 256]
1.7533174 -3.493924 0.004863481 0.053212177 0.044959217 -0.17752714 2.9384499 -1.6742476
-0.22357859 -0.07481228 -23.7724 -1.1705985 -1.7146522e-05 1.7567846 -5.6658597 -2.1726766
-0.001782052 0.26574475 0.06529484 -28.175995 -0.043164644 0.049853183 2.2765113e-05 0.0013882584
-2.7515435 -0.052521646 -2.721311 -0.03386477 -1.0517259 0.012943341 0.4362058 -0.1407853
0.01172965 1.2409322 2.6721495e-05 0.0015930083 2.0537822 -0.009898484 -28.136427 -0.0006378586
0.008373356 0.13752547 -3.2823749 0.0027795685 0.1926601 0.88620263 -25.966545 0.00021440274
-0.049190074 0.01562033 -0.0015095845 -33.65129 0.003906466 -3.6028693 0.001801789 0.0009916858
-27.864937 0.026471587 -2.3854375 -2.5748348 -2.8711667 -0.0006373647 0.00029610217 -28.761
-2.1721985 -0.02543174 -1.5197507 0.004470471 -0.011997856 -6.144689 -0.14510022 -34.932
1.5708743 -33.26085 0.002972196 0.0013349814 -0.00015033325 -0.08523466 -36.1621 -0.00093532476
0.0019191732 -0.75821656 -0.023007723 -27.263191 0.0014715656 -0.05170493 -0.020992354 -1.8575648
-0.10056723 18.168074 0.002716996 0.008714112 -0.6708672 -7.952357 -0.0043570343 2.0299874e-05
-4.0628033 -31.19677 23.504654 0.00042252944 -0.0011446106 -0.048476096 -0.0015222303 0.00014460566
0.0011599371 -0.0008920773 4.596272 0.00025190966 0.0009138991 0.016480867 0.00075955817 -0.113467224
-30.5123 1.5428766 -0.026295545 -0.007478132 -29.445848 0.0030263364 0.00015127496 -16.32852
-0.010204789 -6.0686865 0.229068 -0.10476741 -0.002129903 0.0010806996 -0.0022207831 -8.632526
-0.022688992 -0.00022850733 -0.03564171 -0.00013965386 -5.5794983 0.0023094094 -1.6971726 -9.198989e-05
-5.3925323e-05 0.0041654035 -0.01550442 0.022592502 -0.00027855 0.00041751284 0.034888405 -0.257031
0.0032413087 -36.310833 0.001987783 -0.060751773 0.9391787 0.0017427307 -43.306652 -1.9826378
-0.10217281 -39.43503 -0.13576365 0.00077688164 0.0007376235 0.00038499408 -4.344448 0.00014059481
-0.0021501963 8.10063e-05 34.378925 -2.877658 0.0016738254 -0.00011375001 -4.8980083 0.025263654
-27.91102 -3.0430894 24.899826 -0.0003568612 0.0069820737 -0.05304345 0.0016640099 -2.3647833
-8.914588 1.1728826 0.08177232 -0.6838109 13.948782 -0.007592198 -26.48255 0.000116480216
-4.433289 0.0031117988 -0.0453128 0.012837566 -0.025343051 14.647825 1.4850568 0.0040728836
-0.045216598 -17.480425 -0.16983654 0.023000136 -9.425834 -0.43813846 -0.007165076 -2.9985833
-3.740108 0.0004292633 0.0043196003 0.00034826776 -41.19374 0.0040871655 -0.3873835 -38.080425
0.0009946666 -0.0037885702 3.3638217 0.15190658 15.031074 0.0013474675 -1.459438 0.3090156
-0.09341369 0.025684759 -5.4191895 -0.0006669791 -0.017240608 0.033004776 -4.285947 -0.2737145
-0.0054979757 0.0053317286 0.046557672 1.707799 6.039051 0.004124466 -5.099384 -0.0012396298
-0.17172126 0.00043574374 0.047338784 -35.77196 -0.0037760176 -0.48652494 -2.2420433 8.721522
-0.06016144 -0.019905023 0.002959134 -3.547658 -3.0843537 -0.24128419 3.133277 0.00011071161
-0.0283809 -1.2270977 -0.014945494 2.2298849 5.0245628e-05 -0.00038755478 0.0027011016 -36.62837
00000000: b46c e03f 739c 5fc0 d65d 9f3b 03f5 593d
00000010: 2827 383d adc9 35be 900f 3c40 bf4d d6bf
00000020: c9f1 64be 2e37 99bd e02d bec1 2cd6 95bf
00000030: e0d5 8fb7 51de e03f b94e b5c0 220d 0bc0
00000040: be93 e9ba b20f 883e 4db9 853d 7068 e1c1
00000050: 69cd 30bd da32 4c3d b5f7 be37 39f6 b53a
00000060: 4a19 30c0 f020 57bd f629 2ec0 c9b5 0abd
00000070: f49e 86bf 4f10 543c 5e56 df3e 062a 10be
00000080: b82d 403c ded6 9e3f f927 e037 7dcc d03a
00000090: 2b71 0340 402d 22bc 6717 e1c1 f735 27ba
000000a0: 6730 093c 7ad3 0c3e 6e12 52c0 6c29 363b
000000b0: b048 453e 2dde 623f 7cbb cfc1 4cd1 6039
000000c0: 887b 49bd 6aec 7f3c 40dd c5ba ec9a 06c2
000000d0: d001 803b 6995 66c0 022a ec3a 74fb 813a
000000e0: 64eb dec1 f1da d83c 02ab 18c0 18ca 24c0
000000f0: 32c1 37c0 d214 27ba 293e 9b39 8716 e6c1
00000100: 4d05 0bc0 3956 d0bc 3187 c2bf 077d 923b
00000110: a892 44bc 4ba1 c4c0 2795 14be 5eba 0bc2
00000120: 6912 c93f 1c0b 05c2 2dc9 423b 8bfa ae3a
00000130: c6a2 1db9 828f aebd fea5 10c2 9530 75ba
00000140: c48c fb3a 7b1a 42bf b17a bcbc 041b dac1
00000150: 8ce1 c03a 8cc8 53bd 28f8 abbc afc4 edbf
00000160: 31f6 cdbd 3758 9141 a10f 323b a3c5 0e3c
00000170: f4bd 2bbf b579 fec0 74c5 8ebb a649 aa37
00000180: 7c02 82c0 fc92 f9c1 8809 bc41 f186 dd39
00000190: c206 96ba df8e 46bd 9385 c7ba 49a1 1739
000001a0: 0809 983a 4bda 69ba a914 9340 be12 8439
000001b0: bb92 6f3a e202 873c 161d 473a 8161 e8bd
000001c0: 3119 f4c1 fb7c c53f c169 d7bc 1e0b f5bb
000001d0: 1991 ebc1 8055 463b 909f 1e39 cfa0 82c1
000001e0: fd31 27bc ae32 c2c0 cd90 6a3e 4c90 d6bd
000001f0: d895 0bbb 43a6 8d3a 8f8a 11bb d41e 0ac1
00000200: 44de b9bc 789b 6fb9 0bfd 11bd 0c70 12b9
00000210: 408b b2c0 7659 173b f43c d9bf b2ea c0b8
00000220: e02d 62b8 f07d 883b 4006 7ebc e913 b93c
00000230: 590a 92b9 a0e5 da39 25e7 0e3d 9199 83be
00000240: 236c 543b 4b3e 11c2 7745 023b dad6 78bd
00000250: 046e 703f 576c e43a 033a 2dc2 13c7 fdbf
00000260: fa3f d1bd 79bd 1dc2 a005 0bbe a5a7 4b3a
00000270: 135d 413a 08d9 c939 b805 8bc0 a26c 1339
00000280: 4fea 0cbb ede1 a938 0584 0942 8c2b 38c0
00000290: 4364 db3a 128d eeb8 7cbc 9cc0 b9f5 ce3c
000002a0: c549 dfc1 fac1 42c0 d832 c741 1919 bbb9
000002b0: e1c9 e43b 1744 59bd e81a da3a 9c58 17c0
000002c0: 27a2 0ec1 0421 963f 3f78 a73d 3b0e 2fbf
000002d0: 362e 5f41 f9c7 f8bb 43dc d3c1 d746 f438
000002e0: 81dd 8dc0 52ef 4b3b ea99 39bd a854 523c
000002f0: 3b9c cfbc 7e5d 6a41 5716 be3f d375 853b
00000300: 0a35 39bd e9d7 8bc1 a1e9 2dbe c86a bc3c
00000310: 37d0 16c1 af53 e0be 04c9 eabb cae8 3fc0
00000320: ee5d 6fc0 bf0e e139 6f8b 8d3b b597 b639
00000330: 64c6 24c2 a1ed 853b 2157 c6be 5b52 18c2
00000340: 795f 823a a949 78bb db48 5740 668d 1b3e
00000350: 477f 7041 829d b03a ddce babf 4b37 9e3e
00000360: ad4f bfbd d868 d23c 006a adc0 36d8 2eba
00000370: 2d3c 8dbc 0430 073d 7a26 89c0 4f24 8cbe
00000380: 5d28 b4bb c8b5 ae3b 42b3 3e3d 2899 da3f
00000390: e83f c140 8726 873b 272e a3c0 137b a2ba
000003a0: b3d7 2fbe 8974 e439 50e6 413d 7d16 0fc2
000003b0: 1077 77bb cc19 f9be a37d 0fc0 5b8b 0b41
000003c0: d86b 76bd dc0f a3bc 08ee 413b d40c 63c0
000003d0: 0d66 45c0 3413 77be 9c87 4840 d82d e838
000003e0: 107f e8bc 8a11 9dbf f2dd 74bc 6fb6 0e40
000003f0: d5be 5238 b930 cbb9 f704 313b 7383 12c2
