DeepLearning/experimentos/Sontag 2 (20, 20).pth (torch, 5133 bytes, 5 tensors)

camada1.weight f4 [20, 2]
8.865212 -1.7639235 6.8351274 -5.770629 7.5915995 3.8703735 -9.544198 0.29825065
1.2126988 0.61064684 3.3745043 6.6295285 0.13162531 6.289726 0.19825101 12.203587
7.4696074 -4.440503 1.2576485 0.5600817 -0.13344951 -7.783336 4.1748652 -8.6785755
5.5773153 -0.5058745 1.3213458 0.5268793 1.1391311 0.6575041 0.08818411 -10.139192
1.2180909 0.5865984 8.849312 -4.7716923 -3.0857813 6.242738 -3.6081522 -4.684163
00000000: e9d7 0d41 3fc8 e1bf 5db9 da40 fea8 b8c0
00000010: 62ee f240 33b4 7740 09b5 18c1 4fb4 983e
00000020: b739 9b3f 5a53 1c3f e1f7 5740 1925 d440
00000030: c9c8 063e 6f45 c940 5002 4b3e e441 4341
00000040: 0607 ef40 9a18 8ec0 a0fa a03f 8461 0f3f
00000050: fda6 08be 1711 f9c0 7f98 8540 72db 0ac1
00000060: 5e79 b240 fe80 01bf dc21 a93f 90e1 063f
00000070: 0ccf 913f 3052 283f df99 b43d 213a 22c1
00000080: 67ea 9b3f 502b 163f c896 0d41 b4b1 98c0
00000090: 717d 45c0 82c4 c740 f7eb 66c0 aae4 95c0

camada1.bias f4 [20]
-5.378221 -2.3294759 -4.3902006 -5.5365276 -14.405099 -4.114329 -6.456675 -9.734079
4.32512 -14.850726 -7.8198113 -5.7061524 6.119796 -15.378703 -13.707785 -7.837903
-15.095702 -4.680916 -3.6213942 -3.3050501
00000000: 631a acc0 2216 15c0 867c 8cc0 3c2b b1c0
00000010: 497b 66c1 95a8 83c0 159d cec0 cabe 1bc1
00000020: 6267 8a40 939c 6dc1 e53b fac0 cd98 b6c0
00000030: 5ed5 c340 2b0f 76c1 1653 5bc1 1ad0 fac0
00000040: ff87 71c1 10ca 95c0 ecc4 67c0 f185 53c0

camada2.weight f4 [20, 20]
-5.7693825 4.968283 1.8406157 -5.9657197 1.9501995 10.765019 4.1734395 2.3755684
3.5635054 2.0254526 -4.9569373 -4.8728714 4.373929 2.3213387 2.5312505 -17.234024
1.9191812 -6.808842 -3.3038983 -5.5359025 8.073509 -0.19204147 0.2223876 -4.7853293
-2.1439998 0.39582548 -4.622182 6.946143 -3.0788944 -2.0036833 -5.3530426 -9.633485
-1.4362601 -1.7978826 -1.6888226 -1.8517082 -2.1149485 3.0686185 -4.151376 -6.0555806
3.4602585 0.9041138 4.3891454 0.5761109 0.27068686 4.50563 6.1393795 -6.655006
-5.2734165 0.014338084 8.351673 1.1092316 -4.0113826 0.054755647 0.26362386 -4.7552533
0.22067164 1.9064704 3.0743637 6.4685493 6.2574883 -0.431765 5.474333 -5.4094167
-0.54842746 5.245503 2.8907554 -6.3644943 -4.629407 -0.67445874 9.773631 -3.8655477
-4.2847176 -0.39814395 -0.91367483 0.71134937 -0.61398685 1.7211441 0.9577429 7.405222
4.0627313 -1.1472744 5.5090604 -2.4635088 -0.285528 7.987298 3.9101632 -4.753749
-5.196686 -0.016493356 8.231661 1.002798 -4.163119 0.0061252136 0.008239798 -3.5846245
-0.20761359 1.8570635 4.893249 8.209179 -0.73852855 -4.414624 3.6227016 -7.517216
0.6668902 5.309604 4.56634 -9.433117 -0.4537975 0.8608868 1.0558598 -7.4404807
-1.3492681 1.0377069 0.8328792 -2.1064863 0.88819265 -9.307906 3.6881895 9.054872
-1.352312 0.61478114 3.54334 2.0930634 -0.36695713 2.9118223 9.475158 -5.569216
-4.176473 -0.4443556 -1.2529473 -2.528162 -4.0647573 -0.24487235 -0.23320422 -5.512508
-0.5034136 3.6519814 2.4547997 9.879258 -3.1481514 0.6604946 -6.6110077 0.74312943
0.41890582 -4.896163 -4.4101458 2.570822 5.3062434 0.23920935 -9.825295 -2.3741362
3.8493583 0.4391792 0.1413343 4.204344 0.38239583 -1.1967357 -7.827157 -6.305495
-2.2315419 -0.99952763 3.509331 0.18207422 -0.7047764 2.1666927 6.8097553 -6.462556
-4.966308 -0.43901402 0.4174438 -1.4237567 -4.420065 -0.83150107 -0.745724 -4.9483004
-0.7107487 0.8416086 3.727091 9.080215 -7.7444196 3.5423565 -5.140699 -3.2342591
2.6023223 -4.1432652 -1.0700619 -16.326181 6.2790275 2.7109702 -4.541423 -4.661546
2.9079194 3.0513964 2.971353 -17.016191 2.4961073 -3.7065017 -2.6607428 -9.233663
8.798428 -5.9359756 2.1065495 -3.2159343 -0.7605547 0.9915164 -6.614691 0.5131695
-1.0224837 -0.7501784 -2.899374 -3.658491 0.65364754 -0.55996567 -0.3980693 -0.2495894
-0.6588688 -8.806361 -5.047676 -2.3964674 3.2648797 0.8837733 1.0043185 -2.3676314
-0.74130404 -5.0207815 -5.64631 7.302495 3.759034 -0.71278775 -0.3173867 -2.4405365
2.7180798 -0.33200863 -0.6921789 7.0236254 -0.45785174 -0.29028392 -4.8203607 -5.5401034
3.2161233 0.7417186 5.083754 0.8201263 0.17317036 4.416197 6.767014 -6.262077
-5.6233463 0.0665036 9.642687 1.5779542 -3.949911 0.123584494 0.18017016 -4.398063
00000000: c89e b8c0 2dfc 9e40 4c99 eb3f 2de7 bec0
00000010: 23a0 f93f 853d 2c41 d18c 8540 5009 1840
00000020: 7910 6440 04a1 0140 3b9f 9ec0 90ee 9bc0
00000030: 3af7 8b40 d090 1440 0200 2240 48df 89c1
00000040: bba7 f53f 09e2 d9c0 1273 53c0 1d26 b1c0
00000050: 182d 0141 85a6 44be 93b9 633e 6b21 99c0
00000060: 4b37 09c0 a3a9 ca3e eae8 93c0 ce46 de40
00000070: 9b0c 45c0 593c 00c0 204c abc0 c122 1ac1
00000080: 5fd7 b7bf 0421 e6bf 572b d8bf c604 edbf
00000090: 515b 07c0 3f64 4440 12d8 84c0 51c7 c1c0
000000a0: e074 5d40 0174 673f e173 8c40 017c 133f
000000b0: 7897 8a3e 1f2e 9040 cc75 c440 cff5 d4c0
000000c0: d4bf a8c0 48ea 6a3c 74a0 0541 4dfb 8d3f
000000d0: 3f5d 80c0 7547 603d b5f9 863e 092b 98c0
000000e0: bff7 613e 3907 f43f 60c2 4440 5bfe ce40
000000f0: 583d c840 4d10 ddbe bc2d af40 f119 adc0
00000100: be65 0cbf 29db a740 2302 3940 f0a9 cbc0
00000110: 1a24 94c0 54a9 2cbf cb60 1c41 2265 77c0
00000120: 681c 89c0 86d9 cbbe 98e6 69bf fe1a 363f
00000130: 3e2e 1dbf 734e dc3f a42e 753f 94f7 ec40
00000140: e501 8240 e3d9 92bf 394a b040 21aa 1dc0
00000150: ba30 92be f297 ff40 1d40 7a40 b61e 98c0
00000160: 404b a6c0 131d 87bc e2b4 0341 af5b 803f
00000170: 4538 85c0 04b6 c83b 3800 073c 7d6a 65c0
00000180: a898 54be 42b4 ed3f 7f95 9c40 cc58 0341
00000190: 3510 3dbf 9a44 8dc0 58da 6740 098d f0c0
000001a0: 51b9 2a3f 47e8 a940 751f 9240 0cee 16c1
000001b0: 2558 e8be 1463 5c3f 6a26 873f 6b18 eec0
000001c0: d1b4 acbf 94d3 843f 9237 553f acd0 06c0
000001d0: 9860 633f 2fed 14c1 4c0b 6c40 c1e0 1041
000001e0: 8f18 adbf 4c62 1d3f 15c6 6240 c0f4 0540
000001f0: cee1 bbbe 4c5b 3a40 3f9a 1741 0437 b2c0
00000200: aba5 85c0 9482 e3be 9460 a0bf 68cd 21c0
00000210: 7e12 82c0 d1bf 7abe 16cd 6ebe 7766 b0c0
00000220: b7df 00bf 10ba 6940 701b 1d40 7111 1e41
00000230: 507b 49c0 2d16 293f 608d d3c0 bb3d 3e3f
00000240: d37a d63e 5ead 9cc0 ea1f 8dc0 5988 2440
00000250: bfcc a940 4cf3 743e 6934 1dc1 d9f1 17c0
00000260: e35b 7640 19dc e03e f0b9 103e fc89 8640
00000270: 63c9 c33e a32e 99bf 1278 fac0 9dc6 c9c0
00000280: 95d1 0ec0 0be1 7fbf e198 6040 aa71 3a3e
00000290: 3a6c 34bf 18ab 0a40 84e9 d940 42cd cec0
000002a0: ffeb 9ec0 72c6 e0be 32bb d53e a93d b6bf
000002b0: 2c71 8dc0 41dd 54bf c5e7 3ebf 7a58 9ec0
000002c0: a0f3 35bf a973 573f a988 6e40 9048 1141
000002d0: 49d2 f7c0 f8b5 6240 9b80 a4c0 1afe 4ec0
000002e0: 738c 2640 a195 84c0 caf7 88bf 059c 82c1
000002f0: cbed c840 8980 2d40 5653 91c0 632b 95c0
00000300: 5a1b 3a40 144a 4340 a62a 3e40 2921 88c1
00000310: 39c0 1f40 5337 6dc0 9c49 2ac0 15bd 13c1
00000320: 5cc6 0c41 83f3 bdc0 b5d1 0640 ded1 4dc0
00000330: b6b3 42bf 05d4 7d3f 8cab d3c0 145f 033f
00000340: bfe0 82bf b10b 40bf 588f 39c0 b724 6ac0
00000350: 7255 273f e959 0fbf bdcf cbbe 5d94 7fbe
00000360: a0ab 28bf dbe6 0cc1 9086 a1c0 b95f 19c0
00000370: caf3 5040 f83e 623f 828d 803f 4687 17c0
00000380: 1ac6 3dbf 3eaa a0c0 92ae b4c0 0aae e940
00000390: 0394 7040 4279 36bf 8280 a2be c031 1cc0
000003a0: 05f5 2d40 09fd a9be a332 31bf 8ac1 e040
000003b0: 8b6b eabe 18a0 94be 6540 9ac0 8748 b1c0
000003c0: f7d4 4d40 45e1 3d3f 1dae a240 ccf3 513f
000003d0: 9253 313e 7c51 8d40 618b d840 ef62 c8c0
000003e0: 74f2 b3c0 0a33 883d 7248 1a41 67fa c93f
000003f0: 58cb 7cc0 de19 fd3d 877e 383e efbc 8cc0

camada2.bias f4 [20]
1.6747571 -2.6751227 -0.5229711 -1.2090851 -0.5300354 0.5280019 -0.70355797 0.7148779
-1.2497576 2.8477979 -0.6854128 -0.057564013 -0.44831315 2.2479808 3.5737958 -1.525873
2.3382182 -0.23342729 4.2160077 -2.693118
00000000: 715e d63f 3635 2bc0 6fe1 05bf 4dc3 9abf
00000010: 66b0 07bf 222b 073f 601c 34bf 3d02 373f
00000020: 0ff8 9fbf 5242 3640 3777 2fbf 3ec8 6bbd
00000030: 4d89 e5be ebde 0f40 12b9 6440 ce4f c3bf
00000040: 5ea5 1540 9007 6fbe 89e9 8640 0c5c 2cc0

camada3.weight f4 [1, 20]
9.057512 4.4133167 -4.202721 -5.9005885 -7.250752 -5.642205 -5.6353326 8.007974
-4.088115 20.37575 6.490902 4.2070084 -5.682409 -15.45141 -19.31742 -6.8504815
-33.402782 -5.405368 11.387613 -1.5425706
00000000: 92eb 1041 e439 8d40 b17c 86c0 9fd1 bcc0
00000010: 2906 e8c0 f28c b4c0 a554 b4c0 a920 0041
00000020: d7d1 82c0 8901 a341 78b5 cf40 d09f 8640
00000030: 4bd6 b5c0 fa38 77c1 138a 9ac1 2537 dbc0
00000040: 739c 05c2 c6f8 acc0 aa33 3641 f472 c5bf
