DeepLearning/experimentos/Sontag 3 (7, 7, 7).pth (torch, 4199 bytes, 7 tensors)

camada1.weight f4 [7, 2]
0.30029622 10.038423 4.943108 8.772821 -1.2107036 3.7429476 2.821026 5.829873
4.4252367 2.1532958 -3.5406137 12.66508 -4.110375 2.3806603
00000000: 6dc0 993e 619d 2041 f12d 9e40 7a5d 0c41
00000010: 56f8 9abf 748c 6f40 b18b 3440 528e ba40
00000020: 8a9b 8d40 99cf 0940 6a99 62c0 2ba4 4a41
00000030: 3188 83c0 bd5c 1840

camada1.bias f4 [7]
-9.600341 2.5773087 2.160399 3.526551 -1.9599475 -8.127612 -2.543156
00000000: ff9a 19c1 a0f2 2440 fa43 0a40 03b3 6140
00000010: 8fdf fabf b30a 02c1 11c3 22c0

camada2.weight f4 [7, 7]
-13.483861 -3.6431966 10.087984 1.0648617 -1.8382307 -0.33921412 -2.500429 9.894183
-10.161533 6.3470907 -1.3601273 -10.470318 -5.976668 4.665096 7.766209 1.6437976
-3.900586 -5.113091 8.734041 5.6228495 8.149491 -3.085284 -2.0844173 -5.384059
-3.6603658 6.452961 -4.2605696 11.111691 7.569918 -2.852738 0.20034638 -6.96643
7.1687965 -4.1672378 8.213562 -0.8418023 0.02592116 -0.0916216 7.607166 -9.383387
1.6884501 -9.826934 11.63875 -6.307185 0.6942466 -2.338246 8.3437195 15.603016
9.370291
00000000: e5bd 57c1 222a 69c0 6268 2141 634d 883f
00000010: 254b ebbf 79ad adbe 0707 20c0 934e 1e41
00000020: a495 22c1 5e1b cb40 a718 aebf 6c86 27c1
00000030: dd40 bfc0 7748 9540 c984 f840 f667 d23f
00000040: 33a3 79c0 719e a3c0 a2be 0b41 62ee b340
00000050: 5164 0241 4b75 45c0 1867 05c0 364a acc0
00000060: 6f43 6ac0 a87e ce40 9656 88c0 7dc9 3141
00000070: c53c f240 4293 36c0 9a27 4d3e ffec dec0
00000080: c866 e540 035a 85c0 c06a 0341 5b80 57bf
00000090: 9d58 d43c 1ba4 bbbd e76d f340 5a22 16c1
000000a0: 221f d83f 1f3b 1dc1 5238 3a41 76d4 c9c0
000000b0: 25ba 313f d3a5 15c0 e07f 0541 f4a5 7941
000000c0: b6ec 1541

camada2.bias f4 [7]
-2.8051074 1.1695691 -2.4267228 4.6594553 -0.0061455416 0.23126413 -0.94695735
00000000: e186 33c0 71b4 953f 6d4f 1bc0 421a 9540
00000010: 8a60 c9bb 81d0 6c3e cc6b 72bf

camada3.weight f4 [7, 7]
-5.272424 -21.17612 -2.6040611 0.5844537 -11.818843 -0.048886172 6.0334525 -10.085096
-6.1340904 15.296119 5.3769155 5.17169 -6.207835 -0.26330933 -14.450541 -0.80778193
-4.4123135 9.828293 -1.0289183 7.5662413 2.3439138 -8.5745325 -3.5294962 -1.1994959
13.714058 12.824584 -5.60597 -0.90935075 -0.7074751 5.196404 -8.326159 -2.894918
-6.7771726 5.371495 -13.196442 2.1608336 3.2485461 0.38773808 6.4999146 11.417997
-9.082981 -1.5564554 -13.336676 -2.095043 -2.4561052 2.811285 9.863499 -2.4036207
6.358059
00000000: b3b7 a8c0 b268 a9c1 f0a8 26c0 c29e 153f
00000010: fb19 3dc1 de3c 48bd 0b12 c140 8e5c 21c1
00000020: 784a c4c0 e7bc 7441 b10f ac40 7c7e a540
00000030: 96a6 c6c0 7bd0 86be 6a35 67c1 ccca 4ebf
00000040: ac31 8dc0 b040 1d41 98b3 83bf a61e f240
00000050: af02 1640 4931 09c1 44e3 61c0 1589 99bf
00000060: c86c 5b41 7f31 4d41 1b64 b3c0 36cb 68bf
00000070: 171d 35bf f148 a640 f237 05c1 5646 39c0
00000080: 99de d8c0 49e3 ab40 a024 53c1 194b 0a40
00000090: 2ee8 4f40 9b85 c63e 4dff cf40 1eb0 3641
000000a0: e453 11c1 ee39 c7bf 0663 55c1 2f15 06c0
000000b0: d430 1dc0 18ec 3340 e4d0 1d41 ecd4 19c0
000000c0: 3875 cb40

camada3.bias f4 [7]
-0.1458459 -0.03917018 1.9488071 -1.2517419 1.8413321 -3.3380477 -1.2797705
00000000: a158 15be e970 20bd 8372 f93f 1439 a0bf
00000010: c5b0 eb3f 93a2 55c0 85cf a3bf

camada4.weight f4 [1, 7]
11.497836 -18.193499 12.672137 -15.624498 -10.467008 -5.2340393 14.504647
00000000: 23f7 3741 498c 91c1 13c1 4a41 f2fd 79c1
00000010: dd78 27c1 407d a7c0 0913 6841
