DeepLearning/experimentos/Sontag 1 (32).pth (torch, 3097 bytes, 3 tensors)

camada1.weight f4 [32, 2]
0	0x3fbc0aa5	1.4690748
1	0x4162d138	14.176079
2	0x40e9be6a	7.304494
3	0x3f9725f5	1.1808459
4	0xbe06430d	-0.13111515
5	0x41654edf	14.331756
6	0xbf97b237	-1.1851262
7	0x407827d4	3.877431
8	0xbf98d3d6	-1.1939647
9	0x40942110	4.629036
10	0x40eb152f	7.346336
11	0x3f039e87	0.5141377
12	0xbf98d227	-1.1939133
13	0x4094cc88	4.649967
14	0xc182a877	-16.332258
15	0x40b18766	5.547778
16	0xbf97d42d	-1.1861626
17	0x4085ac71	4.1773
18	0xc0a52692	-5.1609583
19	0x41613bc8	14.077095
20	0xbf98b410	-1.1929951
21	0x40954599	4.664746
22	0x3f1dc5a2	0.6162969
23	0x41936f03	18.429205
24	0x4101c571	8.110703
25	0x40d63ee8	6.695179
26	0xbdd45bed	-0.10369096
27	0xc1572711	-13.447038
28	0xbf99ccd4	-1.2015634
29	0x4096c283	4.711244
30	0x40f0d900	7.5264893
31	0x40e86413	7.262216
32	0xc12c6c2d	-10.77641
33	0xc020ac98	-2.5105343
34	0xc11a55d1	-9.645951
35	0xc137daba	-11.4909
36	0xbf8ef91a	-1.116977
37	0x4044d98e	3.0757785
38	0xbf97e699	-1.1867248
39	0x408ad19c	4.338087
40	0x41084faf	8.519454
41	0x3f27fdfb	0.6562192
42	0xc13bc3be	-11.735289
43	0x3eaccce7	0.33750078
44	0x417a97f9	15.662103
45	0x40925923	4.573381
46	0xbf9a5441	-1.2056962
47	0x4097bf99	4.7421384
48	0xbf98282d	-1.1887261
49	0x408f4ee9	4.4783826
50	0x410ac2d3	8.6725645
51	0x3f2c3813	0.6727306
52	0x4081ceeb	4.0565085
53	0xc0ea7a51	-7.327431
54	0x40a34ad3	5.102884
55	0x415872ea	13.528055
56	0xbf994c07	-1.1976327
57	0x4097b8c4	4.7413044
58	0xbf9d28b9	-1.2278053
59	0x409bb702	4.86609
60	0xbf980a52	-1.187815
61	0x408d8e93	4.423654
62	0x3f36dcf7	0.71430916
63	0xc19dd2c8	-19.72792

camada1.bias f4 [32]
0	0xc143d2df	-12.238982
1	0x4046bc27	3.105234
2	0xc167e357	-14.493003
3	0xc0d5ae16	-6.6775007
4	0xc0f57182	-7.670106
5	0xc1093e36	-8.577688
6	0xc0f63bc4	-7.6947956
7	0xc13cbb09	-11.795663
8	0xc0e2cfa6	-7.0878477
9	0x4126d949	10.428048
10	0xc0f6c648	-7.7117043
11	0xc17551b1	-15.332444
12	0xc11b594d	-9.709302
13	0xc159617d	-13.586301
14	0xc0f8cf54	-7.7753086
15	0xc0a20926	-5.0636168
16	0xc1440bb7	-12.25286
17	0xc12a2c49	-10.635812
18	0xc0ac1eae	-5.378745
19	0xc0e9914e	-7.2989874
20	0xc11bcbc0	-9.737244
21	0xc1469c36	-12.413137
22	0xc133155c	-11.192715
23	0xc0fa1668	-7.815235
24	0xc0ef5938	-7.479641
25	0xc11e4841	-9.89264
26	0xc03a88f6	-2.9146094
27	0xc125ddc2	-10.36664
28	0xc0f9d273	-7.8069396
29	0xc0ff639b	-7.980909
30	0xc0ed1b41	-7.409577
31	0xc18511f9	-16.633776

camada2.weight f4 [1, 32]
0	0x414f05fe	12.938963
1	0xc13f5971	-11.959336
2	0xc23efd46	-47.747337
3	0x40b16a2f	5.544212
4	0x40ca26c5	6.3172326
5	0xc0f94fcd	-7.7909913
6	0x40cf6c6c	6.481985
7	0xc123f890	-10.248184
8	0x40be79be	5.952361
9	0x40ed591d	7.417128
10	0x40d27059	6.5762143
11	0x41b7b824	22.964912
12	0x4195d06a	18.726765
13	0xc23cf02a	-47.234535
14	0x40ce4d7e	6.4469595
15	0x416efcf4	14.936756
16	0x409c0f8e	4.876899
17	0xc143781a	-12.216822
18	0x409de017	4.9336047
19	0x40c25782	6.073182
20	0xc1689ac7	-14.537787
21	0xc1c78119	-24.938036
22	0xc170a8ee	-15.041243
23	0x40d0cd0a	6.525029
24	0x40c3fab8	6.1243553
25	0xc17705e4	-15.438938
26	0x41150650	9.314041
27	0xc1cc10fd	-25.508295
28	0x40d9c970	6.8058395
29	0x40c7aeee	6.2401037
30	0x40c39140	6.1114807
31	0x41f67e72	30.81174
