DeepLearning/experimentos/Sontag 3 (15, 15, 15).pth (torch, 5969 bytes, 7 tensors)

camada1.weight f4 [15, 2]
00000000: bab1 1c3e baaa 1441 4785 e3c0 64de 5f40
00000010: 472f 6240 adff d740 634e e03e 8dc9 efc0
00000020: 3616 4940 a5e8 fcc0 6f7a fd40 4951 6640
00000030: 8a78 143f 0ccc 6640 37db 5a3f 20aa ed40
00000040: 07c4 e740 daa8 a2bf e7c2 8d3f 8f2d 8ec0
00000050: 1d82 c540 94f6 99be b05c c240 1126 3b40
00000060: 1bf8 dcc0 e700 9440 3898 db3d d532 ca40
00000070: ad25 3ec0 61ad b8c0
0.15302172 9.291681 -7.110019 3.4979486 3.5341356 6.7499604 0.43809804 -7.4933534
3.1419806 -7.903399 7.9211955 3.5987113 0.5799643 3.606204 0.85490745 7.427017
7.242679 -1.270778 1.1075104 -4.4430614 6.172133 -0.30070937 6.0738144 2.9241984
-6.9052863 4.62511 0.10722393 6.318705 -2.9710495 -5.7711644

camada1.bias f4 [15]
00000000: f29d e8c0 6d59 84c0 c67d 7ec0 0623 cec0
00000010: 793c 7940 54b3 91c0 49b0 c6c1 5f51 e5c0
00000020: 3d2b 86c0 f598 6740 480d c5c0 6eb5 5140
00000030: b752 8a40 4b6b c9c0 4468 51c0
-7.2692804 -4.135916 -3.9764266 -6.4417753 3.894316 -4.5531406 -24.836077 -7.166183
-4.192778 3.6187108 -6.1578712 3.2766986 4.322597 -6.2943473 -3.2719889

camada2.weight f4 [15, 15]
00000000: 0603 47c1 368f 30c1 b371 29c1 8550 69c1
00000010: 0507 07c1 af7d 17c1 6bcc 13c1 48c0 43c1
00000020: db8b 27c1 05ce 18c1 57a1 4cc1 a46f 0dc1
00000030: 72e4 a7c0 f2d0 64c1 0649 4cc0 cae6 0341
00000040: a0c2 ff40 f0d0 2041 3878 4e41 aa9b 56c0
00000050: c9c6 d13e 7114 a23d ea1d f440 b6fe 2fbf
00000060: 89c9 1fc0 6897 e93f 1456 eabf 2f1a afbf
00000070: 7ff5 a740 396b 2240 8af2 afc0 8e16 d2c0
00000080: 43eb 1cbd 64df 9bc0 1c37 0cc0 8ed4 2140
00000090: 999b cebf 1de0 b3c0 d179 0840 e771 cabf
000000a0: 3098 0d40 a77c ccbf 654b 87c1 bf91 61c0
000000b0: 1d70 4fc0 d471 6ec1 e1bf b5c1 fb9b 84c1
000000c0: dbe6 91c1 d85d 91c1 cb7c 68c1 2aef 72c1
000000d0: 0f3b 7dc1 baf4 12c1 ed48 9fc1 8947 5fc1
000000e0: 5b4e 85c1 83d8 b2c1 d9c5 97c1 89e2 9fc1
000000f0: 56bf 3c40 a351 2941 c9f2 e440 fc5f 2241
00000100: 81c5 7dbf 5646 f140 9b96 363f 8b5c 6640
00000110: 6077 eb40 a6aa 13bf 3368 4240 f576 80c0
00000120: 49d6 52c0 64e2 d43f 2fa2 1d3f 9e96 9fbf
00000130: 55d1 d840 7688 9a3f 78db 81c0 88e2 31c1
00000140: 6337 48bf 563a 89bf 9c46 63bf 087f 8cc0
00000150: d011 eec0 0b07 78c0 d56b 10c1 2212 f6bf
00000160: 31ec 8040 c4a8 953f efa2 08c0 edaa 2740
00000170: 9bf5 de40 f761 8840 fe9f cdc0 75ef 70bf
00000180: 68f3 43c0 5ae3 7c3f 513d 833f 032b 9fc0
00000190: 2802 82bf 30e8 09c0 60f3 92c0 48e6 ca40
000001a0: ea8d 0140 017e 86c0 0179 9ac0 af03 c43f
000001b0: 9970 83c1 8096 973e df5a fc3f 8d7e 623f
000001c0: ab74 95c0 cad1 90c0 7070 353e eb11 82c0
000001d0: 51dc 8740 2e0d d840 ef52 21bf 4570 cec0
000001e0: 9cfd 0041 612d 0241 648b 8640 2690 f0c0
000001f0: 337f 75c0 9d68 c740 6495 92be 7610 c640
00000200: 1695 ca40 1fd5 18c0 439b 2a40 76a1 81c0
00000210: 5645 18c0 c4be 2140 cda0 2241 370a 853f
00000220: 7dd5 6c3f 8ec2 0640 3e60 3441 eae6 4cc0
00000230: a7d4 50bf 8987 86bf ba07 8040 ea2d 2f3f
00000240: fbf0 50c0 7d24 cc3f 625c 81c0 6c8a 5fc0
00000250: 91ed 1341 e53c 5b40 de99 d2c0 788a e6bf
00000260: 2701 bc3f 49fa a7c1 f424 d7bd 0f06 db3f
00000270: 49fa 683f 2a81 9fc0 2926 b7bf 9bef 2cbf
00000280: 3aad c7bf f964 d33d 14e7 d440 6a22 dcc0
00000290: 70e2 b3c0 3a68 7d40 712a dfc0 e9bb babf
000002a0: ccec d2bf 4180 7dbd 7280 f1c0 ad65 54bf
000002b0: 4caa 7a40 4b53 e4bf 381e af3e f8ea 06c0
000002c0: e9ad 1041 c7d4 e6bf 1588 203f 4e6f c4c0
000002d0: ed89 d4c0 cd6a 9abf 7555 acbf 3a1f 11c1
000002e0: 7795 87be f8a7 c0bf c866 533f 9473 82c0
000002f0: c2a3 bdbf 494b 22be aeda efbe 8712 c7c0
00000300: 992b f4be 303e b4bf 0a31 f840 f38a 0a41
00000310: 625d ae3e 864b 5040 0f9b abc0 80e9 b1c0
00000320: 4e32 7c3e 24d1 e6bf c689 e540 6776 333f
00000330: ef9b adc0 8ee5 e83e 53ea 68bf 9dfa 34c0
00000340: f638 be40 d0bf e4c0 570e 49c0 871a a5c0
00000350: 0bb8 a140 9dec b8c0 6e45 f2be 271c b940
00000360: 35da dbbe 902a 88bf a366 3e40 e904 c7be
00000370: a358 ca40 9d82 22bf 48d4 39c1 9d45 21bf
00000380: 547e a5c0
-12.438238 -11.034964 -10.590259 -14.582158 -8.439214 -9.468184 -9.237407 -12.234444
-10.471644 -9.550298 -12.78939 -8.839756 -5.2466364 -14.301012 -3.191957 8.243845
7.992508 10.05101 12.90435 -3.353251 0.40971974 0.07914055 7.6286516 -0.68748033
-2.4966757 1.824933 -1.8307519 -1.3679866 5.248718 2.5377944 -5.498357 -6.5652533
-0.0383103 -4.8710194 -2.1908636 2.5285983 -1.6141235 -5.6211076 2.132435 -1.581601
2.2124138 -1.5975541 -16.911814 -3.5245206 -3.2412179 -14.90279 -22.71869 -16.576162
-18.237722 -18.170822 -14.530467 -15.18339 -15.826919 -9.184748 -19.910608 -13.954965
-16.66326 -22.355719 -18.971605 -19.985613 2.9491782 10.582431 7.154637 10.148434
-0.9912949 7.539836 0.71323556 3.5993984 7.358322 -0.57682264 3.0376098 -4.014521
-3.294329 1.6631589 0.615756 -1.246784 6.775553 1.2072895 -4.0580406 -11.1178055
-0.78209513 -1.0720928 -0.88779616 -4.3905067 -7.4396744 -3.8754299 -9.026326 -1.9224284
4.028832 1.1692128 -2.1349447 2.6198075 6.967481 4.2619586 -6.4257803 -0.9411538
-3.0617313 0.9878441 1.0253087 -4.9740005 -1.0156908 -2.1547966 -4.592209 6.3406105
2.0242867 -4.2028813 -4.827271 1.5313624 -16.42998 0.2960701 1.9715232 0.8847435
-4.6704917 -4.525609 0.17718673 -4.0646873 4.245644 6.751609 -0.6301717 -6.451205
8.061916 8.136079 4.2045155 -7.5175962 -3.8358886 6.23152 -0.286296 6.1895094
6.330699 -2.3880079 2.6657264 -4.0509596 -2.379232 2.5272684 10.164258 1.0393742
0.9251326 2.1056247 11.273497 -3.2015939 -0.8157448 -1.0510112 4.000943 0.68429434
-3.2647083 1.5948635 -4.042527 -3.4928236 9.2455 3.4255917 -6.5812826 -1.8011007
1.4687852 -20.99721 -0.10505095 1.7111224 0.91006905 -4.984517 -1.430852 -0.6755311
-1.559974 0.103219934 6.653208 -6.879201 -5.6213913 3.9594865 -6.973931 -1.4588596
-1.6478515 -0.06188989 -7.5469294 -0.82967645 3.916644 -1.7837919 0.34202743 -2.1080914
9.042459 -1.8033684 0.62707645 -6.138587 -6.6418366 -1.2063843 -1.346358 -9.070124
-0.2648122 -1.505126 0.82578707 -4.0766087 -1.48156 -0.15849032 -0.46846527 -6.2210116
-0.47689512 -1.4081478 7.755986 8.658923 0.3405562 3.2546096 -5.362678 -5.5597534
0.24628565 -1.8032575 7.173068 0.7010254 -5.425285 0.45487636 -0.9098255 -2.8277962
5.9444532 -7.1484146 -3.1415002 -5.159488 5.053716 -5.7788835 -0.47318596 5.7846866
-0.42939916 -1.0637989 2.9750144 -0.38870934 6.32332 -0.6348055 -11.6143265 -0.62996846
-5.171671

camada2.bias f4 [15]
00000000: 035f 2cc1 1b0f 30bf fb52 19c0 3a3c b3c1
00000010: 7216 01be 2f05 49c0 f08f 97c0 e531 a6bd
00000020: 503a edbf cd4c 09c0 84ba 93be dea5 5e3e
00000030: cf31 07bf 5b8f 42c0 13cd e6bf
-10.773196 -0.6877305 -2.3956897 -22.404408 -0.12606218 -3.1409414 -4.7363205 -0.081149854
-1.853342 -2.1453125 -0.28853238 0.21742961 -0.52810377 -3.0399997 -1.8031334

camada3.weight f4 [15, 15]
00000000: e801 11c0 63c7 fd3d 930b fd3f 1bbb 0ebf
00000010: 4f38 92be 3915 0240 08f1 1a3f 231e bcbf
00000020: e763 6b40 d12b 3041 cf51 d4bf 6025 7cc0
00000030: 6904 c9c0 5499 b0bf 024a 8c40 0fa8 5040
00000040: 12fc fbc0 efa2 513e 4b87 ed3f ed8f 99c0
00000050: 12bb f2be 8cd7 99bf 14ee 64c0 f9d1 b240
00000060: bb9c 5ec1 503c ddbf d44d 9340 17db e940
00000070: 8f0e c93f 041b b440 d9a8 3dc0 e5cb a03d
00000080: ac1c fbbe d3c0 9fbf fa44 f3be 4838 813f
00000090: a7e4 1740 ee37 4f40 98a5 fe40 7959 9c40
000000a0: c490 bf3f a176 90c0 e9c4 fec0 82f1 31c0
000000b0: 88a5 c940 c2ab 813f 0822 d9bf 7880 ea40
000000c0: 1ed2 d53f b2ad 8440 e3a1 4940 a708 b240
000000d0: ad6d 02c0 58f2 edc0 1831 2741 b725 16c1
000000e0: 2e10 0640 205e 1041 b8c0 0441 2a26 9740
000000f0: 8949 2a3e a403 21c1 1866 b740 2e89 533f
00000100: c8dd a9c0 2dcc 94c0 223c 3cc0 2936 12c0
00000110: f4c0 4ec1 20de e8c0 afb6 3cbf 463d f940
00000120: d72c dac0 9bf3 94bf 658f cf40 64ff c23d
00000130: d6e7 9940 8e13 823d ded3 5ebf a123 5140
00000140: e3fc 91be 1590 bd3f ab5a bc40 f226 a6c0
00000150: 7854 23c1 46ac 79c0 a72e 48c0 0da7 aebf
00000160: 5501 853f e021 59c0 110d 69be 1c0b 4040
00000170: a7d7 53c0 0498 143e 5a59 cd3f e5c7 c83f
00000180: 60e2 2e3f 9e10 bd40 9dfc 28c0 c4b7 cec0
00000190: 14e2 42c0 d8c2 0fc0 4fed 36c0 0e3b 8f40
000001a0: 6274 00c1 f033 4d3f 1358 4f40 79cf 27c0
000001b0: 291c 503f a5b8 f63f 9de3 c23f cedf c03e
000001c0: ebc0 dd40 e69b 1ac0 7264 f5c0 557d 5ac0
000001d0: f325 45c0 16e0 f03e 411a b240 48f5 b0c0
000001e0: c855 7640 76f7 18c0 352a ebbf 4a45 6bbd
000001f0: 9a05 1fc0 4d4e 8140 fadd fb3e 5e2c 0c3e
00000200: aaf4 0e41 be58 78bf 4f08 0441 2fac a9c0
00000210: c417 263f af5d fdc0 234a 02c1 df6f 95bf
00000220: c384 8a3d 4d21 62be fea0 11bf 6c59 65be
00000230: 17ba 2e40 5dd0 133f a896 dc3f a32b bd40
00000240: 5dbb 0d41 9dc6 963f 4e28 86c0 827a d2c0
00000250: 0caf 90c0 cc48 5940 0708 993f e035 213f
00000260: 333f 7c40 0234 133f f019 ae40 ffe9 1140
00000270: a3bd ae3f 8200 06c0 ff4a 9940 364d be40
00000280: 9f70 0541 61a5 3ac0 cf43 ff3f 4e10 94c0
00000290: db01 8340 91f6 f5bf ff6a e3be d635 333f
000002a0: db7a 33bf 3f04 2fbf d34c 4440 c43c 8e3f
000002b0: 3686 1ebf 6bad 7d40 3718 2f41 5112 02c0
000002c0: f565 b4c0 375a 90c0 3a35 b53d 75b3 6cbf
000002d0: e3fe 52c0 2eec 47bf 3b70 b03e 8e5b efbf
000002e0: 17e2 c4bf a8d7 3f3f 038d 543f 55b9 073e
000002f0: 9321 a340 5a7c fe40 ce4b 47bf 4499 75c0
00000300: 7404 a0c0 b1aa 50c0 149e e340 0513 9a3e
00000310: fb5b 78c0 9ddc 5dc0 9370 9a3e 9c14 51c0
00000320: 1570 f0bf a2e5 6bc0 47a6 1341 5f36 00c1
00000330: f1c7 d3c0 dc92 4d40 6b5c cc3f b4b9 29bf
00000340: 8b3c d43f 9b0c 4ac0 24ce 33c0 311b 41bf
00000350: ec88 133f 3e32 d4bf 613c bdbf 8504 4f40
00000360: 541a 1140 3032 9dbe 9a0d a540 e2c5 e540
00000370: 1dc1 16bf 656d a8c0 724e a0c0 ae8e fdbf
00000380: 4ee8 0941
-2.2657413 0.123915456 1.9769157 -0.5575425 -0.28558585 2.0325453 0.60524035 -1.4696697
3.6779726 11.010697 -1.6587466 -3.9397812 -6.2817883 -1.3796792 4.384034 3.2602575
-7.8745203 0.2047231 1.8556913 -4.798819 -0.47408348 -1.2018905 -3.5770311 5.5881314
-13.913264 -1.7284031 4.6032505 7.3079944 1.5707568 5.628298 -2.9634306 0.0785139
-0.49045312 -1.248072 -0.47513562 1.0095301 2.3733308 3.2377887 7.957714 4.885922
1.4966054 -4.514481 -7.961537 -2.7803655 6.3014565 1.0130541 -1.696351 7.328182
1.6704748 4.146203 3.1505058 5.563556 -2.037944 -7.435833 10.449486 -9.384208
2.0947375 9.02298 8.29705 4.7234087 0.16629614 -10.063389 5.7312126 0.82631195
-5.308323 -4.649924 -2.9411702 -2.2845557 -12.922108 -7.277115 -0.73716253 7.7887297
-6.8179736 -1.1636842 6.486254 0.09521368 4.8095503 0.06351386 -0.87042034 3.2677996
-0.2851325 1.4809595 5.886068 -5.192254 -10.208122 -3.9011397 -3.1278474 -1.364473
1.0391032 -3.3926926 -0.2275889 3.000678 -3.3100374 0.14511114 1.6042893 1.5686003
0.6831417 5.9082785 -2.6404183 -6.4599323 -3.0450487 -2.2462673 -2.8582342 4.475959
-8.028414 0.80157375 3.2397506 -2.6220381 0.8129297 1.9275099 1.5225712 0.3767075
6.9297996 -2.4157653 -7.6685114 -3.4138997 -3.0804412 0.47045964 5.565705 -5.5299416
3.8489857 -2.3901038 -1.8372256 -0.057439126 -2.484717 4.040808 0.49192792 0.136888
8.934732 -0.9701041 8.252028 -5.3022685 0.64880013 -7.917686 -8.1431 -1.1674765
0.067636035 -0.22083016 -0.5688628 -0.22397393 2.730108 0.5773981 1.7233477 5.9115767
8.858243 1.1779362 -4.19242 -6.5774546 -4.521368 3.3950682 1.1955575 0.6297283
3.9413574 0.5750123 5.440666 2.279907 1.3651623 -2.093781 4.790405 5.946925
8.339995 -2.916344 1.9942569 -4.6269903 4.0939765 -1.9215871 -0.4441757 0.7000402
-0.7010934 -0.68365854 3.067189 1.1112294 -0.6192354 3.9637096 10.943412 -2.032368
-5.637446 -4.5110126 0.08848043 -0.9246133 -3.296807 -0.78094757 0.34460625 -1.8699815
-1.5381497 0.7493844 0.83027667 0.13254292 5.0978484 7.9526796 -0.77850044 -3.8374796
-5.0005436 -3.2604182 7.1130466 0.30092636 -3.880614 -3.4665902 0.30164012 -3.266883
-1.8784205 -3.6858907 9.228095 -8.013274 -6.618157 3.2120886 1.5965704 -0.66298985
1.6580976 -3.1570194 -2.8094568 -0.75432116 0.576308 -1.6577833 -1.4784051 3.2346509
2.267232 -0.30702353 5.1579103 7.1804056 -0.5888842 -5.263354 -5.009576 -1.9809167
8.619215

camada3.bias f4 [15]
00000000: 48c5 2ac0 dfe3 6240 5289 6bc0 55e7 5c40
00000010: 52db a63f 98e4 f4bf a7f2 64bf 1ec2 6bbf
00000020: 801a 1540 e1f0 2ec0 cc8c 1b3f 0dbb 33c0
00000030: 01a9 83c0 475f b6bf e26f 68c0
-2.668291 3.5451581 -3.6802564 3.4516194 1.3035681 -1.9132261 -0.8943276 -0.92093074
2.3297424 -2.733452 0.60761714 -2.8082917 -4.1143804 -1.4247826 -3.6318288

camada4.weight f4 [1, 15]
00000000: a25e 69c0 7179 d5c0 8ce4 2cc0 dd62 d740
00000010: 9a4f 07c1 adc7 cc40 43d3 303f 309f 3b40
00000020: 21b7 e0c0 0f0d 42c0 cb6e 43c0 7683 a3c0
00000030: 566b 9dbf 371c 4a41 7278 80bf
-3.646401 -6.6710744 -2.7014494 6.7308183 -8.456934 6.3993745 0.6907236 2.931591
-7.0223546 -3.032047 -3.0536373 -5.1097975 -1.2298381 12.631888 -1.0036757
