DeepLearning/experimentos/Sontag 2 (30, 30).pth (torch, 7373 bytes, 5 tensors)

camada1.weight f4 [30, 2]
0	0x4085e918	4.184704
1	0x40badcc5	5.8394494
2	0x40e65409	7.197758
3	0xc08635bf	-4.194061
4	0x3e59251b	0.21205561
5	0xc1100ccd	-9.003125
6	0xc104de56	-8.304281
7	0x4133ab69	11.229348
8	0xbfe7a563	-1.8097347
9	0xc0aeed65	-5.466479
10	0x3f976674	1.1828141
11	0x4126ca16	10.424337
12	0xbe727484	-0.2367726
13	0x40c7dc28	6.2456245
14	0x401e8ccf	2.4773443
15	0xc09a9579	-4.830746
16	0xbe057b45	-0.13035305
17	0x40b0fc61	5.530808
18	0x40d600c2	6.6875925
19	0xc086ad3b	-4.2086463
20	0xc1097c74	-8.592884
21	0x40856086	4.1680326
22	0x3c1f968f	0.009740486
23	0x41163c92	9.389788
24	0x41009f8e	8.038954
25	0x403f9738	2.9936047
26	0xbde6eef3	-0.11276045
27	0x40b039ea	5.5070696
28	0xc0d3c817	-6.618175
29	0x402d1b6e	2.7047992
30	0xc0035517	-2.0520685
31	0x410ee0f4	8.92992
32	0x3d582a8c	0.05277495
33	0x411409d8	9.252403
34	0x40832a83	4.0989394
35	0xc115e483	-9.368289
36	0xc090e40b	-4.5278373
37	0x40ea31d6	7.3185835
38	0x40b47ff5	5.6406198
39	0x4112c66d	9.173444
40	0x40d02df2	6.5056086
41	0xc07dbfe0	-3.9648361
42	0xbfbb05ca	-1.4611142
43	0xc0951fd8	-4.660137
44	0xc08fbb36	-4.491603
45	0xc100f1cb	-8.0590315
46	0xbfd6a35e	-1.6768606
47	0xc0d24545	-6.5709558
48	0x4105ddc7	8.366645
49	0xc08eee63	-4.4666
50	0xc10eca69	-8.924417
51	0xc0b54757	-5.6649585
52	0x41201737	10.005668
53	0x40b5a235	5.6760507
54	0x3da255fd	0.07926557
55	0xc0e7f46f	-7.248588
56	0x410afe46	8.687078
57	0xbf83cf17	-1.0297574
58	0x404726b9	3.1117384
59	0xc0c678c2	-6.202241

camada1.bias f4 [30]
0	0xc07ec463	-3.9807365
1	0x407bd6ec	3.9349928
2	0xc0edc67a	-7.430478
3	0xbe5be1a8	-0.214728
4	0x407f14f6	3.9856544
5	0xc0a69db5	-5.2067513
6	0xc0c82e2f	-6.2556376
7	0x400ded7b	2.2176197
8	0xc0b0dfdb	-5.527326
9	0x407aa33e	3.9162135
10	0xc0abbbde	-5.366683
11	0xc0e9d2a7	-7.3069644
12	0xc0aeee44	-5.466585
13	0xc0b00819	-5.5009885
14	0x409505e3	4.6569686
15	0x4081ef98	4.0604973
16	0xc0e71c67	-7.222217
17	0xc0c8a30d	-6.2699037
18	0xc097ab0b	-4.7396293
19	0x408465ae	4.137412
20	0x40235500	2.552063
21	0x405cd5a2	3.450539
22	0xc0aed248	-5.463169
23	0xc0e12da1	-7.03682
24	0xc09f4e73	-4.9783263
25	0xc0732116	-3.7988944
26	0xc0a7bf73	-5.2421203
27	0xc0e3f1fb	-7.1232886
28	0xc09f7bf8	-4.983883
29	0x406a1228	3.6573582

camada2.weight f4 [30, 30]
0	0x4005f3df	2.0930097
1	0xc01df1d4	-2.467885
2	0xbff9fe60	-1.9530754
3	0x3e0e16b2	0.13875845
4	0xc0deffb2	-6.968713
5	0x3e4587b4	0.19290048
6	0x40f68f67	7.705005
7	0xc00a57cf	-2.1616094
8	0x40c63b52	6.1947412
9	0xc015bce7	-2.3396547
10	0xbf9c7da1	-1.2225839
11	0x412323c8	10.196236
12	0x40060b23	2.0944297
13	0x40c37500	6.108032
14	0xc03454b1	-2.8176692
15	0xbf1b2c18	-0.60614157
16	0x41232380	10.196167
17	0xc018ee73	-2.3895538
18	0x3fea597b	1.8308557
19	0xc063c68b	-3.558993
20	0xc043c639	-3.0589736
21	0xc0a7e6ba	-5.246915
22	0xbfecbee1	-1.8495752
23	0xc075cd63	-3.8406608
24	0x4092ec89	4.591374
25	0xc08ed501	-4.4635015
26	0x3f7af073	0.98023146
27	0xc0765e64	-3.8495111
28	0x3fd84449	1.6895839
29	0xc0867500	-4.201782
30	0x3ff50685	1.9142615
31	0xc0224827	-2.5356538
32	0x4050832d	3.2580063
33	0xc03217eb	-2.7827098
34	0xc072912b	-3.7901103
35	0xbfa548ca	-1.2912838
36	0x412c4907	10.767829
37	0xc03b1875	-2.9233677
38	0x40bd284d	5.9111695
39	0xc01f7c80	-2.4919739
40	0x4016ae2d	2.3543808
41	0xbf850167	-1.0391053
42	0x4094b3a0	4.646927
43	0x40c05a6a	6.011037
44	0xc04acb11	-3.1686442
45	0xc01877f7	-2.382322
46	0xbf18cebf	-0.5969047
47	0x40ab5891	5.3545613
48	0x404dd24b	3.2159603
49	0xc06f1e20	-3.7362137
50	0xbf596946	-0.8492626
51	0xc06c7e7d	-3.6952202
52	0x40220567	2.5315797
53	0x40cf1ab1	6.472008
54	0x40845678	4.1355553
55	0x408ece94	4.462717
56	0x40a0020a	5.000249
57	0x414227e0	12.134735
58	0x403bc2fd	2.9337761
59	0xc07d3871	-3.95657
60	0xbf407480	-0.75177765
61	0x3f37bcea	0.71772635
62	0x40623210	3.5343056
63	0xc14cd959	-12.803063
64	0x3d872c89	0.06600291
65	0xc0cfac6c	-6.4897976
66	0xc081fc68	-4.0620613
67	0x3fb64ad4	1.4241586
68	0xc06f0dee	-3.7352252
69	0x3f40c091	0.75293833
70	0xc087e4a1	-4.246659
71	0xc107990b	-8.474864
72	0x40ac58b4	5.385828
73	0xc0657e23	-3.5858238
74	0xc0226c44	-2.537858
75	0xc10718d7	-8.443564
76	0xc106c32b	-8.422648
77	0x415ede76	13.929312
78	0xc0b1c565	-5.555346
79	0xc0f892c4	-7.7679157
80	0x3f636f41	0.88841635
81	0x3ecb8b74	0.39754832
82	0xc04c4469	-3.1916754
83	0x40f7938c	7.736761
84	0x416784b8	14.469902
85	0xc0bc58b0	-5.885826
86	0x41142a4e	9.260328
87	0x40f97114	7.7950535
88	0x4113557c	9.20837
89	0x3f6abf81	0.9169846
90	0xc0145746	-2.3178267
91	0xc0ce1bd2	-6.440896
92	0xbc7f3fee	-0.015579207
93	0xc0e052b8	-7.0100975
94	0xc0fd6cf1	-7.9195485
95	0xc04648d6	-3.0981956
96	0xc0e753b8	-7.2289696
97	0xc0d7503a	-6.7285433
98	0xc0b0264d	-5.5046754
99	0xc0d571ca	-6.6701403
100	0xc0e05886	-7.010806
101	0xc09df2cd	-4.935889
102	0xc02d8ff7	-2.711912
103	0xc0aed9bd	-5.4640794
104	0xc11d8460	-9.844818
105	0xc12007c7	-10.001899
106	0xc09e000f	-4.937507
107	0xc0e0188b	-7.002996
108	0xc0a2d635	-5.0886483
109	0xc03f3865	-2.987817
110	0xc0da15c0	-6.815155
111	0xc0f8d4e6	-7.7759886
112	0xc0c54bd1	-6.165505
113	0xc0869045	-4.205111
114	0xbe1cd209	-0.15314497
115	0xc0bfdeda	-5.9959536
116	0xc0335c32	-2.8025022
117	0xc0bf08d5	-5.969828
118	0xbee10343	-0.439478
119	0xc0e4a424	-7.1450367
120	0xc03b085c	-2.9223852
121	0xc109c275	-8.609975
122	0xbfd47f71	-1.6601392
123	0xc1017759	-8.091638
124	0xc1234363	-10.203952
125	0xc091154c	-4.5338497
126	0xc0e81cb0	-7.253502
127	0xc10ff50f	-8.997329
128	0xc0c5b539	-6.178372
129	0xc10cc7ff	-8.798827
130	0xc0f6dc95	-7.7144265
131	0xc0c53f0b	-6.1639457
132	0xc0586bfd	-3.381591
133	0xc0bc2ad7	-5.8802295
134	0xc13ab3cf	-11.668899
135	0xc13042e9	-11.0163355
136	0xc0c7edff	-6.2478023
137	0xc0f15321	-7.5413976
138	0xc0b57989	-5.671086
139	0xc090b938	-4.5226097
140	0xc10ec2f6	-8.922598
141	0xc12088a1	-10.033357
142	0xc0e1c7eb	-7.055654
143	0xc099e96c	-4.809744
144	0xbf2e84c7	-0.6817135
145	0xc0c56c2a	-6.1694536
146	0xc049e453	-3.1545608
147	0xc0d657a0	-6.6981964
148	0xbfb9ff28	-1.4530993
149	0xc1136af9	-9.213616
150	0xc03db2fe	-2.9640498
151	0xc1121c50	-9.131912
152	0xbfdb2696	-1.712115
153	0xc10310dd	-8.191617
154	0xc12ee24e	-10.93025
155	0xc09a6b7a	-4.8256197
156	0xc0efa4d1	-7.488869
157	0xc118d771	-9.552598
158	0xc0c38c9c	-6.110914
159	0xc110af8e	-9.04286
160	0xc0f17b7b	-7.5463233
161	0xc0d4de67	-6.6521487
162	0xc052afb6	-3.2919745
163	0xc0c679c5	-6.2023644
164	0xc13e1767	-11.880713
165	0xc1335e7e	-11.210569
166	0xc0d27ca3	-6.5777144
167	0xc0f13c8f	-7.5386424
168	0xc0bced18	-5.903942
169	0xc0a84c2f	-5.2592998
170	0xc116ecb1	-9.432786
171	0xc1283f1c	-10.515408
172	0xc0f3bf6a	-7.617116
173	0xc0a88c4b	-5.2671256
174	0xbf252b09	-0.6451879
175	0xc0cafbeb	-6.3432517
176	0xc03fb93a	-2.9956803
177	0xc0da66b4	-6.825037
178	0xbfe417b4	-1.7819734
179	0xc11d431e	-9.828886
180	0x40adc15f	5.429855
181	0xc052a0e6	-3.2910705
182	0x4069a87f	3.6509092
183	0xc024ad29	-2.5730689
184	0xc090aea3	-4.521318
185	0x3ea1a4b4	0.3157097
186	0x409499b2	4.6437616
187	0xc0476eed	-3.1161454
188	0x403c2e8f	2.9403417
189	0xc05ee54d	-3.4827454
190	0x4109264d	8.571851
191	0x40e295ba	7.080777
192	0x411cb8db	9.795131
193	0x403bc6bc	2.9340048
194	0xbf86343a	-1.0484688
195	0x3fed7b73	1.8553299
196	0x40e1aeee	7.0526037
197	0x40b07a9a	5.514966
198	0x40c2011c	6.0626354
199	0xc057409a	-3.363318
200	0xbf9d920b	-1.2310194
201	0xc06f5722	-3.7396932
202	0x402549a4	2.5826197
203	0x40b32fab	5.599569
204	0x406e2a45	3.72133
205	0x408bc395	4.3676248
206	0x412e6ee4	10.902073
207	0x41453e7d	12.327756
208	0x3fd14782	1.6349947
209	0xc08fd23c	-4.4944134
210	0xc13beeaa	-11.745768
211	0xc0839b07	-4.112674
212	0x4141796c	12.092144
213	0x40c8bb3b	6.2728553
214	0x3f27c6f5	0.6553796
215	0xc0193f02	-2.3944707
216	0xc0b2a5f2	-5.582757
217	0xc01d95fa	-2.4622788
218	0xc049e2dd	-3.1544716
219	0xc0725b4f	-3.786823
220	0x4058fcb6	3.3904243
221	0x3fb55fe2	1.4169886
222	0xc0aa90a0	-5.3301544
223	0xc04ba12f	-3.1817129
224	0xbe6ef6d3	-0.23336343
225	0x40b6d3ea	5.7133684
226	0x3f904e61	1.1273919
227	0x40bc57eb	5.885732
228	0xbf189c19	-0.59613186
229	0xc0987c80	-4.7651978
230	0xc0893265	-4.2874017
231	0x3f52dfea	0.82372916
232	0x402b0782	2.6723332
233	0x40cbd6f8	6.3699913
234	0x407962da	3.8966584
235	0x40953b11	4.6634603
236	0xc0c90cbc	-6.2828045
237	0x40b56357	5.6683764
238	0xc17d8d86	-15.847052
239	0xbfd46fdc	-1.6596637
240	0xbff36a12	-1.9016745
241	0xc0a28963	-5.079271
242	0x3fccbf0d	1.5995804
243	0xc0c76679	-6.231259
244	0xc0db4639	-6.852322
245	0xbfa1ea5e	-1.2649648
246	0xc0f959e9	-7.7922254
247	0xc0a7d875	-5.245173
248	0xc0b7c775	-5.743098
249	0xc0ad516c	-5.416189
250	0xc0c4a8a5	-6.1455865
251	0xc0291fe2	-2.642571
252	0xc00b7afa	-2.179381
253	0xc0ad009d	-5.406325
254	0xc1093fac	-8.578045
255	0xc11419a2	-9.256258

camada2.bias f4 [30]
0	0xbfd64704	-1.6740422
1	0xc015c24c	-2.339984
2	0xbbec30da	-0.007207972
3	0xc0fe2215	-7.9416604
4	0xc11fbfe2	-9.984346
5	0xc12a5703	-10.646243
6	0xbffe4603	-1.9865116
7	0xbfa830c6	-1.3139884
8	0xc0ce67f3	-6.450189
9	0xc0f58e24	-7.673601
10	0xbe8da06c	-0.27661455
11	0xbd108403	-0.035282146
12	0xbf0a9fb8	-0.5414996
13	0xbd6e8c9b	-0.05823956
14	0xc0d351ab	-6.603719
15	0xbe56d072	-0.20977953
16	0xc0d2343a	-6.5688753
17	0xbf80d593	-1.0065178
18	0xbe1951a2	-0.14972547
19	0x3d8ae80d	0.067825414
20	0xc0e79f55	-7.2381997
21	0xbfcac6eb	-1.5841955
22	0xbfd568ea	-1.6672642
23	0x3f402130	0.7505064
24	0xbf0ec7b1	-0.55773455
25	0xc0ee90d5	-7.4551797
26	0xbfbb61e5	-1.463925
27	0xbf941fab	-1.1572164
28	0xc0d405dd	-6.6257157
29	0xc13ced2f	-11.807906

camada3.weight f4 [1, 30]
0	0x412eeafd	10.93237
1	0xc102114f	-8.129226
2	0x41479e07	12.476081
3	0x3ea7228a	0.3264354
4	0x3dd10881	0.102067
5	0x3d94282e	0.07234226
6	0xc15bf704	-13.747807
7	0x40ed1abb	7.409513
8	0x3f3202da	0.695356
9	0x3ebca056	0.36841077
10	0xc17f24f2	-15.94652
11	0x40e452db	7.135114
12	0xc092ebc9	-4.5912824
13	0xc0ef874b	-7.4852653
14	0x3f35def7	0.7104334
15	0xc0bed97d	-5.964049
16	0x3f323982	0.69619
17	0xc0214a06	-2.520143
18	0x408d8cf1	4.4234548
19	0x40b6d84e	5.7139044
20	0x3eed3953	0.46332797
21	0xc118d0d6	-9.550985
22	0x4130ae04	11.042484
23	0x40c1645d	6.0435014
24	0xc0899279	-4.29913
25	0x3ee8d045	0.45471397
26	0xc128cad7	-10.549521
27	0xc14553cb	-12.332957
28	0x3f366137	0.7124209
29	0x3d0f30d7	0.034958687
