DeepLearning/experimentos/images/ReLU 3 (7, 7, 7).pth (torch, 4171 bytes, 7 tensors)

camada1.weight f4 [7, 2]
00000000: 3ceb 43be 49be 22c0 7749 d7bd 06e4 a240
00000010: 7583 8640 23d7 92bf 48c5 f53e 5db9 c9bc
00000020: 7f24 1bbe 8e4d 10be d879 0cc0 21c8 7fc0
00000030: 5393 aec0 4786 a5be
-0.19132704 -2.542864 -0.10512059 5.090335 4.203547 -1.1471905 0.48002076 -0.02462452
-0.15150641 -0.14092085 -2.1949368 -3.99659 -5.455484 -0.32329008

camada1.bias f4 [7]
00000000: 8b3f f13f dc0a 80c0 0cd3 a3bf c32d 35bf
00000010: b4a0 fabe 81b3 0140 4ccc 11c0
1.8847517 -4.0013256 -1.2798781 -0.7077295 -0.48950732 2.026581 -2.2780943

camada2.weight f4 [7, 7]
00000000: 2c7d cf3f 5f83 873c 12ac 5540 4b90 753e
00000010: c55e 1d3e 6ca7 08c0 ba36 1bbf f950 893f
00000020: 7e32 c540 d2b9 6b40 bd0a e23d b5a6 0e3d
00000030: da97 763f f224 5a40 266e 63be ef44 32bf
00000040: c897 6bbd 8853 62be 0454 883e 772a 903d
00000050: 502e 4fbd d7d2 d6be ad5a 07bf cbee 133e
00000060: fba9 9c3e 3be6 73be 0caf 73be 4d68 8bbd
00000070: 25cd f93f a246 dd40 5541 d4bf 7957 6b3e
00000080: 8af6 db3d 85a1 1bc1 007c 4f40 4d54 9ebf
00000090: a731 16c1 301f 1f40 06b2 0fbe 0c05 e53d
000000a0: f0a6 13be 3f9a ba40 768d 8bbf 6d54 c340
000000b0: 72ca bf3e 6bbc 53be 19b3 99be 0b27 7fbf
000000c0: 7d9f 583f
1.6210074 0.016542135 3.3386273 0.23980825 0.15368183 -2.1352186 -0.6063038 1.0727836
6.1624136 3.6832166 0.110372044 0.034826953 0.9632546 3.408505 -0.22209987 -0.69636434
-0.057517797 -0.22102177 0.266266 0.070393495 -0.050581276 -0.41957733 -0.52872735 0.14446561
0.30598435 -0.23818295 -0.23797244 -0.06807003 1.951573 6.914872 -1.6582438 0.22982587
0.10740383 -9.7269335 3.2419434 -1.2369477 -9.387122 2.4862785 -0.14032754 0.11182603
-0.1441915 5.831329 -1.0902545 6.104056 0.3745914 -0.20677345 -0.30019453 -0.9966895
0.8461836

camada2.bias f4 [7]
00000000: c297 cfc0 26da d7c0 ee88 56bf 8c08 c3be
00000010: 91ca 00be bc83 84c0 bf5d a3c0
-6.487275 -6.7453794 -0.8380269 -0.38092458 -0.12577273 -4.141081 -5.1051936

camada3.weight f4 [7, 7]
00000000: 3d93 91c0 5a96 44bf bfba 823d 392a 80be
00000010: 8156 0c40 239c a13e cd8a dcc0 804e bb3e
00000020: 8c2b 28be e9be fb3d e45e 8abe 0cd5 a33d
00000030: 0dd3 adbe 6734 9139 bcf2 b83d f947 acbe
00000040: d6af 413d dc77 103e 515b f7bd 5b47 9ebe
00000050: 2a58 c3bc 6ac0 b540 1123 f2bf 1dc0 843e
00000060: 51ab 9abe 1833 16c0 dcee 5440 6cfe 4841
00000070: a305 63be 617e 0abf eb3a b5be 5d53 523e
00000080: ee5c 8fbe db00 d13b 1820 62bc 10f4 8dbe
00000090: 174f 97be 045a bd3d 0a0a 2cbe bacc c5bd
000000a0: c263 503c e9b6 02bd 3a1f adbe a8d6 92be
000000b0: be41 333e d1d6 b4be 459a 483d 5ee7 cfbe
000000c0: 7c46 17bf
-4.5492234 -0.7679192 0.06383275 -0.25032213 2.1927798 0.31564435 -6.8919435 0.36583328
-0.16422862 0.122922726 -0.2702552 0.0799962 -0.3395008 0.00027695598 0.09030673 -0.3364866
0.04728683 0.14108223 -0.12077964 -0.30913815 -0.02384575 5.679738 -1.8916951 0.2592782
-0.3020883 -2.3468685 3.3270788 12.562115 -0.22170119 -0.5409909 -0.35396513 0.20539613
-0.28000587 0.006378276 -0.013801597 -0.27725267 -0.29552528 0.09245685 -0.16800705 -0.09658189
0.012719097 -0.031912718 -0.33812886 -0.28679395 0.17505547 -0.35320142 0.048975248 -0.40606207
-0.59091926

camada3.bias f4 [7]
00000000: 51ea 8940 93ad 31bf c260 10bf b2a2 d23f
00000010: 9b66 16bf 2491 8fbf 01ad 15bf
4.309853 -0.6940548 -0.5639764 1.6455901 -0.58750314 -1.1216168 -0.5846711

camada4.weight f4 [1, 7]
00000000: f910 863f 2af7 923c c628 7ebe 9f83 51c0
00000010: 9ac6 e9bd b3b9 713e a636 25be
1.047393 0.017940123 -0.24820241 -3.2736585 -0.11414833 0.23605995 -0.16134128
