DeepLearning/experimentos/images/ReLU 2 (9, 9).pth (torch, 3549 bytes, 5 tensors)

camada1.weight f4 [9, 2]
00000000: 4b32 a340 a2bb d1bf 540c fd3f 2e38 8040
00000010: 83e7 86c0 8a53 ac40 6815 923f 9cbf 9dc0
00000020: cc33 8f40 45c9 9940 4093 693e 4032 2ec0
00000030: 028b d7bf 0935 6040 cd2a 85c0 4cf2 f8bf
00000040: ef9b 9040 0717 07be
5.0998893 -1.6385386 1.9769387 4.006858 -4.2157607 5.3851976 1.1412783 -4.92964
4.475073 4.805819 0.22810078 -2.721817 -1.6839297 3.503237 -4.1614747 -1.9448943
4.519035 -0.13192378

camada1.bias f4 [9]
00000000: cb54 eebf 1466 5440 3922 b4bf 13e4 88bf
00000010: 2f4c a9bf 2043 0040 a9d6 3a40 7150 b0bf
00000020: f701 83c0
-1.8619627 3.3187304 -1.4072944 -1.0694603 -1.3226374 2.004097 2.9193518 -1.3774549
-4.09399

camada2.weight f4 [9, 9]
00000000: 93b5 0340 80fb 3cbf 88ea 9d40 c006 1bbf
00000010: 5410 7840 a9d6 d0be 892b 34c0 90de b4c0
00000020: 77d3 0741 c066 933f 0539 b6c0 f840 cd3f
00000030: 2f7d 4d40 438b ffbe e54e 56bf d25c 49c0
00000040: eae0 fa3f 89da e33f 9a12 eac0 741c e93f
00000050: cc11 ccc0 ee01 8ec0 39cc e7c0 cb16 f33e
00000060: 69b4 2c3f 4e98 edc0 3b96 bf40 7efe a7be
00000070: f077 a5bd 1b2d 0b3e 6623 64be fdeb 5cbe
00000080: 27c9 333d 3558 bdbe 6c35 53be e841 0e3e
00000090: d2d3 9ebe 172c d1be 52f9 8fbd 687f 9ebd
000000a0: 9a4f 55bd 6e81 c2bc bdd4 c7be b565 febe
000000b0: ae5e 223e aa77 f1bf bf73 6240 7c70 52c2
000000c0: 6955 0b40 1b96 4840 b120 c3bf 8e9f 04c1
000000d0: 3b64 11bf 41d2 7a3e a746 283d 5edf a5be
000000e0: a163 b5be 771f a8be 39f6 6ebe 0cd2 8dbd
000000f0: 4097 e8bd 300d e6bd 58c9 85be 63ae b7c0
00000100: 6353 25c0 1048 edbf e585 7640 bc53 b33e
00000110: fd88 cac0 1a4a 0a40 ed02 ab3f f0fc d73f
00000120: 0566 8cc1 f941 6fc1 a606 b740 e425 a9bf
00000130: 42f4 c9be 2898 3d3e 791c 6340 272e bdbf
00000140: 779b e7bd
2.0579574 -0.7382126 4.9348793 -0.60557175 3.8759966 -0.40788773 -2.8151572 -5.6521683
8.489127 1.1515732 -5.6944604 1.6035452 3.2107656 -0.49910936 -0.83714134 -3.1462903
1.9599888 1.7801067 -7.3147707 1.8211808 -6.3771725 -4.4377356 -7.2436795 0.47478327
0.67462784 -7.424842 5.9870887 -0.3281135 -0.08079517 0.13591425 -0.22279128 -0.21574397
0.043893006 -0.3698136 -0.20625848 0.13892329 -0.3102098 -0.4085395 -0.07029976 -0.077391446
-0.052077867 -0.023743358 -0.39029494 -0.4968697 0.1585643 -1.8864644 3.5383146 -52.609848
2.177088 3.1341617 -1.5244352 -8.288954 -0.56793565 0.24494268 0.041083004 -0.32396978
-0.35427573 -0.32836506 -0.23336114 -0.06924829 -0.11356974 -0.11232984 -0.26130176 -5.7400374
-2.5832145 -1.8537617 3.8519223 0.35024822 -6.329222 2.1607728 1.3360268 1.6874065
-17.549814 -14.953607 5.7195616 -1.3214688 -0.39444166 0.18515074 3.5486128 -1.477971
-0.113089494

camada2.bias f4 [9]
00000000: 1278 01c1 f77b 0fc1 155d 0440 ceed 94be
00000010: 8218 dc3c ddf5 103f 86ac 953d 2b1d 2441
00000020: b88c 7240
-8.091814 -8.967765 2.0681813 -0.2908768 0.026867155 0.5662516 0.07308297 10.257121
3.7898388

camada3.weight f4 [1, 9]
00000000: b132 98c0 3883 65c0 0923 f2c0 815a fdbc
00000010: 181b 7f3c 3543 8dc0 6c57 843c e3a7 9ec0
00000020: 60fa 97c0
-4.756188 -3.586134 -7.5667768 -0.030926945 0.0155704245 -4.414454 0.016154967 -4.957994
-4.7493134
