DeepLearning/experimentos/images/ReLU 1 (32).pth (torch, 3077 bytes, 3 tensors)

camada1.weight f4 [32, 2]
-0.012816553 4.7980165 -0.015537183 -0.015247268 -0.0025955616 -0.001098995 -4.4241834 4.6647367
-7.2937055 0.37254804 0.0006334168 0.000733382 -5.658772 -2.0975885 0.0093614515 0.01504242
-3.7802627 4.8282924 0.003916082 -0.005490554 -5.842108 2.007708 0.35948315 -4.3098555
-0.1720672 0.09710871 -0.0066037723 0.0069925576 3.7373059 4.2431087 -5.5047293 -2.0435185
0.0132336505 -0.05187365 3.4658258 5.8993444 -0.06081152 -5.202928 -1.7438612 -6.4693193
-0.2789952 2.111392 -0.009943893 0.010671486 2.9891725 -2.3872554 -3.3873625 -5.6075244
5.12037 4.5214915 -0.02579948 0.007734695 -0.32983652 6.5029445 -0.30203938 6.705042
0.075047515 0.17816775 -0.41741815 -0.037151814 -0.0916441 0.1926042 -7.26547 -0.6829434
00000000: 85fc 51bc 5a89 9940 ab8f 7ebc adcf 79bc
00000010: 4c1a 2abb 270c 90ba e992 8dc0 8645 9540
00000020: 0966 e9c0 9ebe be3e e20b 263a 6f40 403a
00000030: a914 b5c0 e43e 06c0 c660 193c 7b74 763c
00000040: d3ef 71c0 5f81 9a40 7a52 803b 1bea b3bb
00000050: 8cf2 bac0 4a7e 0040 2d0e b83e 56ea 89c0
00000060: 6232 30be eee0 c63d 7564 d8bb d321 e53b
00000070: 0530 6f40 8cc7 8740 be26 b0c0 02c9 02c0
00000080: f4d1 583c 7779 54bd 17d0 5d40 6ec7 bc40
00000090: 8015 79bd 637e a6c0 d836 dfbf aa04 cfc0
000000a0: 75d8 8ebe 0c21 0740 b6eb 22bc 75d7 2e3c
000000b0: 9a4e 3f40 cbc8 18c0 8cca 58c0 d770 b3c0
000000c0: 12da a340 0fb0 9040 6e59 d3bc 5373 fd3b
000000d0: 55e0 a8be 1f18 d040 e8a4 9abe b48f d640
000000e0: 83b2 993d 9b71 363e d5b7 d5be 802c 18bd
000000f0: e7af bbbd 093a 453e bb7e e8c0 61d5 2ebf

camada1.bias f4 [32]
-4.441072 -0.035347905 -0.0062808627 -3.574305 -2.5744903 -0.002259943 -3.2892222 -0.046620253
2.7370076 -0.010713271 -3.280608 -0.8618711 -0.3063745 -0.022234777 -3.0395932 -3.2361424
-0.07637257 0.91373616 -5.0768557 -5.1821322 -2.6227593 -0.09426947 -1.8761668 -3.722378
-0.5307313 -0.04013046 -0.15320134 -5.100335 -0.27500874 -0.72986144 -0.3809448 -0.39795536
00000000: 431d 8ec0 f7c8 10bd b2cf cdbb 6ac1 64c0
00000010: 73c4 24c0 8d1b 14bb 9e82 52c0 e1f4 3ebd
00000020: 222b 2f40 b786 2fbc 7bf5 51c0 96a3 5cbf
00000030: 1edd 9cbe b525 b6bc b288 42c0 f51c 4fc0
00000040: 3969 9cbd 9dea 693f 9a75 a2c0 07d4 a5c0
00000050: 4adb 27c0 5a10 c1bd 3c26 f0bf 713b 6ec0
00000060: 02de 07bf d65f 24bd d0e0 1cbe f235 a3c0
00000070: f2cd 8cbe 33d8 3abf 320b c3be cec0 cbbe

camada2.weight f4 [1, 32]
-70.23237 0.006963052 0.0012303597 -7.103886 5.9725533 0.0005305052 -5.9132442 0.011911436
-3.7048094 0.0033240668 -5.80465 1.5110794 0.01648703 0.005732554 -5.5802946 -5.4377084
0.022011923 4.0927157 -84.11891 17.92894 -20.6336 0.016416138 -0.93836635 -8.83916
-3.6708772 0.0027046583 3.6590774 19.406328 0.03763387 -0.2157116 0.007817477 3.7324522
00000000: f976 8cc2 502a e43b 0544 a13a 0953 e3c0
00000010: 281f bf40 9a11 0b3a 4c39 bdc0 2f28 433c
00000020: 991b 6dc0 96d8 593b b1bf b9c0 0d6b c13f
00000030: cf0f 873c 26d8 bb3b c691 b2c0 b501 aec0
00000040: 5952 b43c 87f7 8240 e23c a8c2 786e 8f41
00000050: 9d11 a5c1 237b 863c c738 70bf 336d 0dc1
00000060: a7ef 6ac0 a340 313b 532e 6a40 2940 9b41
00000070: f925 1a3d 80e3 5cbe e014 003c 7fe0 6e40
