DeepLearning/experimentos/images/Sontag 1 (256).pth (torch, 6691 bytes, 3 tensors)

camada1.weight f4 [256, 2]
-3.637318 -1.640368 -3.4632635 1.0387948 -3.3252587 0.46491295 -3.3370879 1.4248111
-3.3245964 1.0892845 -3.2360306 1.1256751 -3.1937356 1.106155 -3.379609 1.0710595
-3.251169 1.1065742 -2.9338377 1.121558 -0.32948315 -7.9417877 7.2553096 -0.6083771
-4.401834 12.721292 -2.7261539 1.1772523 -3.6225553 0.89394677 -2.7281725 1.1736223
-3.1978166 1.1262816 -4.2939606 -1.1324689 -3.2401016 1.0978817 -3.227963 1.1128846
-3.7728372 0.7344678 -3.4947276 1.0117612 -3.246457 1.1165603 5.2327795 -2.1472433
-4.0697274 1.9992816 -2.5275648 1.1420864 14.7848 6.5882115 -3.3833635 1.0790981
-3.0312142 1.0089184 -4.128792 0.39107534 -9.351077 -3.8619933 -3.5322251 0.9796626
5.596757 -1.8679961 -3.1290092 1.3869448 -3.8698902 0.6418999 -3.91066 0.5983761
-10.610937 -4.763922 -13.341153 -4.901623 -3.21255 1.0991429 -3.1725826 1.1400818
-3.1035545 -1.5622979 -3.3600845 1.0955406 -4.047795 0.4765134 -3.693277 0.8207023
-3.7447076 0.7646169 -11.137996 11.152082 7.1871333 -0.61665434 0.027069084 9.024758
-3.5355258 0.9796318 -4.552002 0.115746416 10.394509 12.448613 -3.1848457 1.1116667
-3.1886604 1.0870701 -3.2135837 1.1323632 -9.7761135 -6.2160716 -6.0865655 0.07106783
-3.6611722 0.8564881 -3.3244412 1.0934776 -4.432904 0.18785167 -3.7072945 0.798596
-4.3017426 0.27464905 -3.3950632 1.0630134 -3.524127 0.9862894 4.4667263 -3.9953752
-3.2902198 1.0979068 -3.7129152 0.7992955 -3.6414127 0.8762462 -3.2550118 1.1213633
-2.1483536 8.008133 -1.8071288 -5.7787204 -3.3202915 1.1104763 -4.023785 0.49260676
10.6970825 -11.221762 -3.826884 0.6846964 -2.5616672 1.0277349 5.039487 -2.5707283
-3.9938524 0.5161523 -3.5236638 0.9879379 -4.371791 0.22785608 0.41951552 16.433178
-3.926323 0.580488 -4.6080704 0.08097689 -4.0419483 0.48072657 -3.344196 1.0988519
-2.9430695 1.1143068 -3.315846 1.0806433 -11.277245 5.654689 -3.335259 1.0895866
-3.30465 1.099529 -4.7204757 0.03978714 -9.114641 -2.5402155 -3.1746402 1.1407616
-4.1827745 0.36387298 -3.491142 1.0129926 -3.1540942 1.3849876 -9.6507 -2.7022667
3.5407953 -16.369423 -4.7994223 0.21411718 -3.599125 0.9148622 -10.682968 8.787947
-4.1480713 2.2766063 -3.3716445 1.0809197 -3.3179092 1.0962819 0.40924916 16.036795
-3.2659955 1.1046427 -3.3500254 1.1024168 -3.0800529 1.1324099 -3.9494314 0.56062007
2.981218 7.7663875 4.977429 -2.2989836 -3.7067835 1.7239078 -3.8643298 0.64454013
-3.4214797 1.0657711 -1.4430739 1.0562221 -4.61258 0.082261965 -3.5482519 0.96403193
-3.296424 1.0976378 -2.6788163 1.0030117 -3.1138756 1.3070145 13.694658 -5.1010146
4.571381 -13.242946 13.390574 -5.018019 -0.04043521 9.230624 -3.2546542 1.0917333
-2.1234202 7.6459417 -10.327632 3.3727705 4.8602533 -2.5642672 -3.167269 1.1144378
00000000: d1c9 68c0 94f7 d1bf 1ca6 5dc0 3af7 843f
00000010: 0ad1 54c0 1209 ee3e d992 55c0 3660 b63f
00000020: 30c6 54c0 ad6d 8b3f 201b 4fc0 1f16 903f
00000030: 2a66 4cc0 7d96 8d3f 844b 58c0 7a18 893f
00000040: 2713 50c0 39a4 8d3f ffc3 3bc0 368f 8f3f
00000050: 04b2 a8be 2023 fec0 7f2b e840 9abe 1bbf
00000060: d3db 8cc0 698a 4b41 4e79 2ec0 34b0 963f
00000070: f2d7 67c0 b2d9 643f 619a 2ec0 4139 963f
00000080: 07a9 4cc0 ff29 903f 2068 89c0 bef4 90bf
00000090: d35d 4fc0 6387 8c3f f296 4ec0 0173 8e3f
000000a0: 2a76 71c0 1506 3c3f 9ea9 5fc0 6481 813f
000000b0: f4c5 4fc0 73eb 8e3f ee72 a740 6f6c 09c0
000000c0: 353b 82c0 76e8 ff3f 9fc3 21c0 e32f 923f
000000d0: 8a8e 6c41 a1d2 d240 0789 58c0 e31f 8a3f
000000e0: 6aff 41c0 3d24 813f 101f 84c0 073b c83e
000000f0: 039e 15c1 e62a 77c0 fa0f 62c0 2bcb 7a3f
00000100: a218 b340 7f1a efbf b041 48c0 6887 b13f
00000110: 48ac 77c0 8d53 243f 4148 7ac0 2d2f 193f
00000120: 66c6 29c1 0d72 98c0 5d75 55c1 18da 9cc0
00000130: 6b9a 4dc0 b7b0 8c3f 980b 4bc0 33ee 913f
00000140: a3a0 46c0 61f9 c7bf a00b 57c0 ad3a 8c3f
00000150: 8987 81c0 90f9 f33e a65e 6cc0 8c19 523f
00000160: 4aa9 6fc0 efbd 433f 3b35 32c1 ee6e 3241
00000170: fffc e540 0fdd 1dbf fcbf dd3c 6965 1041
00000180: 0e46 62c0 26c9 7a3f 00aa 91c0 750c ed3d
00000190: e94f 2641 852d 4741 83d4 4bc0 184b 8e3f
000001a0: 0313 4cc0 1d25 8b3f 5bab 4dc0 47f1 903f
000001b0: f66a 1cc1 0fea c6c0 25c5 c2c0 038c 913d
000001c0: a550 6ac0 ce42 5b3f a5c3 54c0 13f7 8b3f
000001d0: 59da 8dc0 305c 403e 5044 6dc0 ca70 4c3f
000001e0: e0a7 89c0 cd9e 8c3e b748 59c0 d310 883f
000001f0: 4c8b 61c0 767d 7c3f 6cef 8e40 3ab4 7fc0
00000200: f692 52c0 3688 8c3f 67a0 6dc0 a19e 4c3f
00000210: e80c 69c0 ac51 603f 1d52 50c0 d588 8f3f
00000220: a07e 09c0 5021 0041 ff4f e7bf 47eb b8c0
00000230: a87f 54c0 1624 8e3f d9c2 80c0 f436 fc3e
00000240: 4027 2b41 568c 33c1 abeb 74c0 4348 2f3f
00000250: 5bf2 23c0 d18c 833f 7a43 a140 d086 24c0
00000260: 479b 7fc0 8f22 043f b583 61c0 80e9 7c3f
00000270: b6e5 8bc0 1b53 693e bdca d63e 2677 8341
00000280: e048 7bc0 dd9a 143f 5075 93c0 36d7 a53d
00000290: a457 81c0 cb21 f63e 4f07 56c0 2ea7 8c3f
000002a0: 405b 3cc0 9ba1 8e3f d236 54c0 8552 8a3f
000002b0: 986f 34c1 36f3 b440 e274 55c0 9377 8b3f
000002c0: 637f 53c0 5ebd 8c3f 230e 97c0 d7f7 223d
000002d0: 92d5 11c1 e492 22c0 4e2d 4bc0 7a04 923f
000002e0: 4ad9 85c0 8f4d ba3e df6e 5fc0 bea9 813f
000002f0: aedc 49c0 4647 b13f 4469 1ac1 f0f1 2cc0
00000300: 649c 6240 94f4 82c1 de94 99c0 8941 5b3e
00000310: 1058 66c0 6934 6a3f 70ed 2ac1 6e9b 0c41
00000320: 00bd 84c0 ebb3 1140 06c9 57c0 945b 8a3f
00000330: a058 54c0 f752 8c3f 1b89 d13e 5b4b 8041
00000340: 1206 51c0 ef64 8d3f d166 56c0 fe1b 8d3f
00000350: 961f 45c0 cff2 903f 7cc3 7cc0 cc84 0f3f
00000360: 47cc 3e40 3f86 f840 1947 9f40 8c22 13c0
00000370: f13b 6dc0 03a9 dc3f 2e51 77c0 9500 253f
00000380: 86f9 5ac0 306b 883f a5b6 b8bf 4932 873f
00000390: 419a 93c0 f678 a83d 8f16 63c0 ccca 763f
000003a0: 9cf8 52c0 657f 8c3f ba71 2bc0 b062 803f
000003b0: bd49 47c0 404c a73f 521d 5b41 833b a3c0
000003c0: c148 9240 1be3 53c1 cb3f 5641 9d93 a0c0
000003d0: 649f 25bd a3b0 1341 414c 50c0 ebbd 8b3f
000003e0: 1ee6 07c0 8eab f440 fb3d 25c1 79db 5740
000003f0: 3287 9b40 f41c 24c0 89b4 4ac0 e6a5 8e3f

camada1.bias f4 [256]
-7.250307 -13.400847 -10.356787 -16.612509 -12.900402 -12.78112 -12.597277 -13.093217
-12.751549 -12.127747 -8.375116 -7.6585817 9.052747 -12.100969 -13.7306795 -12.185369
-12.658334 -7.1280704 -12.642003 -12.701972 -14.11842 -13.456184 -12.759013 -7.2829847
-26.92153 -11.869651 -11.091939 -13.13931 -11.735446 -14.635917 -6.670275 -13.518501
-7.337426 -14.78753 -14.3118515 -14.35504 -7.5026956 -7.124953 -12.613708 -12.666077
-7.18599 -13.08569 -14.581686 -13.956493 -14.026832 -7.9883704 -7.6038365 -9.485302
-13.5640335 -15.207213 -10.918388 -12.576018 -12.583297 -12.749513 -7.8586 -6.705014
-13.898535 -12.926108 -15.06374 -13.967507 -14.89605 -13.07805 -13.479987 -8.052992
-12.81498 -13.96765 -13.747132 -12.818398 -9.310738 -7.119035 -12.985845 -14.518213
-10.081714 -14.241994 -11.039979 -7.454365 -14.45841 -13.514504 -14.991996 -4.6754775
-14.367502 -15.260028 -14.567148 -13.0500345 -12.025495 -12.761801 5.3649015 -12.946243
-12.894419 -15.462051 -6.9373803 -12.670957 -14.7534895 -13.415863 -14.852274 -7.290925
-5.073751 -16.516912 -13.689273 -9.188021 -34.296265 -13.088499 -12.917646 -13.217064
-12.795423 -13.1058655 -12.422622 -14.408781 -10.172746 -7.252101 -20.182802 -14.286697
-13.282454 -14.430381 -15.279012 -13.541655 -12.836585 -11.102876 -13.627775 -10.186003
-9.541373 -9.968027 -9.66838 -12.701891 -8.970071 -7.5498495 -7.3472924 -12.558729
-8.136024 -9.467707 -11.5285015 -12.903335 -13.633861 -25.48612 -14.642096 -13.2467375
-12.705505 -7.15122 -6.579938 -13.480453 -11.800949 -14.126964 -13.197679 -12.801014
-15.818872 -13.738703 -6.271004 -9.594557 -7.442341 -14.20377 -6.4129467 -13.006561
-13.742304 -14.600234 -12.997076 -13.426344 -6.97511 -12.210795 -13.531167 -13.042922
-7.129409 -13.766749 -12.668477 -12.820698 -7.5276837 -13.783958 -14.795498 -13.558243
-6.5857377 -15.137019 -7.366112 -13.23027 -13.390204 -8.876102 -13.502235 -13.716923
-8.671735 -12.8936405 -13.893053 -15.397927 -12.85186 -6.8642645 -12.131207 -10.596839
-13.164458 -15.017707 -13.225542 -12.408717 -12.1738405 -12.898152 -13.55448 -12.30908
-13.6328125 -13.188372 -13.265218 -13.174456 -12.743116 -13.52206 -16.129976 -15.036075
-7.3225274 -12.778613 -13.834947 -13.105462 -13.809494 -12.5853195 -9.428993 -10.138211
-13.242673 -12.017204 -16.045494 -14.796869 -7.4718084 -13.535278 -13.357022 -15.497323
-6.8981977 -7.370828 -15.104052 -4.7374854 -12.850695 -14.542896 -13.643121 -14.74435
-12.637344 -13.747628 -12.854212 -13.740505 -12.414785 -14.01977 -14.493213 -14.006162
-12.762024 -7.1914134 -12.704949 -7.4332886 -12.932313 -15.829299 -13.114918 -14.931795
-14.713529 -15.078433 -7.3601947 -13.516485 -4.528789 -6.5112753 -12.752886 -13.881333
-12.11353 -16.740772 -13.246554 -15.218871 -10.852823 -4.0323677 -13.648271 -5.2928014
00000000: 8402 e8c0 df69 56c1 66b5 25c1 6be6 84c1
00000010: 0c68 4ec1 787f 4cc1 728e 49c1 d17d 51c1
00000020: 5806 4cc1 400b 42c1 7a00 06c1 1a13 f5c0
00000030: 0dd8 1041 929d 41c1 ddb0 5bc1 45f7 42c1
00000040: 8988 4ac1 2719 e4c0 a545 4ac1 473b 4bc1
00000050: 0ce5 61c1 884c 57c1 eb24 4cc1 360e e9c0
00000060: 4b5f d7c1 17ea 3dc1 9578 31c1 9d3a 52c1
00000070: 63c4 3bc1 b72c 6ac1 e572 d5c0 c84b 58c1
00000080: 32cc eac0 b999 6cc1 58fd 64c1 3eae 65c1
00000090: 1516 f0c0 9dff e3c0 bfd1 49c1 40a8 4ac1
000000a0: a1f3 e5c0 fc5e 51c1 964e 69c1 cc4d 5fc1
000000b0: e76d 60c1 bba0 ffc0 a152 f3c0 ccc3 17c1
000000c0: 4806 59c1 bf50 73c1 b8b1 2ec1 5f37 49c1
000000d0: 2f55 49c1 01fe 4bc1 a779 fbc0 7a8f d6c0
000000e0: 6660 5ec1 57d1 4ec1 1405 71c1 e97a 5fc1
000000f0: 3956 6ec1 b13f 51c1 07ae 57c1 0ed9 00c1
00000100: 280a 4dc1 7f7b 5fc1 41f4 5bc1 2918 4dc1
00000110: c8f8 14c1 22cf e3c0 05c6 4fc1 9a4a 68c1
00000120: b34e 21c1 35df 63c1 c1a3 30c1 288a eec0
00000130: a655 67c1 693b 58c1 37df 6fc1 839d 95c0
00000140: 4ae1 65c1 1329 74c1 0a13 69c1 f1cc 50c1
00000150: 6d68 40c1 5630 4cc1 46ad ab40 d023 4fc1
00000160: 8a4f 4ec1 9064 77c1 05ff ddc0 3dbc 4ac1
00000170: 4b0e 6cc1 60a7 56c1 eaa2 6dc1 424f e9c0
00000180: 2b5c a2c0 a322 84c1 4307 5bc1 2202 13c1
00000190: 602f 09c2 7e6a 51c1 aeae 4ec1 1879 53c1
000001a0: 0dba 4cc1 a0b1 51c1 0fc3 46c1 5e8a 66c1
000001b0: 91c3 22c1 3611 e8c0 6176 a1c1 5096 64c1
000001c0: ee84 54c1 d7e2 66c1 d576 74c1 9eaa 58c1
000001d0: a762 4dc1 61a5 31c1 5e0b 5ac1 def9 22c1
000001e0: 77a9 18c1 0a7d 1fc1 afb1 1ac1 f23a 4bc1
000001f0: 6985 0fc1 5e98 f1c0 051d ebc0 8ef0 48c1
00000200: 282d 02c1 ba7b 17c1 be74 38c1 0f74 4ec1
00000210: 4b24 5ac1 93e3 cbc1 0646 6ac1 a3f2 53c1
00000220: c049 4bc1 cbd6 e4c0 da8e d2c0 efaf 57c1
00000230: b0d0 3cc1 0b08 62c1 b129 53c1 f4d0 4cc1
00000240: 1a1a 7dc1 bad1 5bc1 11ac c8c0 4e83 19c1
00000250: a827 eec0 a442 63c1 dc36 cdc0 e01a 50c1
00000260: 7ae0 5bc1 8f9a 69c1 06f4 4fc1 4ed2 56c1
00000270: 1a34 dfc0 6b5f 43c1 a97f 58c1 cfaf 50c1
00000280: 1e24 e4c0 9b44 5cc1 15b2 4ac1 9421 4dc1
00000290: c9e2 f0c0 188b 5cc1 5cba 6cc1 90ee 58c1
000002a0: 5dbe d2c0 3b31 72c1 31b7 ebc0 30af 53c1
000002b0: 473e 56c1 8404 0ec1 2809 58c1 8478 5bc1
000002c0: 6dbf 0ac1 5a4c 4ec1 f249 5ec1 e95d 76c1
000002d0: 38a1 4dc1 0ea8 dbc0 6d19 42c1 a78c 29c1
000002e0: 9fa1 52c1 8748 70c1 d29b 53c1 1b8a 46c1
000002f0: 0dc8 42c1 d55e 4ec1 26df 58c1 fef1 44c1
00000300: 0020 5ac1 9203 53c1 553e 54c1 92ca 52c1
00000310: cee3 4bc1 5c5a 58c1 310a 81c1 c393 70c1
00000320: 2552 eac0 3375 4cc1 f15b 5dc1 f9af 51c1
00000330: b0f3 5cc1 785d 49c1 28dd 16c1 1d36 22c1
00000340: fde1 53c1 7846 40c1 2c5d 80c1 fabf 6cc1
00000350: 0e19 efc0 8090 58c1 5db6 55c1 09f5 77c1
00000360: 09be dcc0 d3dd ebc0 32aa 71c1 7b99 97c0
00000370: 729c 4dc1 b4af 68c1 394a 5ac1 dce8 6bc1
00000380: 9032 4ac1 49f6 5bc1 daaa 4dc1 1cd9 5bc1
00000390: f6a2 46c1 fa50 60c1 33e4 67c1 3d19 60c1
000003a0: 4031 4cc1 0f20 e6c0 7947 4bc1 80dd edc0
000003b0: c1ea 4ec1 cf44 7dc1 b4d6 51c1 a2e8 6ec1
000003c0: 9d6a 6bc1 4341 71c1 b786 ebc0 8643 58c1
000003d0: d7eb 90c0 5e5c d0c0 d20b 4cc1 f119 5ec1
000003e0: 05d1 41c1 1aed 85c1 e3f1 53c1 7f80 73c1
000003f0: 2aa5 2dc1 2809 81c0 515f 5ac1 a15e a9c0

camada2.weight f4 [1, 256]
-3.6888669 -1.25417 -1.3240812 -1.0030584 -1.2298968 -1.192551 -1.1950794 -1.2427416
-1.2066276 -1.1175647 -12.168526 -5.2328978 4.087448 -1.0272502 -1.3044461 -1.0251904
-1.1847528 -3.9467547 -1.2115009 -1.1986268 -1.3283532 -1.2666706 -1.2007182 -2.21782
-0.9932477 -0.97905993 -11.892058 -1.2372289 -1.1942147 -1.3921897 -5.6808567 -1.2805635
-2.8023033 -0.9969739 -1.3409415 -1.3516108 -7.1325746 13.002996 -1.2021095 -1.1705165
-2.9642422 -1.2275531 -1.3689615 -1.3121386 -1.3272902 10.183386 -5.037907 -11.93611
-1.2767458 -1.4414515 -16.399498 -1.1891149 -1.2004132 -1.1837356 -5.9795146 -4.636011
-1.3032857 -1.2267376 -1.4238615 -1.3196977 -1.406803 -1.2511165 -1.2801957 -4.3981934
-1.2197558 -1.3199741 -1.311345 -1.1987535 -10.081053 -5.4560337 -1.2154388 -1.3702955
-11.158872 -1.3333141 -1.0627638 -2.3220649 -1.368868 -1.2762643 -1.4150311 15.852118
-1.3565775 -1.4525458 -1.3690511 -1.2236593 -1.1245034 -1.2383802 -9.547937 -1.2306448
-1.2198547 -1.464584 -5.651651 -1.1709713 -1.3896565 -1.2691 -1.0032352 -6.544876
8.571926 -1.4718982 -1.2982252 -15.776149 -0.98533875 -1.2364812 -1.2240806 33.270855
-1.2105333 -1.2206113 -1.1521252 -1.358866 -10.382021 -1.6657687 -0.99501055 -1.3428475
-1.2428502 -0.5208749 -1.4511379 -1.2871886 -1.2208376 -1.1007557 -1.0495452 -7.4235744
-14.011383 -6.776683 -13.2924 -1.2174127 -9.835836 -12.912448 -1.8103628 -1.1835387
8.547688 -14.953212 -1.1531223 -1.2053766 -1.2968254 -0.9843233 45.726 -1.2549121
-1.137365 -2.4934342 -4.2223215 -1.2740805 -1.1049987 -1.325377 -1.233306 -1.097788
-1.4750037 -1.2880398 12.269178 -16.81295 -1.1909136 -1.3433994 -3.359815 -1.2396237
-1.3040824 -1.3805543 -1.2432114 -1.2720581 7.2865133 -1.145185 -1.2816193 -1.2235442
-2.4767263 -1.3106438 -1.1270787 -1.2075766 -4.3982987 -1.2953779 -1.3913958 -1.293358
-2.2099724 -1.4368461 -3.7338045 -1.2581958 -1.2772301 -15.086833 -1.2849826 -1.3050102
-13.302898 -1.2259128 -1.0349953 -1.4574057 -1.2032713 11.674521 -1.0786538 -18.659107
-1.2696059 -1.424766 -1.2430168 -1.1709784 -1.1102061 -1.2102009 -1.2808225 -1.0046211
-1.2799354 -1.2343625 -1.2643028 -1.2531959 -1.1767466 -1.2840793 -1.0001489 -1.4359819
-2.737852 -1.1858673 -1.0342358 -1.2394881 -1.3092593 -1.1901703 -11.553839 -7.426308
-1.2439868 -1.1617813 -0.9915186 -1.4017102 -2.7829366 -1.2902894 -1.2665744 -1.4711945
-3.748785 -1.2230902 -1.4402734 12.5359335 -1.2059473 -1.3773105 -1.2894775 -1.39059
-1.1749012 -1.0333359 -1.2182928 -1.2835486 -1.1700865 -1.3287209 -0.9819555 -1.3198959
-1.2109075 -2.7231305 -1.138312 -1.916103 -1.2198913 -1.0048423 -1.2470043 -1.4204335
-1.3868136 -1.428738 -3.656222 -1.2894765 13.757618 11.487389 -1.2028881 -1.3078803
-1.0725919 -1.0046732 -1.2495719 -1.4458423 -14.874593 8.119014 -1.2927914 5.2317157
00000000: 6516 6cc0 a488 a0bf 7e7b a9bf 3864 80bf
00000010: 426d 9dbf 83a5 98bf 5df8 98bf 2812 9fbf
00000020: c672 9abf 5c0c 8fbf 48b2 42c1 e673 a7c0
00000030: 60cc 8240 ef7c 83bf 17f8 a6bf 7039 83bf
00000040: fba5 97bf a197 7cc0 7612 9bbf 9a6c 99bf
00000050: 7a07 aabf 4322 a2bf 22b1 99bf c3f0 0dc0
00000060: 7b45 7ebf aca3 7abf df45 3ec1 845d 9ebf
00000070: 07dc 98bf 4633 b2bf 94c9 b5c0 81e9 a3bf
00000080: f058 33c0 ae39 7fbf f9a3 abbf 9501 adbf
00000090: 0d3e e4c0 460c 5041 b9de 99bf 7cd3 95bf
000000a0: 25b6 3dc0 7620 9dbf 213a afbf 28f4 a7bf
000000b0: a5e4 a9bf 26ef 2241 8936 a1c0 4efa 3ec1
000000c0: 686c a3bf 7c81 b8bf 2c32 83c1 eb34 98bf
000000d0: 24a7 99bf a684 97bf 2f58 bfc0 345a 94c0
000000e0: 11d2 a6bf bd05 9dbf 1841 b6bf dbeb a8bf
000000f0: 1f12 b4bf 9624 a0bf 74dd a3bf 00be 8cc0
00000100: f520 9cbf e9f4 a8bf 27da a7bf c170 99bf
00000110: fe4b 21c1 d497 aec0 8093 9bbf d865 afbf
00000120: bd8a 32c1 09aa aabf a508 88bf b69c 14c0
00000130: 1137 afbf a15c a3bf bd1f b5bf 46a2 7d41
00000140: 55a4 adbf 05ed b9bf 113d afbf dea0 9cbf
00000150: baef 8fbf 3e83 9ebf 5ac4 18c1 c585 9dbf
00000160: 3324 9cbf 7d77 bbbf 53da b4c0 63e2 95bf
00000170: 44e0 b1bf de71 a2bf 036a 80bf a06f d1c0
00000180: 9c26 0941 2967 bcbf 3e2c a6bf 1b6b 7cc1
00000190: 293f 7cbf 0445 9ebf acae 9cbf 5b15 0542
000001a0: c1f2 9abf fe3c 9cbf d778 93bf 52ef adbf
000001b0: c21c 26c1 e937 d5bf 03b9 7ebf 6de2 abbf
000001c0: b715 9fbf 0f58 05bf e3be b9bf 99c2 a4bf
000001d0: 6844 9cbf 90e5 8cbf 7f57 86bf ec8d edc0
000001e0: a02e 60c1 96da d8c0 acad 54c1 2ed4 9bbf
000001f0: 965f 1dc1 6399 4ec1 f8b9 e7bf 327e 97bf
00000200: 54c3 0841 5b40 6fc1 8399 93bf c849 9abf
00000210: 60fe a5bf 9dfc 7bbf 6de7 3642 f6a0 a0bf
00000220: 2d95 91bf 6d94 1fc0 421d 87c0 1215 a3bf
00000230: 9970 8dbf f4a5 a9bf f9dc 9dbf 5184 8cbf
00000240: eccc bcbf 7dde a4bf 8e4e 4441 ec80 86c1
00000250: db6f 98bf 83f4 abbf 3507 57c0 fdab 9ebf
00000260: 2cec a6bf 01b6 b0bf 8d21 9fbf cdd2 a2bf
00000270: 1e2b e940 6c95 92bf 1a0c a4bf 199d 9cbf
00000280: af82 1ec0 2dc3 a7bf 1d44 90bf df91 9abf
00000290: ddbe 8cc0 f1ce a5bf 4219 b2bf c18c a5bf
000002a0: 3070 0dc0 93ea b7bf a7f6 6ec0 8f0c a1bf
000002b0: 477c a3bf ab63 71c1 4f7a a4bf 930a a7bf
000002c0: acd8 54c1 b6ea 9cbf ba7a 84bf 458c babf
000002d0: cb04 9abf d7ca 3a41 5411 8abf da45 95c1
000002e0: 7282 a2bf bb5e b6bf 2d1b 9fbf 9fe2 95bf
000002f0: 3c1b 8ebf dde7 9abf fef1 a3bf 6d97 80bf
00000300: ecd4 a3bf 97ff 9dbf add4 a1bf b968 a0bf
00000310: a29f 96bf b65c a4bf e104 80bf 41ce b7bf
00000320: f838 2fc0 80ca 97bf d761 84bf 8ca7 9ebf
00000330: cf95 a7bf 8057 98bf 86dc 38c1 51a4 edc0
00000340: f63a 9fbf 40b5 94bf 2ad4 7dbf 3d6b b3bf
00000350: a21b 32c0 3428 a5bf 1c1f a2bf 1a50 bcbf
00000360: 18ec 6fc0 388e 9cbf e15a b8bf 2f93 4841
00000370: 7b5c 9abf b64b b0bf 990d a5bf dafe b1bf
00000380: 2a63 96bf 5a44 84bf 05f1 9bbf 524b a4bf
00000390: 65c5 95bf 8713 aabf 7061 7bbf 59f2 a8bf
000003a0: 04ff 9abf c547 2ec0 35b4 91bf dd42 f5bf
000003b0: 6625 9cbf ac9e 80bf d69d 9fbf c4d0 b5bf
000003c0: 1c83 b1bf e3e0 b6bf 8bff 69c0 910d a5bf
000003d0: 341f 5c41 58cc 3741 3df8 99bf 9f68 a7bf
000003e0: b14a 89bf 2299 80bf f9f1 9fbf 5c11 b9bf
000003f0: 55fe 6dc1 7be7 0141 307a a5bf 376a a740
