DeepLearning/experimentos/images/Sontag 2 (9, 9).pth (torch, 3573 bytes, 5 tensors)

camada1.weight f4 [9, 2]
8.213878 4.727972 -2.771378 -7.567995 4.539376 1.9345818 8.833349 -5.9602957
-5.523327 13.3327465 -6.852688 3.4024582 3.258065 -7.55791 -2.8883252 6.5834475
-5.2859755 0.08562186
00000000: 0b6c 0341 8c4b 9740 425e 31c0 042d f2c0
00000010: 9142 9140 60a0 f73f 6655 0d41 beba bec0
00000020: 18bf b0c0 ee52 5541 3849 dbc0 e0c1 5940
00000030: 2384 5040 66da f1c0 52da 38c0 9aab d240
00000040: b626 a9c0 845a af3d

camada1.bias f4 [9]
4.469569 -5.1520486 -2.83571 4.53868 -6.639638 4.145458 -5.3896875 -1.1832916
-3.177235
00000000: b606 8f40 95dd a4c0 467c 35c0 de3c 9140
00000010: ea77 d4c0 98a7 8440 5278 acc0 1976 97bf
00000020: d157 4bc0

camada2.weight f4 [9, 9]
-8.424919 13.749912 19.002975 -5.0557384 8.408383 -1.88772 0.8195649 3.626288
-7.2311883 6.836724 -14.961454 -17.228836 0.8401958 -0.4730505 -0.7014126 0.3894334
-6.235349 -2.1996794 -11.012147 8.047776 13.212542 8.462229 8.508568 -5.6784334
-1.7121189 4.4413295 1.9280721 3.7540607 -5.6945515 -8.425458 4.9432096 17.652498
2.8701227 -6.3109083 4.155543 -3.4664361 4.099405 -17.271053 -14.369126 0.35425818
-3.1023393 5.772129 -20.63244 -4.381479 -8.067337 -7.037188 6.579202 14.948177
-11.783771 9.090473 -5.0281186 14.185905 2.4697921 9.187545 -0.4686496 6.198905
-11.210456 -2.8587368 -1.7328358 0.15798688 8.142348 -4.489091 8.776334 -2.3155403
-2.6245444 12.059375 -2.0834622 -19.176306 -4.3880477 11.0087185 3.9663177 7.488554
-8.523129 14.105844 1.0936935 -1.9743751 -13.531391 -10.524293 11.421144 -17.941414
2.2871406
00000000: 78cc 06c1 a4ff 5b41 1806 9841 9cc8 a1c0
00000010: bd88 0641 cfa0 f1bf 01cf 513f 1a15 6840
00000020: e565 e7c0 71c6 da40 1e62 6fc1 a8d4 89c1
00000030: 1217 573f ad33 f2be c78f 33bf d163 c73e
00000040: fb87 c7c0 8cc7 0cc0 c131 30c1 b1c3 0041
00000050: 9266 5341 4a65 0741 1823 0841 bab5 b5c0
00000060: b626 dbbf 5f1f 8e40 11cb f63f 8842 7040
00000070: c439 b6c0 adce 06c1 c62e 9e40 5138 8d41
00000080: 17b0 3740 f6f2 c9c0 35fa 8440 17da 5dc0
00000090: 532e 8340 1e2b 8ac1 f1e7 65c1 5461 b53e
000000a0: ba8c 46c0 48b5 b840 3d0f a5c1 1335 8cc0
000000b0: d013 01c1 a530 e1c0 d388 d240 bc2b 6f41
000000c0: 538a 3cc1 9472 1141 59e6 a0c0 78f9 6241
000000d0: 1311 1e40 2f00 1341 d7f2 efbe 6e5d c640
000000e0: 075e 33c1 8bf5 36c0 90cd ddbf 50c7 213e
000000f0: 0f47 0241 a2a6 8fc0 dd6b 0c41 d031 14c0
00000100: 89f8 27c0 33f3 4041 7257 05c0 1369 99c1
00000110: e36a 8cc0 b623 3041 26d8 7d40 3ca2 ef40
00000120: bd5e 08c1 89b1 6141 26fe 8b3f 53b8 fcbf
00000130: 9480 58c1 8163 28c1 01bd 3641 0488 8fc1
00000140: 8360 1240

camada2.bias f4 [9]
-0.57079107 2.316979 -4.692287 2.589648 -0.36148015 -3.4462936 -3.772467 -2.5361764
-2.1405632
00000000: 5d1f 12bf 6249 1440 3727 96c0 cbbc 2540
00000010: ed13 b9be 1390 5cc0 1970 71c0 b750 22c0
00000020: fdfe 08c0

camada3.weight f4 [1, 9]
-6.20154 -2.5894518 -3.9912972 8.141332 -26.110708 -9.471379 -15.690549 -16.023746
27.39554
00000000: 0473 c6c0 94b9 25c0 6a71 7fc0 e542 0241
00000010: bbe2 d0c1 c58a 17c1 7d0c 7bc1 a230 80c1
00000020: 112a db41
