DeepLearning/experimentos/images/Sontag 3 (21, 21, 21).pth (torch, 7633 bytes, 7 tensors)

camada1.weight f4 [21, 2]
00000000: 751a b5bf 9b69 cfc0 875f b0bd c330 c1c0
00000010: 6fa5 d9c0 92ca b140 1462 40bc 4d98 1741
00000020: a787 0bc0 b35a eb3f c394 c2bf 842f d13f
00000030: 1175 d840 995d 1e40 fc3f c6c0 f447 8540
00000040: f4d6 dbbd 4678 ccc0 984d ba3e 506b 1e40
00000050: 8779 de40 5650 093d 7f7a af40 82e6 6a40
00000060: 8f2f e8bf 4bb5 e03f 74b3 b43d a551 ebc0
00000070: dc64 f840 bf87 7640 d3e4 d640 2cb5 fb40
00000080: 2b09 f9be 35df 0ec1 b786 50c0 fa6a b63f
00000090: f241 0bbc 1bc5 c740 3024 a640 ac93 63c0
000000a0: 2310 fa3b 5bd4 c340
-1.4148699 -6.4816413 -0.086119704 -6.0372024 -6.8014445 5.555978 -0.011742134 9.474683
-2.1801546 1.8387054 -1.5201648 1.6342626 6.7642903 2.4744627 -6.1953106 4.1650333
-0.107343584 -6.389682 0.36387324 2.4752998 6.952335 0.03352388 5.483703 3.670319
-1.8139514 1.7555326 0.088232905 -7.3537164 7.762312 3.8520353 6.7154326 7.8658657
-0.48639807 -8.929494 -3.2582223 1.4251397 -0.008499609 6.2428107 5.1919174 -3.5558882
0.007631318 6.1196723

camada1.bias f4 [21]
00000000: 8233 a240 46bf b7c0 3c55 e4bf 336c e4c0
00000010: eda8 99c1 b8dd 86c1 0ecf 9fc0 08b5 8cc0
00000020: ab77 c7c0 413f 6ec1 711e e2c0 638e 66c0
00000030: 7d6d 94c1 4584 d4c0 0cb5 7e40 da76 9440
00000040: 2a1a 93c0 f781 84c1 972a c9c0 0733 58c0
00000050: 140b c5c0
5.0687876 -5.742099 -1.7838511 -7.138208 -19.207483 -16.858261 -4.994025 -4.3970985
-6.233358 -14.890443 -7.066216 -3.6024406 -18.553461 -6.641146 3.9798002 4.6395082
-4.596944 -16.56346 -6.286449 -3.3781145 -6.1576023

camada2.weight f4 [21, 21]
00000000: 6862 5abf 40a4 3fc0 7cd3 fabc 178d 61c0
00000010: a788 973e f3f5 3f3d 562c 7c3f 2376 1b40
00000020: 5265 b7c0 c90b c83e 06fa a240 14c8 f53e
00000030: d32d 0bbe 9458 c0c0 dd80 d6bf f791 afc0
00000040: 1a92 d940 721b 0b3d 4932 c740 1952 9c40
00000050: 29b2 bb40 82be 93bf 60ac 7bbe e438 15c1
00000060: 1247 ecc0 a5a6 c6bf 2cc7 e9bf c52c 3f40
00000070: 9ab2 e4c0 fcc4 d4bf 2c2e 89c0 cf04 a640
00000080: 64b1 07c0 1105 ecbf 9512 89c0 918b cbbf
00000090: 0fac 73bf d00a 27c0 9751 0fc0 524f bec0
000000a0: f45f 0841 7580 bac0 3b7f 46c0 69b3 d240
000000b0: 21c0 5fc0 ddc5 c940 7407 21c0 62e9 21c0
000000c0: 330f 0840 97a0 85c0 3ecd 1441 d30a d9bf
000000d0: 3d6d b840 0699 7b3f 9b28 1dc0 76ea 3641
000000e0: 403d 1ec0 737c 2ec0 e798 f5be e1d1 14c0
000000f0: 8a31 62c0 18f2 4e40 4af2 49c0 56d1 dcbf
00000100: 1596 20c0 88d5 1540 cea9 1d41 81b5 ea3e
00000110: 86e7 c23e 3cf4 f540 9eac e740 d29c a3c0
00000120: dedf ac3f 1e19 9040 1832 0541 c63f b43e
00000130: a6ec 60c0 d555 3fc0 1e35 5fc0 df45 d440
00000140: f76f cabe 9210 b540 b9d5 4940 c62a c540
00000150: 505b c140 1886 fa3f a357 43c0 0f9a abc0
00000160: 5770 a1bd a1aa c2bd ca62 a540 2212 efc0
00000170: 387e 89bf 9368 b8be 1570 813f 2909 f93f
00000180: db5e b73e 4367 f43f 125a 91bf acd6 5640
00000190: 6623 cec0 181c 5fbc 8e5e a8c0 f5e7 7b3f
000001a0: 6308 9fc0 910c 7bc1 4f34 5dc1 7e4d 62c1
000001b0: 9e3c 46c1 5552 63c1 f18e 68c1 fd42 53c1
000001c0: 6717 79c1 b0ef 3cc1 97af 6cc1 0932 82c1
000001d0: 4395 87c1 56d3 65c1 a879 36c1 a8f8 95c1
000001e0: 0b3e 56c1 af12 93c1 054d 66c1 e785 87c1
000001f0: 879f 83c1 0a40 87c1 f2ae 8f40 c7da dac0
00000200: 85a4 6dbf bc8e 0140 f946 0540 e9e5 db3f
00000210: 90ae 2abf 2cdf 12c0 0ee8 92c0 0e60 b53c
00000220: af49 b8c0 aab1 363f 9a86 ce3f 3d6c 1cc1
00000230: c17d 873f 4f55 8b40 87f4 d7bf 2f60 e83f
00000240: 4ca9 dfc0 20f1 2bc1 3536 d3c0 3f4d 2b40
00000250: 3d32 2040 402a a33f db8f 1541 e9f2 c13f
00000260: 4bde 8a3f 3dde 89c0 b535 84bf 9fc8 8340
00000270: 967c 153f b01d 39c0 0fb8 8bc0 96ce af3f
00000280: cf51 c840 bfc3 08c1 7637 1fc0 71eb f640
00000290: 3770 fb3f 103c 4ec0 70ef 913f 901c 35c0
000002a0: 1f21 73c0 4214 80c0 8621 b53f 51b7 c940
000002b0: ddda f0bd 923b 4d3d 42c0 9040 beed f240
000002c0: 5de7 b6c0 05ff 613e 59e9 0740 12e2 8040
000002d0: 46e9 14bb 9daf d6c0 6583 a4bf 9f72 3fc0
000002e0: 63a8 8e40 5a55 b33d 3e0e 8540 3cec c040
000002f0: f25a 8040 1c30 26c1 5ace 09c1 4fec 6ec1
00000300: f0af 2bc1 336b 20c1 8788 22c1 5ecf b7bf
00000310: 0c0f 41c1 a858 3ac1 bca4 39c1 cfe2 4b40
00000320: d917 dfc0 cad4 21c1 f880 4ec1 21f9 0ac1
00000330: 9a11 17c1 2b5b 11c1 59ae 2ac1 cca4 54c1
00000340: e8cc 3340 a745 4fc1 9910 a0c0 f4dc 65c0
00000350: a61a 973e 315b 49bf e38c 0cbe ea3d 0abe
00000360: 1665 d040 b1d2 07c0 abed 93c0 7b0d 2f3f
00000370: 4c45 9640 4524 af40 1cb0 c9bc f0ac c2c0
00000380: fa8f cdbf 71ec 59c0 16d4 8640 cb44 3fbf
00000390: 512b c740 87d7 7940 a662 c440 fe83 a7c0
000003a0: 8982 9d40 617e c140 148a 2dc0 4900 80c0
000003b0: 065e 82c0 0243 ed40 a711 8540 b416 7640
000003c0: c285 9dc0 f082 1541 5098 8240 ba35 73c0
000003d0: 7e5c 4740 2d58 12c0 ea40 a2c0 757a 603d
000003e0: 9f92 57c0 2829 92c0 d770 9740 55e9 90c0
000003f0: 7206 24c1 d26e bbc0 0e27 1440 8fd7 3341
-0.85306406 -2.9944 -0.030618422 -3.5242364 0.29596445 0.046865415 0.9850515 2.4290855
-5.731118 0.3907149 5.0930204 0.4800421 -0.135917 -6.0108128 -1.6758076 -5.486568
6.7990847 0.03396172 6.2248883 4.8850217 5.865498 -1.1542513 -0.24577475 -9.326389
-7.3836756 -1.5519606 -1.8263907 2.9871075 -7.146802 -1.6622615 -4.286886 5.188087
-2.120202 -1.8439046 -4.2835183 -1.5901967 -0.95184416 -2.610035 -2.2393548 -5.9471827
8.523426 -5.828181 -3.1015155 6.5844007 -3.4961016 6.305403 -2.51608 -2.5298696
2.1259277 -4.1758533 9.300108 -1.6956428 5.7633348 0.9828037 -2.4556034 11.432241
-2.4724884 -2.7263458 -0.47968218 -2.32531 -3.5342736 3.2335262 -3.1554132 -1.7251384
-2.5091603 2.341158 9.853956 0.45841601 0.38067263 7.686064 7.2398214 -5.112893
1.3505819 4.503066 8.32473 0.35204905 -3.5144439 -2.9896138 -3.487617 6.633529
-0.39538547 5.6582727 3.1536696 6.1614714 6.0423965 1.9572172 -3.052224 -5.362556
-0.07882755 -0.09505201 5.168309 -7.4709635 -1.0741644 -0.36017284 1.011233 1.945592
0.35814556 1.9094013 -1.1355612 3.3568525 -6.441821 -0.013617538 -5.2615423 0.98400813
-4.969774 -15.690568 -13.825271 -14.143919 -12.389799 -14.207601 -14.534898 -13.203855
-15.568213 -11.808517 -14.792869 -16.274431 -16.947882 -14.364096 -11.404701 -18.746414
-13.390147 -18.384123 -14.393804 -16.940382 -16.452894 -16.90627 4.4901056 -6.839206
-0.9282916 2.0243368 2.0824568 1.7179538 -0.6667261 -2.2948713 -4.590827 0.022140529
-5.7589946 0.71364844 1.6134827 -9.776425 1.0585252 4.3541636 -1.6871499 1.8154353
-6.989416 -10.746368 -6.600367 2.6765897 2.5030663 1.2747269 9.347621 1.5152255
1.0849088 -4.3083787 -1.032889 4.11824 0.5839323 -2.892437 -4.366218 1.373492
6.2599864 -8.54779 -2.48776 7.7162404 1.964362 -3.222416 1.1401196 -2.8298683
-3.7988966 -4.002473 1.4150856 6.3036275 -0.11760495 0.05010564 4.523469 7.5915213
-5.7157426 0.22069938 2.1236174 4.0275965 -0.002272205 -6.708937 -1.2852598 -2.991371
4.458055 0.08756514 4.1579885 6.028837 4.0111017 -10.386745 -8.612879 -14.932693
-10.7304535 -10.026172 -10.158332 -1.4360158 -12.066174 -11.646645 -11.602718 3.1857183
-6.971661 -10.11445 -12.9064865 -8.6858225 -9.441797 -9.084758 -10.667565 -13.290234
2.8093815 -12.954505 -5.002026 -3.591611 0.2951252 -0.7865477 -0.13725619 -0.13500181
6.5123396 -2.1222346 -4.622762 0.68379945 4.695959 5.4731774 -0.024620108 -6.0836105
-1.6059563 -3.4050562 4.2133894 -0.74714345 6.2240376 3.9037797 6.137042 -5.2348623
4.9221845 6.046677 -2.7115526 -4.000035 -4.0739775 7.4144297 4.158405 3.8451357
-4.922578 9.344467 4.081093 -3.8001542 3.1150203 -2.2866318 -5.070424 0.054804284
-3.368324 -4.567524 4.7325244 -4.528483 -10.251574 -5.857278 2.3148837 11.240127

camada2.bias f4 [21]
00000000: fdfc 9c3e b40e eebf 1873 2cc0 27d5 d43e
00000010: ce70 5f3f e53a 95c1 28cd e23f 5cfa b83f
00000020: 8d32 05bf 3c6d 2ac1 e887 a9be a9de 9ac0
00000030: 6cd9 36c0 78ef b83e 734c e1bf 2b29 38bf
00000040: dac0 05c2 54d7 90bd 8c7e 2abf 3683 9f3a
00000050: 9be8 0e40
0.30661765 -1.8598237 -2.6945248 0.41568872 0.872815 -18.653757 1.7718859 1.4451404
-0.5203026 -10.651669 -0.331115 -4.83968 -2.8570204 0.361202 -1.7601455 -0.7193782
-33.43833 -0.070723206 -0.66599345 0.0012169841 2.232947

camada3.weight f4 [21, 21]
00000000: d652 a23f 6e0f 41c0 e772 16c1 179a e0be
00000010: 7072 1bbf 0c50 a8be a13d 0841 b601 88bf
00000020: 97b4 4fbe 2501 a93e 8c3c 20c0 08b7 bbc0
00000030: e147 e03f b321 05be a3c2 f5c0 bfa2 f53e
00000040: b5a1 04bf 8e86 2640 727c 53bf 36d5 d83f
00000050: 0398 33c1 4a85 b23f b9ce f43e 813e ccc0
00000060: 9d58 febf 90bc 973e 5239 36be 1392 f840
00000070: 0247 4fc0 bd34 29c0 bb5f 213f cf51 82c0
00000080: 76e4 99c0 f9b4 2a3f a57c af3f 9623 d5c0
00000090: e67d d440 22de 22bd ee10 2e40 30f4 2cc0
000000a0: 7994 b33f 7937 2dc1 6b2c 63c1 2490 f7c0
000000b0: ffab 1ec1 a034 a7c1 c6d7 aac1 73a3 90c0
000000c0: 8276 4fc1 a2f0 91c1 fcb2 5ec1 35ea 99c0
000000d0: 4666 2dc1 9a6b 4bc1 dfc0 86c0 09a8 f2c0
000000e0: 6d57 3ac1 aa36 07c1 b534 5fc0 d9f7 1ec1
000000f0: a214 5dc1 8f07 66c1 73d7 b8c1 17e9 6d40
00000100: 4c49 52bf fab8 21c1 315e 4640 a00e 0bc0
00000110: 3b31 523f 83d3 64c0 ea96 efbf c14e 8140
00000120: f358 d03f 0a07 8040 996b e8bf 29bb 43be
00000130: abb2 0e40 cfa0 48bf cf60 0040 af1b 8e3f
00000140: ebba 2840 18e2 be40 6ddf 7240 e11b 82c0
00000150: 80fa 7c3f f185 4140 f81e e5c0 9191 0940
00000160: 88b9 0ac0 3536 ebbf 9015 82c0 7227 22c0
00000170: fd0c 1a40 2968 03bf 3d5e 3240 89d3 2d41
00000180: cc04 24c1 fea8 7840 d036 5240 c55f 1c3f
00000190: f2b7 b7bf 3a69 933f b937 5940 4e88 803f
000001a0: 4902 2cc0 dbeb 1c40 db3d 58bd dc99 9ac0
000001b0: 4d74 6840 d09a 15c0 429e a6be dd76 afc0
000001c0: 1826 75bf 9bd7 7540 5589 953e 6f19 ec3f
000001d0: 43cb a640 ee15 12c1 6361 7240 582d aa3f
000001e0: 1ff1 2e40 a53a 64be 9219 2040 6630 9340
000001f0: 3fa2 d13f 8d62 96bf 81df 1340 7158 f23f
00000200: 9d30 02c1 f751 2f40 389b febf bc30 36bf
00000210: 0b86 b0c0 7f89 7bc0 9eab 4640 0dfc 093f
00000220: 368e 2740 31af de40 4c53 01c1 5477 4640
00000230: 6aa0 3840 5ed5 0240 0148 fbbe 6cef 9740
00000240: 1201 3540 0454 ac3f d895 29c0 2471 af40
00000250: 6972 8e3f 8d7d bbbf 037b 9740 7044 093c
00000260: 127a 253f 396e 2ec0 fae4 f23d f347 2b41
00000270: 2b0c be3f 3a22 5540 b49b 3dc1 1e03 0e40
00000280: 4fbb b040 f8fe eebf c360 c540 c0dc 893f
00000290: b13b 1941 cc66 1341 67af b240 3c68 fac0
000002a0: 47c9 9dc0 9398 6940 f6b9 603f 100e 42c1
000002b0: e1ae 9d40 b007 cb3f 5d37 eabe 8746 d7bd
000002c0: a4c0 24c1 190a 3940 5d1e 1fc1 08f9 2840
000002d0: 917c 4ac0 be71 bdc0 549a 5d3d a5ac a140
000002e0: 4c80 963f f997 efc0 905b 31c1 b405 39c0
000002f0: 88b8 0a40 be26 7bc1 8b07 07c1 03f0 40c1
00000300: 64cb afc1 ef55 cdc1 1d39 a2c0 a9a2 84c1
00000310: cac3 a8c1 0415 7cc1 48cb 9dc0 299c 3cc1
00000320: 79c1 52c1 5cb2 91c0 d382 0fc1 5dce 56c1
00000330: ca69 23c1 69dd 73c0 0e8d 27c1 79b0 77c1
00000340: 05c0 82c1 2d88 b7c1 acb4 2441 be16 4140
00000350: 98ec 0fc0 9299 ec40 398d 20be 2d8e 26be
00000360: e62e cebf dace fcbe ad76 4441 6284 753f
00000370: 90fe cf40 e62a fec0 7c9e 1c40 6707 7240
00000380: 893a debf 8f29 2040 dc80 b33d 33c6 0e41
00000390: d298 4541 e0db 1d41 bfc9 ebc0 2352 5440
000003a0: fd44 0d3f e1d9 1bc1 e4af 4840 aca2 d9bf
000003b0: b353 103f b945 7fc0 d5e7 89bf bab1 7440
000003c0: 102e 4b3f dd4d ce3e 2fe3 3ec0 3df9 09c1
000003d0: 2252 6340 c960 84bf 5ab1 933f 12d3 1d3f
000003e0: 18c8 1440 e128 9640 a5e3 3b40 ae41 19c0
000003f0: af4e 88c1 ea5d 0bc1 c6eb 60c1 ad6c c2c1
1.268153 -3.0165668 -9.403052 -0.4386756 -0.6072149 -0.3287357 8.515046 -1.0625522
-0.20283733 0.33008686 -2.5036955 -5.8660927 1.7521936 -0.13001136 -7.6800094 0.47975728
-0.51809245 2.6019626 -0.82611763 1.6940067 -11.224612 1.3946927 0.47813967 -6.38263
-1.9870793 0.2963605 -0.17795303 7.7678313 -3.238709 -2.643844 0.630367 -4.0724864
-4.8091383 0.6668239 1.3709913 -6.660594 6.6403685 -0.039762624 2.7197833 -2.702404
1.4029685 -10.826043 -14.198344 -7.7363453 -9.916991 -20.900696 -21.355358 -4.5199523
-12.966433 -18.242496 -13.918697 -4.8098397 -10.837469 -12.71377 -4.211044 -7.583012
-11.646344 -8.450846 -3.487592 -9.93551 -13.817537 -14.376845 -23.1052 3.7173517
-0.8214309 -10.10766 3.099499 -2.1727676 0.8210637 -3.5754097 -1.871793 4.0408635
1.6277145 4.0008593 -1.8157836 -0.19114365 2.229655 -0.78370374 2.0059087 1.1102198
2.6364086 5.9650993 3.7948868 -4.065903 0.9881973 3.0238001 -7.1600304 2.1495097
-2.167574 -1.8375918 -4.065132 -2.5336576 2.4070427 -0.5133081 2.7870018 10.864144
-10.251171 3.8853145 3.2845955 0.6108363 -1.4353011 1.1516488 3.394026 1.0041597
-2.6876395 2.4518955 -0.052793365 -4.8312817 3.6320984 -2.337574 -0.32542616 -5.4832597
-0.9576125 3.8412845 0.2920634 1.8445262 5.212312 -9.130354 3.787194 1.3295088
2.7334669 -0.22287996 2.5015607 4.599658 1.6377639 -1.1748825 2.3105166 1.893324
-8.1368685 2.7393777 -1.9891119 -0.7116811 -5.5163627 -3.930267 3.1042247 0.53900224
2.6180549 6.9588857 -8.082836 3.1010332 2.884791 2.044273 -0.49078372 4.7479763
2.8281903 1.346314 -2.6497707 5.482561 1.1128665 -1.464769 4.733766 0.008378133
0.6463939 -2.7254775 0.1186008 10.705066 1.4847463 3.330214 -11.850513 2.2189403
5.522865 -1.867156 6.1680617 1.0770493 9.577073 9.212597 5.5839114 -7.825224
-4.93082 3.6499374 0.87783754 -12.128433 4.9275975 1.5861721 -0.45745364 -0.10511499
-10.297031 2.8912413 -9.944913 2.6401997 -3.163853 -5.9201345 0.054102257 5.052325
1.1757903 -7.4873013 -11.084854 -2.890973 2.167513 -15.696959 -8.439342 -12.058597
-21.974312 -25.66696 -5.069472 -16.579424 -21.0956 -15.755131 -4.9310646 -11.788125
-13.172235 -4.5530224 -8.9694395 -13.425382 -10.213327 -3.8103888 -10.471937 -15.480584
-16.34376 -22.941492 10.294109 3.017013 -2.2488155 7.3937464 -0.15678872 -0.16265173
-1.6108062 -0.49376565 12.278974 0.95905125 6.4998245 -7.9427366 2.447173 3.7817018
-1.7361614 2.5025365 0.08764812 8.9233885 12.34981 9.86618 -7.368377 3.3175132
0.5518339 -9.740693 3.1357355 -1.7002769 0.56377715 -3.9886305 -1.0773875 3.8233476
0.7936716 0.4029378 -2.9826162 -8.623349 3.551888 -1.0342036 1.1538498 0.6165019
2.3247128 4.69249 2.9357693 -2.3946338 -17.03842 -8.710428 -14.057562 -24.303064

camada3.bias f4 [21]
00000000: cb16 b9bf 8ef9 8cbe 7dc3 bbc1 93fb 27bf
00000010: 9093 07c0 1eb9 84bf 4ed8 72bf 75ad f2bd
00000020: a926 4640 933f e7c1 03d9 01be c6d1 2ebf
00000030: cb4d ffc1 6de0 86c1 1585 93bf 73f4 e9c1
00000040: c1b1 55bf 9b3b a2bf 1e49 37c2 3787 40bf
00000050: 6736 74bf
-1.4460081 -0.27534145 -23.470453 -0.65618247 -2.1183815 -1.0368993 -0.94861305 -0.118494906
3.0961096 -28.906042 -0.1268044 -0.6828884 -31.912985 -16.859583 -1.1524988 -29.24436
-0.83474356 -1.267444 -45.821404 -0.7520632 -0.9539551

camada4.weight f4 [1, 21]
00000000: b2fc 0e40 e801 0240 5f65 b13d c816 8fc0
00000010: 7e45 82c0 a663 68c0 c23f 78c0 3530 c040
00000020: c787 00c1 eaff 863d 8186 f340 b6bd 4ec0
00000030: f5e8 303d 5dbb bf3d 6ad2 6cc0 b6f5 88be
00000040: cddc 7ac0 491d 76c0 b12d debc f021 45c0
00000050: aafd 0f40
2.2341733 2.0313663 0.08661913 -4.471531 -4.070983 -3.631082 -3.8788915 6.0058846
-8.033149 0.065917805 7.610169 -3.230329 0.043190915 0.093619086 -3.7003427 -0.26749963
-3.9197266 -3.8455374 -0.027121397 -3.0801964 2.2498574
