DeepLearning/experimentos/images/Sontag 1 (128).pth (torch, 4643 bytes, 3 tensors)

camada1.weight f4 [128, 2]
000000 12 d4 8f c0 a9 9d 78 40 50 36 d3 40 e8 4e c5 39
       -4.4946375 3.8846228 6.60038 0.00037633558
000010 3a 94 8b c0 3b 4d 73 40 9d a9 cb 40 50 1d 9b 3d
       -4.361844 3.8015888 6.3644547 0.0757395
000020 0b 85 60 c0 73 d5 44 40 27 08 5e c0 d7 95 41 40
       -3.5081203 3.075528 -3.4692476 3.0247705
000030 19 26 5a c1 dd 67 6f 40 81 e9 b4 c0 b6 81 98 40
       -13.634301 3.7407143 -5.653504 4.765834
000040 a7 b2 a5 c0 b5 42 89 40 9a d2 62 c0 76 63 47 40
       -5.178058 4.289393 -3.544104 3.1154456
000050 51 ea 82 c0 d8 1b 68 40 06 9e 15 41 bd b9 62 40
       -4.091103 3.6266994 9.35108 3.5425866
000060 a5 38 a0 c0 4f 6a 85 40 71 fe 84 c0 dc 08 6b 40
       -5.0069146 4.169227 -4.1560597 3.6724157
000070 ad 3d 84 c0 e3 0d 6a 40 75 b6 b5 c0 d6 8c 99 40
       -4.132529 3.6570976 -5.6785226 4.798442
000080 82 d1 5e c0 3f 99 42 40 5c 9c ea be 9d ba 1e 41
       -3.4815373 3.0406034 -0.45822418 9.92056
000090 a7 ac 22 c0 38 e6 ef 3f 7f 54 81 c0 2f bf 65 40
       -2.5417879 1.8742132 -4.0415645 3.589794
0000a0 ed b1 98 c0 c0 0c 7b 41 35 d4 57 c0 a1 dd 39 40
       -4.7717195 15.690613 -3.372327 2.9041522
0000b0 d1 4a 55 c0 f7 91 36 40 28 27 80 40 28 2d b9 40
       -3.3326914 2.852659 4.00478 5.786762
0000c0 2f 3e 93 c0 50 41 5b c1 90 2e b9 c0 c1 c7 9e 40
       -4.601341 -13.703445 -5.786934 4.961884
0000d0 1d 5d 87 c0 1a 2f 6e 40 52 af b1 c0 bb b5 94 40
       -4.2301164 3.7216249 -5.5526514 4.647184
0000e0 47 b8 b7 c0 01 6b 9c 40 24 70 d8 40 2d 84 48 bd
       -5.741245 4.888062 6.763689 -0.048954178
0000f0 e5 b4 8d c0 50 bb 75 40 30 f1 7e c1 30 ce 98 3f
       -4.428332 3.8395576 -15.933884 1.1937923
000100 73 38 62 c0 4b a8 46 40 ac e8 2e c1 fa a2 fe be
       -3.5346954 3.1040218 -10.931805 -0.49733716
000110 32 0e 63 41 01 39 a2 c0 00 13 81 c0 ba 78 65 40
       14.190966 -5.0694585 -4.0335693 3.5854936
000120 5d 59 df 40 6e 99 d0 bd 25 c4 73 c0 aa 54 59 40
       6.9796586 -0.101855144 -3.8088467 3.3957925
000130 ba 8d b1 c0 9d 6f 94 40 14 9d 92 c0 a6 29 7b 40
       -5.5485506 4.6386247 -4.5816746 3.924417
000140 9c de b7 c0 4d b6 9c 40 45 ac b4 c0 2e 2f 98 40
       -5.745924 4.8972535 -5.646029 4.7557592
000150 4b bd 2a c1 bc 09 45 41 6d 02 8d c0 55 f4 74 40
       -10.671214 12.314877 -4.406546 3.8274128
000160 8f 5f 79 c0 74 a5 5e 40 d0 51 e9 be fa dc 39 41
       -3.8964574 3.4788485 -0.4557023 11.616449
000170 44 22 1e c1 55 0b aa be 58 57 a9 c0 f7 45 8c 40
       -9.883366 -0.3321177 -5.291912 4.3835406
000180 0e b4 8d c0 b8 ae 75 40 3f 3e a3 c0 7a 75 87 40
       -4.4282293 3.838789 -5.1013484 4.2330904
000190 80 b3 74 c0 d4 4a 5a 40 0a 33 9d c0 1d 82 83 40
       -3.8234558 3.4108171 -4.9124804 4.109633
0001a0 4b ab 28 41 6c 08 3d c1 d0 90 83 c0 2a 19 69 40
       10.54182 -11.814556 -4.1114273 3.642161
0001b0 17 5c bb c0 85 8b a2 40 db 7f 2e 41 b5 36 2e 41
       -5.8549914 5.079531 10.906215 10.888356
0001c0 dc 41 63 c0 25 81 a2 40 dd c2 0c be c1 e7 83 41
       -3.5508947 5.0782647 -0.1374621 16.488161
0001d0 aa c5 28 bf 52 c3 1e c1 ee a9 8e c0 c2 c5 76 40
       -0.6592661 -9.922686 -4.4582434 3.8558202
0001e0 50 6c 84 c0 30 40 6a 40 05 50 ac c0 0b f5 8e 40
       -4.1382217 3.6601677 -5.384768 4.4674125
0001f0 51 a9 c0 c0 87 4e 53 c1 62 b1 89 c0 d6 0c 71 40
       -6.0206685 -13.206672 -4.302903 3.7664084
000200 3e 78 ae c0 8b 0a 91 40 2b 85 a3 c0 62 ab 87 40
       -5.452178 4.532537 -5.110006 4.2396708
000210 fc 3f b1 c0 75 0c 94 40 4a 9c 1e 41 c2 ce a1 c0
       -5.5390606 4.6265206 9.9131565 -5.056489
000220 21 e3 98 3f 53 c0 81 c1 4b a2 81 c0 4d 43 66 40
       1.1944314 -16.218908 -4.051061 3.5978577
000230 e3 6e b6 c0 b7 89 9a 40 18 13 95 c0 82 c9 7d 40
       -5.701036 4.829311 -4.658581 3.965424
000240 9d d4 69 c0 d6 41 4f 40 26 14 70 c0 82 a6 55 40
       -3.653602 3.2383933 -3.7512298 3.3382878
000250 14 24 3e c0 21 7a 1a 40 f1 8e b7 c0 df 3d 9c 40
       -2.970952 2.4137042 -5.736199 4.8825526
000260 f5 56 32 c0 a2 e6 09 40 63 88 2f c0 6e 6b 06 40
       -2.7865574 2.1547017 -2.7426994 2.100307
000270 85 c1 dd 40 73 67 bb bd 7a 0b 69 40 63 e8 33 41
       6.929873 -0.09150591 3.6413255 11.244235
000280 39 85 19 c0 8f 42 de 3f c6 1c 81 c0 2a 75 65 40
       -2.3987563 1.7364062 -4.0347624 3.5852761
000290 cf 7f 28 c0 52 85 fc 3f f4 c6 b8 c0 5f 1a 9e 40
       -2.6328008 1.9728186 -5.7742863 4.940719
0002a0 2b da 3e c1 a1 f7 62 c0 49 7e 85 c0 4b ae 6b 40
       -11.928264 -3.546364 -4.1716657 3.682513
0002b0 5f 03 8b c0 a7 92 45 c1 a1 f1 ce 40 80 65 4a 3d
       -4.3441615 -12.348304 6.4669957 0.049413204
0002c0 62 94 b9 c0 b9 72 9f 40 19 c6 a0 c0 12 c7 85 40
       -5.799363 4.982754 -5.024182 4.1805506
0002d0 72 f9 53 c0 e3 39 35 40 4b 5c b7 c0 7d e6 9b 40
       -3.3121 2.8316581 -5.730016 4.871886
0002e0 4a c7 dc c0 6b 0c 55 41 11 50 7c c0 82 dc 60 40
       -6.8993273 13.315532 -3.9423869 3.5134587
0002f0 b0 49 f3 bf 2c 31 79 41 5e fe ec be 67 16 2d 41
       -1.9006863 15.574505 -0.46287817 10.817969
000300 d9 f1 ba c0 d7 c8 a1 40 54 3c 90 c0 60 86 78 40
       -5.8420224 5.0557666 -4.5073643 3.8832016
000310 05 62 ba c0 a5 2a a1 40 c8 fd 9d c0 5a f8 83 40
       -5.8244653 5.0364556 -4.937229 4.1240664
000320 91 d4 6f c0 85 9b 55 40 60 d5 b6 c0 f3 0d 9b 40
       -3.747349 3.3376172 -5.7135468 4.845453
000330 96 de b0 c0 d5 a9 93 40 89 38 b7 c0 82 a9 9b 40
       -5.527171 4.6144814 -5.7256513 4.864442
000340 c6 ff 85 c0 da 61 6c 40 a0 24 17 c0 4d 74 d9 3f
       -4.1874723 3.6934724 -2.3616104 1.6988617
000350 2b 18 58 c1 4e 83 b3 c0 f7 68 e6 c0 19 fd 44 40
       -13.5059 -5.6097784 -7.200313 3.0779479
000360 7c a2 9a c0 44 f9 81 40 62 e8 af c0 49 a1 92 40
       -4.8323345 4.061678 -5.497117 4.582188
000370 73 d3 4c 41 f1 5e 29 41 d7 28 aa c0 db f6 8c 40
       12.801623 10.585679 -5.3174853 4.4051337
000380 1f 0c 51 41 6d f7 94 40 ad a5 34 c0 92 b5 0c 40
       13.065459 4.6552033 -2.822612 2.1985822
000390 e1 8a 69 c0 1c 15 4f 40 ba 60 d5 bc 33 0f 44 c1
       -3.6491015 3.2356634 -0.0260471 -12.253711
0003a0 cd 2f 62 c0 35 92 46 40 5d 1c 69 c0 a7 b1 4e 40
       -3.5341675 3.1026738 -3.6423562 3.229593
0003b0 77 b1 de 3e 2f 29 86 c1 28 c3 a5 c0 e2 4d 89 40
       0.4349477 -16.77011 -5.180073 4.290757
0003c0 96 60 95 c0 28 40 7e 40 83 31 19 c0 ca 38 25 c1
       -4.6680403 3.9726658 -2.393647 -10.3263645
0003d0 26 d4 4c c1 72 78 22 41 70 da 7c c0 d3 3e 61 40
       -12.801794 10.154406 -3.9508324 3.5194595
0003e0 7b 4a 41 c0 90 c2 1c 40 71 c2 b3 c0 c7 01 97 40
       -3.020171 2.4493752 -5.6174855 4.718967
0003f0 0a 65 a3 c0 bf 89 87 40 a9 90 b4 c0 02 09 98 40
       -5.106084 4.2355647 -5.6426587 4.7510996

camada1.bias f4 [128]
000000 1f 5c 3f c1 73 bd e6 c0 a2 45 3a c1 9b 9a e1 c0
       -11.9599905 -7.210626 -11.642 -7.0501227
000010 ee bb 17 c1 3c cb 15 c1 4d 82 22 c1 59 be 6c c1
       -9.483381 -9.362118 -10.156812 -14.796472
000020 e4 85 58 c1 b1 51 19 c1 20 29 30 c1 e3 76 90 c0
       -13.532688 -9.582444 -11.01004 -4.5145125
000030 80 f6 51 c1 3d a3 32 c1 15 c6 31 c1 44 f0 6d c1
       -13.122681 -11.164853 -11.11086 -14.871159
000040 16 66 16 c1 42 5b 24 c1 00 05 d4 c0 5e 3d 2e c1
       -9.399923 -10.27228 -6.6256104 -10.889982
000050 0e af 30 41 20 2f 11 c1 96 3e 0f c1 87 bc 16 c1
       11.042738 -9.074005 -8.95278 -9.421027
000060 c1 ff d7 40 1e 9e 73 c1 bc 6c 35 c1 ea 32 68 c1
       6.74997 -15.226103 -11.3390465 -14.51243
000070 3d 1c 71 c1 28 6c ea c0 99 b1 3c c1 3c 97 c1 40
       -15.069394 -7.3257027 -11.793359 6.049711
000080 d4 df 18 c1 07 90 31 c1 08 20 26 c1 92 fb 2d c1
       -9.554646 -11.097663 -10.38282 -10.873919
000090 a2 bd ef c0 27 f6 24 c1 20 eb 67 c1 94 47 42 c1
       -7.4918985 -10.310096 -14.494904 -12.142475
0000a0 34 68 71 c1 79 60 6c c1 fc 82 27 c1 0b e8 3b c1
       -15.08794 -14.773553 -10.469479 -11.744151
0000b0 c1 af 28 c1 bc 3a 3e c1 d5 72 8e c0 52 15 5d c1
       -10.542909 -11.889339 -4.4515176 -13.817705
0000c0 1f ab 3c c1 e8 8d 55 c1 f9 9c 25 c1 95 68 4e c1
       -11.791778 -13.347145 -10.350823 -12.900533
0000d0 e4 6a 2a c1 55 f7 30 c1 67 86 77 c1 4e 8c 26 c1
       -10.651096 -11.060384 -15.470313 -10.409254
0000e0 7a be fe 40 dc fa 55 c1 c6 d3 35 40 66 c4 3d c1
       7.9607515 -13.373745 2.8410506 -11.860449
0000f0 a4 f6 31 c1 51 df 60 c1 87 6d 1e c1 7c 1a 38 c1
       -11.122715 -14.054521 -9.90174 -11.506466
000100 da ab 63 c1 34 e6 55 c1 a0 76 67 c1 7b dd 9e c0
       -14.229456 -13.368702 -14.466461 -4.964536
000110 ea a9 bf c0 d2 a2 2e c1 2e 0c 6f c1 73 0e 45 c1
       -5.9894915 -10.914751 -14.940474 -12.316028
000120 53 43 1e c1 ca 7a 22 c1 b3 07 fe c0 b3 e5 70 c1
       -9.891437 -10.154978 -7.93844 -15.056079
000130 41 91 ea c0 f1 56 e6 c0 b2 73 ee c0 69 bd 2c c1
       -7.330231 -7.198113 -7.451623 -10.796243
000140 4f 37 c8 c0 c9 fe 2d c1 d9 2b dc c0 17 e8 72 c1
       -6.2567515 -10.874703 -6.8803525 -15.181663
000150 24 f5 0f c1 48 36 33 c1 45 9a 9f c0 68 0e e4 c0
       -8.997349 -11.200752 -4.9875817 -7.1267586
000160 48 51 74 c1 b5 9d 52 c1 a9 6d 0e c1 86 8a 70 c1
       -15.269844 -13.163503 -8.9017725 -15.033819
000170 1f bd d3 40 4b 67 2a c1 86 fb 2d c1 30 00 32 c1
       6.616836 -10.650218 -10.873907 -11.125046
000180 dd bf 76 c1 1f 8f 3f c1 cd 02 76 c1 d8 4f 4f c1
       -15.421842 -11.972442 -15.375684 -12.956993
000190 a1 67 22 c1 83 a3 6f c1 2d f8 66 c1 a2 4a 70 c1
       -10.1503 -14.97742 -14.43559 -15.018221
0001a0 ba d1 33 c1 01 2e c5 c0 fb 43 1a c1 59 9d 65 c0
       -11.238703 -6.1618657 -9.641597 -3.5877287
0001b0 fd 69 4b c1 1b ab 65 c1 66 05 db 40 2e 19 5e c1
       -12.713376 -14.354274 6.844409 -13.881147
0001c0 28 9b 1d c1 ac b9 ed c0 2f 1e 1e c1 12 b6 46 c1
       -9.85038 -7.428915 -9.882369 -12.419451
0001d0 b4 d3 18 c1 41 de 1d c1 60 b5 5a c1 9d 98 58 c1
       -9.551685 -9.866761 -13.669281 -13.537259
0001e0 94 77 45 c1 dc 4b 13 c1 70 db 35 c1 d9 b5 2a c1
       -12.341694 -9.20602 -11.366074 -10.669396
0001f0 ef 3c 00 c1 9e 04 6b c1 18 b6 55 c1 98 35 6c c1
       -8.014876 -14.688627 -13.3569565 -14.763084

camada2.weight f4 [1, 128]
000000 92 4e 76 40 7d 6e a4 c0 96 3f 77 40 42 1d 79 c0
       3.8485456 -5.1384873 3.863256 -3.8924108
000010 6c 80 77 40 59 e9 78 40 b1 fc 2f c1 26 00 84 40
       3.8672132 3.8892424 -10.999192 4.125018
000020 e3 19 7f 40 38 d0 78 40 fd 22 77 40 6f c1 34 41
       3.985955 3.8877087 3.8615105 11.297225
000030 92 86 7c 40 f5 f5 76 40 c2 ca 76 40 eb 3a 84 40
       3.9457135 3.858762 3.8561254 4.132192
000040 ee b1 78 40 f6 c2 51 c1 74 63 4b 40 fc 62 77 40
       3.88586 -13.110098 3.1779451 3.8654165
000050 12 3a 67 41 da 62 77 40 b5 d5 76 40 5f 4f c0 c0
       14.451677 3.8654084 3.8567936 -6.009689
000060 f3 82 26 c1 2c f0 84 40 34 e7 76 40 92 ec 82 40
       -10.40697 4.154318 3.8578615 4.091378
000070 c6 b9 84 40 81 af c6 c0 55 85 77 40 66 e9 1b c1
       4.1476774 -6.208924 3.867513 -9.744482
000080 bf d2 78 40 e8 07 97 c1 85 01 37 c1 5a de 76 40
       3.887863 -18.87886 -11.437871 3.8573213
000090 ec 33 db c0 71 af 77 40 7c f5 82 40 14 42 78 40
       -6.850088 3.870083 4.0924664 3.879033
0000a0 56 bf 84 40 c8 ed 83 40 c9 89 1c c1 ce 62 77 40
       4.1483564 4.122776 -9.783639 3.8654056
0000b0 71 e2 75 40 e1 8b c8 c1 9c 38 58 41 a2 79 80 40
       3.841946 -25.0683 13.513821 4.0148478
0000c0 3d 9a 77 40 6a e2 7d 40 20 12 77 40 80 50 7b 40
       3.868789 3.9669442 3.8604813 3.9267883
0000d0 a9 53 79 c1 93 da 76 40 e6 fb 84 40 c1 70 9f c1
       -15.582925 3.8570907 4.1557493 -19.930056
0000e0 86 dd 69 40 93 4f 1b 42 77 f5 41 c1 97 b3 77 40
       3.6541457 38.82771 -12.122428 3.8703363
0000f0 a3 fd 76 40 d4 5a 81 40 f8 45 92 c1 ee 20 77 40
       3.8592308 4.0423374 -18.284164 3.8613849
000100 db 06 82 40 00 01 7e 40 be e0 82 40 7c 98 50 41
       4.063337 3.968811 4.0899343 13.037228
000110 49 72 16 41 01 14 77 40 37 6d 84 40 ae e5 78 40
       9.402902 3.860596 4.138332 3.8890185
000120 35 ae 78 40 4d 2d 78 40 b7 4a 49 40 98 aa 84 40
       3.8856328 3.877765 3.1451852 4.1458244
000130 b5 cb 4b 40 d4 74 4b 40 dc 06 db c0 2f 84 78 41
       3.1843083 3.1790056 -6.8445873 15.532271
000140 33 81 48 40 f0 32 77 40 f2 af 4a 40 9b e5 84 40
       3.1328857 3.862484 3.1669888 4.153028
000150 19 bc 19 c1 56 1d 77 40 b4 5e 1a 41 70 36 84 c0
       -9.608422 3.8611655 9.648121 -4.131645
000160 90 fb 84 40 23 c4 7c 40 41 56 73 40 04 a3 84 40
       4.1557083 3.9494712 3.8021395 4.1448994
000170 08 4d ce c0 c0 09 77 40 db 56 90 c1 9a 6d 9a c1
       -6.446903 3.85997 -18.04241 -19.303516
000180 a7 03 85 40 a8 eb 77 40 74 d7 84 40 76 b5 7b 40
       4.156696 3.8737583 4.1513004 3.9329505
000190 2a 73 77 40 19 89 84 40 ce bf 82 40 f9 9d 84 40
       3.866404 4.1417356 4.0859137 4.144284
0001a0 19 fa 76 40 12 1f 44 40 23 20 4e c1 46 64 71 41
       3.8590147 3.0643964 -12.882846 15.086981
0001b0 9a 82 7a 40 cf 6c 82 40 01 56 c1 c0 8c ba 80 40
       3.9142213 4.0757823 -6.0417485 4.022772
0001c0 ad 00 75 c1 8b c5 52 40 0f 98 78 40 58 23 06 c2
       -15.312665 3.293307 3.884281 -33.534515
0001d0 55 2e 79 40 e9 51 77 40 e7 b7 10 42 19 26 7f 40
       3.893453 3.8643744 36.179592 3.9867003
0001e0 ec 9d 78 40 40 11 0f 41 b1 89 59 c1 eb 52 77 40
       3.8846388 8.941711 -13.596116 3.864436
0001f0 81 d7 61 40 ee a8 83 40 ca 09 7e 40 12 e7 83 40
       3.5287783 4.1143713 3.9693475 4.121957
